{"format": "graph-model", "generatedBy": "1.14.0", "convertedBy": "TensorFlow.js Converter v1.2.6", "modelTopology": {"node": [ {"name": "strided_slice_37/stack_2", "op": "Const", "attr": {"value": {"tensor": {"dtype": "DT_INT32", "tensorShape": {"dim": [{"size": "2"}]}}}, "dtype": {"type": "DT_INT32"}}}, {"name": "strided_slice_37/stack", "op": "Const", "attr": {"value": {"tensor": {"dtype": "DT_INT32", "tensorShape": {"dim": [{"size": "2"}]}}}, "dtype": {"type": "DT_INT32"}}}, {"name": "strided_slice_37/stack_1", "op": "Const", "attr": {"value": {"tensor": {"dtype": "DT_INT32", "tensorShape": {"dim": [{"size": "2"}]}}}, "dtype": {"type": "DT_INT32"}}}, {"name": "strided_slice_11/stack_2", "op": "Const", "attr": {"value": {"tensor": {"dtype": "DT_INT32", "tensorShape": {"dim": [{"size": "1"}]}}}, "dtype": {"type": "DT_INT32"}}}, {"name": "strided_slice_9/stack", "op": "Const", "attr": {"value": {"tensor": {"dtype": "DT_INT32", "tensorShape": {"dim": [{"size": "1"}]}}}, "dtype": {"type": "DT_INT32"}}}, {"name": "concat/axis", "op": "Const", "attr": {"value": {"tensor": {"dtype": "DT_INT32", "tensorShape": {}}}, "dtype": {"type": "DT_INT32"}}}, {"name": "strided_slice_17/stack_1", "op": "Const", "attr": {"value": {"tensor": {"dtype": "DT_INT32", "tensorShape": {"dim": [{"size": "2"}]}}}, "dtype": {"type": "DT_INT32"}}}, {"name": "strided_slice_20/stack_1", "op": "Const", "attr": {"value": {"tensor": {"dtype": "DT_INT32", "tensorShape": {"dim": [{"size": "2"}]}}}, "dtype": {"type": "DT_INT32"}}}, {"name": "Placeholder", "op": "Placeholder", "attr": {"shape": {"shape": {"dim": [{"size": "-1"}, {"size": "5"}]}}, "dtype": {"type": "DT_FLOAT"}}}, {"name": "strided_slice_11/stack_1", "op": "Const", "attr": {"value": {"tensor": {"dtype": "DT_INT32", "tensorShape": {"dim": [{"size": "1"}]}}}, "dtype": {"type": "DT_INT32"}}}, {"name": "strided_slice_11/stack", "op": "Const", "attr": {"value": {"tensor": {"dtype": "DT_INT32", "tensorShape": {"dim": [{"size": "1"}]}}}, "dtype": {"type": "DT_INT32"}}}, {"name": "pred_mask/bias", "op": "Const", "attr": {"value": {"tensor": {"dtype": "DT_FLOAT", "tensorShape": {"dim": [{"size": "238"}]}}}, "dtype": {"type": "DT_FLOAT"}}}, {"name": "pred_mask/kernel", "op": "Const", "attr": {"value": {"tensor": {"dtype": "DT_FLOAT", "tensorShape": {"dim": [{"size": "1"}, {"size": "1"}, {"size": "112"}, {"size": "238"}]}}}, "dtype": {"type": "DT_FLOAT"}}}, {"name": "SSD/MASK/W2", "op": "Const", "attr": {"value": {"tensor": {"dtype": "DT_FLOAT", "tensorShape": {"dim": [{"size": "3"}, {"size": "3"}, {"size": "112"}, {"size": "1"}]}}}, "dtype": {"type": "DT_FLOAT"}}}, {"name": "training/input", "op": "Const", "attr": {"value": {"tensor": {"dtype": "DT_BOOL", "tensorShape": {}}}, "dtype": {"type": "DT_BOOL"}}}, {"name": "batch_normalization_35/beta", "op": "Const", "attr": {"value": {"tensor": {"dtype": "DT_FLOAT", "tensorShape": {"dim": [{"size": "112"}]}}}, "dtype": {"type": "DT_FLOAT"}}}, {"name": "batch_normalization_35/gamma", "op": "Const", "attr": {"value": {"tensor": {"dtype": "DT_FLOAT", "tensorShape": {"dim": [{"size": "112"}]}}}, "dtype": {"type": "DT_FLOAT"}}}, {"name": "SSD/MASK/W1", "op": "Const", "attr": {"value": {"tensor": {"dtype": "DT_FLOAT", "tensorShape": {"dim": [{"size": "1"}, {"size": "1"}, {"size": "112"}, {"size": "112"}]}}}, "dtype": {"type": "DT_FLOAT"}}}, {"name": "SSD/MASK/W0", "op": "Const", "attr": {"value": {"tensor": {"dtype": "DT_FLOAT", "tensorShape": {"dim": [{"size": "5"}, {"size": "5"}, {"size": "112"}, {"size": "1"}]}}}, "dtype": {"type": "DT_FLOAT"}}}, {"name": "batch_normalization_34/beta", "op": "Const", "attr": {"value": {"tensor": {"dtype": "DT_FLOAT", "tensorShape": {"dim": [{"size": "112"}]}}}, "dtype": {"type": "DT_FLOAT"}}}, {"name": "batch_normalization_34/gamma", "op": "Const", "attr": {"value": {"tensor": {"dtype": "DT_FLOAT", "tensorShape": {"dim": [{"size": "112"}]}}}, "dtype": {"type": "DT_FLOAT"}}}, {"name": "batch_normalization_31/beta", "op": "Const", "attr": {"value": {"tensor": {"dtype": "DT_FLOAT", "tensorShape": {"dim": [{"size": "224"}]}}}, "dtype": {"type": "DT_FLOAT"}}}, {"name": "batch_normalization_31/gamma", "op": "Const", "attr": {"value": {"tensor": {"dtype": "DT_FLOAT", "tensorShape": {"dim": [{"size": "224"}]}}}, "dtype": {"type": "DT_FLOAT"}}}, {"name": "SSD/W_PW_1", "op": "Const", "attr": {"value": {"tensor": {"dtype": "DT_FLOAT", "tensorShape": {"dim": [{"size": "1"}, {"size": "1"}, {"size": "224"}, {"size": "224"}]}}}, "dtype": {"type": "DT_FLOAT"}}}, {"name": "SSD/W0_3", "op": "Const", "attr": {"value": {"tensor": {"dtype": "DT_FLOAT", "tensorShape": {"dim": [{"size": "5"}, {"size": "5"}, {"size": "224"}, {"size": "1"}]}}}, "dtype": {"type": "DT_FLOAT"}}}, {"name": "batch_normalization_30/beta", "op": "Const", "attr": {"value": {"tensor": {"dtype": "DT_FLOAT", "tensorShape": {"dim": [{"size": "224"}]}}}, "dtype": {"type": "DT_FLOAT"}}}, {"name": "batch_normalization_30/gamma", "op": "Const", "attr": {"value": {"tensor": {"dtype": "DT_FLOAT", "tensorShape": {"dim": [{"size": "224"}]}}}, "dtype": {"type": "DT_FLOAT"}}}, {"name": "SSD/W_PW", "op": "Const", "attr": {"value": {"tensor": {"dtype": "DT_FLOAT", "tensorShape": {"dim": [{"size": "1"}, {"size": "1"}, {"size": "224"}, {"size": "224"}]}}}, "dtype": {"type": "DT_FLOAT"}}}, {"name": "SSD/W2_1", "op": "Const", "attr": {"value": {"tensor": {"dtype": "DT_FLOAT", "tensorShape": {"dim": [{"size": "3"}, {"size": "3"}, {"size": "224"}, {"size": "1"}]}}}, "dtype": {"type": "DT_FLOAT"}}}, {"name": "batch_normalization_29/beta", "op": "Const", "attr": {"value": {"tensor": {"dtype": "DT_FLOAT", "tensorShape": {"dim": [{"size": "224"}]}}}, "dtype": {"type": "DT_FLOAT"}}}, {"name": "batch_normalization_29/gamma", "op": "Const", "attr": {"value": {"tensor": {"dtype": "DT_FLOAT", "tensorShape": {"dim": [{"size": "224"}]}}}, "dtype": {"type": "DT_FLOAT"}}}, {"name": "SSD/W1_1", "op": "Const", "attr": {"value": {"tensor": {"dtype": "DT_FLOAT", "tensorShape": {"dim": [{"size": "1"}, {"size": "1"}, {"size": "224"}, {"size": "224"}]}}}, "dtype": {"type": "DT_FLOAT"}}}, {"name": "SSD/W0_2", "op": "Const", "attr": {"value": {"tensor": {"dtype": "DT_FLOAT", "tensorShape": {"dim": [{"size": "5"}, {"size": "5"}, {"size": "224"}, {"size": "1"}]}}}, "dtype": {"type": "DT_FLOAT"}}}, {"name": "SSD/concat/axis", "op": "Const", "attr": {"value": {"tensor": {"dtype": "DT_INT32", "tensorShape": {}}}, "dtype": {"type": "DT_INT32"}}}, {"name": "batch_normalization_27/beta", "op": "Const", "attr": {"value": {"tensor": {"dtype": "DT_FLOAT", "tensorShape": {"dim": [{"size": "128"}]}}}, "dtype": {"type": "DT_FLOAT"}}}, {"name": "batch_normalization_27/gamma", "op": "Const", "attr": {"value": {"tensor": {"dtype": "DT_FLOAT", "tensorShape": {"dim": [{"size": "128"}]}}}, "dtype": {"type": "DT_FLOAT"}}}, {"name": "CNN/S8/BB11/W_PW", "op": "Const", "attr": {"value": {"tensor": {"dtype": "DT_FLOAT", "tensorShape": {"dim": [{"size": "1"}, {"size": "1"}, {"size": "384"}, {"size": "128"}]}}}, "dtype": {"type": "DT_FLOAT"}}}, {"name": "CNN/S8/BB11/W0", "op": "Const", "attr": {"value": {"tensor": {"dtype": "DT_FLOAT", "tensorShape": {"dim": [{"size": "5"}, {"size": "5"}, {"size": "384"}, {"size": "1"}]}}}, "dtype": {"type": "DT_FLOAT"}}}, {"name": "batch_normalization_24/beta", "op": "Const", "attr": {"value": {"tensor": {"dtype": "DT_FLOAT", "tensorShape": {"dim": [{"size": "384"}]}}}, "dtype": {"type": "DT_FLOAT"}}}, {"name": "batch_normalization_24/gamma", "op": "Const", "attr": {"value": {"tensor": {"dtype": "DT_FLOAT", "tensorShape": {"dim": [{"size": "384"}]}}}, "dtype": {"type": "DT_FLOAT"}}}, {"name": "SSD/MASK/mul/y", "op": "Const", "attr": {"value": {"tensor": {"dtype": "DT_INT32", "tensorShape": {}}}, "dtype": {"type": "DT_INT32"}}}, {"name": "CNN/S8/BB10/MaxOut/Reshape/shape/3", "op": "Const", "attr": {"value": {"tensor": {"dtype": "DT_INT32", "tensorShape": {}}}, "dtype": {"type": "DT_INT32"}}}, {"name": "CNN/S8/BB11/W_PW_in", "op": "Const", "attr": {"value": {"tensor": {"dtype": "DT_FLOAT", "tensorShape": {"dim": [{"size": "1"}, {"size": "1"}, {"size": "128"}, {"size": "768"}]}}}, "dtype": {"type": "DT_FLOAT"}}}, {"name": "batch_normalization_23/beta", "op": "Const", "attr": {"value": {"tensor": {"dtype": "DT_FLOAT", "tensorShape": {"dim": [{"size": "128"}]}}}, "dtype": {"type": "DT_FLOAT"}}}, {"name": "batch_normalization_23/gamma", "op": "Const", "attr": {"value": {"tensor": {"dtype": "DT_FLOAT", "tensorShape": {"dim": [{"size": "128"}]}}}, "dtype": {"type": "DT_FLOAT"}}}, {"name": "CNN/S8/BB9/W_PW_1", "op": "Const", "attr": {"value": {"tensor": {"dtype": "DT_FLOAT", "tensorShape": {"dim": [{"size": "1"}, {"size": "1"}, {"size": "256"}, {"size": "128"}]}}}, "dtype": {"type": "DT_FLOAT"}}}, {"name": "CNN/S8/BB9/W0_1", "op": "Const", "attr": {"value": {"tensor": {"dtype": "DT_FLOAT", "tensorShape": {"dim": [{"size": "5"}, {"size": "5"}, {"size": "256"}, {"size": "1"}]}}}, "dtype": {"type": "DT_FLOAT"}}}, {"name": "batch_normalization_20/beta", "op": "Const", "attr": {"value": {"tensor": {"dtype": "DT_FLOAT", "tensorShape": {"dim": [{"size": "256"}]}}}, "dtype": {"type": "DT_FLOAT"}}}, {"name": "batch_normalization_20/gamma", "op": "Const", "attr": {"value": {"tensor": {"dtype": "DT_FLOAT", "tensorShape": {"dim": [{"size": "256"}]}}}, "dtype": {"type": "DT_FLOAT"}}}, {"name": "CNN/S8/BB9/W_PW_in", "op": "Const", "attr": {"value": {"tensor": {"dtype": "DT_FLOAT", "tensorShape": {"dim": [{"size": "1"}, {"size": "1"}, {"size": "64"}, {"size": "256"}]}}}, "dtype": {"type": "DT_FLOAT"}}}, {"name": "batch_normalization_19/beta", "op": "Const", "attr": {"value": {"tensor": {"dtype": "DT_FLOAT", "tensorShape": {"dim": [{"size": "64"}]}}}, "dtype": {"type": "DT_FLOAT"}}}, {"name": "batch_normalization_19/gamma", "op": "Const", "attr": {"value": {"tensor": {"dtype": "DT_FLOAT", "tensorShape": {"dim": [{"size": "64"}]}}}, "dtype": {"type": "DT_FLOAT"}}}, {"name": "CNN/S4/BB8/W_PW", "op": "Const", "attr": {"value": {"tensor": {"dtype": "DT_FLOAT", "tensorShape": {"dim": [{"size": "1"}, {"size": "1"}, {"size": "192"}, {"size": "64"}]}}}, "dtype": {"type": "DT_FLOAT"}}}, {"name": "CNN/S4/BB8/W0", "op": "Const", "attr": {"value": {"tensor": {"dtype": "DT_FLOAT", "tensorShape": {"dim": [{"size": "5"}, {"size": "5"}, {"size": "192"}, {"size": "1"}]}}}, "dtype": {"type": "DT_FLOAT"}}}, {"name": "batch_normalization_18/beta", "op": "Const", "attr": {"value": {"tensor": {"dtype": "DT_FLOAT", "tensorShape": {"dim": [{"size": "192"}]}}}, "dtype": {"type": "DT_FLOAT"}}}, {"name": "batch_normalization_18/gamma", "op": "Const", "attr": {"value": {"tensor": {"dtype": "DT_FLOAT", "tensorShape": {"dim": [{"size": "192"}]}}}, "dtype": {"type": "DT_FLOAT"}}}, {"name": "CNN/S4/BB6/MaxOut/Reshape/shape/3", "op": "Const", "attr": {"value": {"tensor": {"dtype": "DT_INT32", "tensorShape": {}}}, "dtype": {"type": "DT_INT32"}}}, {"name": "CNN/S4/BB8/W_PW_in", "op": "Const", "attr": {"value": {"tensor": {"dtype": "DT_FLOAT", "tensorShape": {"dim": [{"size": "1"}, {"size": "1"}, {"size": "64"}, {"size": "384"}]}}}, "dtype": {"type": "DT_FLOAT"}}}, {"name": "batch_normalization_17/beta", "op": "Const", "attr": {"value": {"tensor": {"dtype": "DT_FLOAT", "tensorShape": {"dim": [{"size": "64"}]}}}, "dtype": {"type": "DT_FLOAT"}}}, {"name": "batch_normalization_17/gamma", "op": "Const", "attr": {"value": {"tensor": {"dtype": "DT_FLOAT", "tensorShape": {"dim": [{"size": "64"}]}}}, "dtype": {"type": "DT_FLOAT"}}}, {"name": "CNN/S4/BB7/W_PW", "op": "Const", "attr": {"value": {"tensor": {"dtype": "DT_FLOAT", "tensorShape": {"dim": [{"size": "1"}, {"size": "1"}, {"size": "192"}, {"size": "64"}]}}}, "dtype": {"type": "DT_FLOAT"}}}, {"name": "CNN/S4/BB7/W0", "op": "Const", "attr": {"value": {"tensor": {"dtype": "DT_FLOAT", "tensorShape": {"dim": [{"size": "5"}, {"size": "5"}, {"size": "192"}, {"size": "1"}]}}}, "dtype": {"type": "DT_FLOAT"}}}, {"name": "batch_normalization_16/beta", "op": "Const", "attr": {"value": {"tensor": {"dtype": "DT_FLOAT", "tensorShape": {"dim": [{"size": "192"}]}}}, "dtype": {"type": "DT_FLOAT"}}}, {"name": "batch_normalization_16/gamma", "op": "Const", "attr": {"value": {"tensor": {"dtype": "DT_FLOAT", "tensorShape": {"dim": [{"size": "192"}]}}}, "dtype": {"type": "DT_FLOAT"}}}, {"name": "CNN/S4/BB7/W_PW_in", "op": "Const", "attr": {"value": {"tensor": {"dtype": "DT_FLOAT", "tensorShape": {"dim": [{"size": "1"}, {"size": "1"}, {"size": "64"}, {"size": "384"}]}}}, "dtype": {"type": "DT_FLOAT"}}}, {"name": "batch_normalization_15/beta", "op": "Const", "attr": {"value": {"tensor": {"dtype": "DT_FLOAT", "tensorShape": {"dim": [{"size": "64"}]}}}, "dtype": {"type": "DT_FLOAT"}}}, {"name": "batch_normalization_15/gamma", "op": "Const", "attr": {"value": {"tensor": {"dtype": "DT_FLOAT", "tensorShape": {"dim": [{"size": "64"}]}}}, "dtype": {"type": "DT_FLOAT"}}}, {"name": "CNN/S4/BB6/W_PW", "op": "Const", "attr": {"value": {"tensor": {"dtype": "DT_FLOAT", "tensorShape": {"dim": [{"size": "1"}, {"size": "1"}, {"size": "192"}, {"size": "64"}]}}}, "dtype": {"type": "DT_FLOAT"}}}, {"name": "CNN/S4/BB6/W0", "op": "Const", "attr": {"value": {"tensor": {"dtype": "DT_FLOAT", "tensorShape": {"dim": [{"size": "5"}, {"size": "5"}, {"size": "192"}, {"size": "1"}]}}}, "dtype": {"type": "DT_FLOAT"}}}, {"name": "batch_normalization_14/beta", "op": "Const", "attr": {"value": {"tensor": {"dtype": "DT_FLOAT", "tensorShape": {"dim": [{"size": "192"}]}}}, "dtype": {"type": "DT_FLOAT"}}}, {"name": "batch_normalization_14/gamma", "op": "Const", "attr": {"value": {"tensor": {"dtype": "DT_FLOAT", "tensorShape": {"dim": [{"size": "192"}]}}}, "dtype": {"type": "DT_FLOAT"}}}, {"name": "CNN/S4/BB6/W_PW_in", "op": "Const", "attr": {"value": {"tensor": {"dtype": "DT_FLOAT", "tensorShape": {"dim": [{"size": "1"}, {"size": "1"}, {"size": "64"}, {"size": "384"}]}}}, "dtype": {"type": "DT_FLOAT"}}}, {"name": "batch_normalization_13/beta", "op": "Const", "attr": {"value": {"tensor": {"dtype": "DT_FLOAT", "tensorShape": {"dim": [{"size": "64"}]}}}, "dtype": {"type": "DT_FLOAT"}}}, {"name": "batch_normalization_13/gamma", "op": "Const", "attr": {"value": {"tensor": {"dtype": "DT_FLOAT", "tensorShape": {"dim": [{"size": "64"}]}}}, "dtype": {"type": "DT_FLOAT"}}}, {"name": "CNN/S4/BB5/W_PW_1", "op": "Const", "attr": {"value": {"tensor": {"dtype": "DT_FLOAT", "tensorShape": {"dim": [{"size": "1"}, {"size": "1"}, {"size": "128"}, {"size": "64"}]}}}, "dtype": {"type": "DT_FLOAT"}}}, {"name": "CNN/S4/BB5/W0_1", "op": "Const", "attr": {"value": {"tensor": {"dtype": "DT_FLOAT", "tensorShape": {"dim": [{"size": "5"}, {"size": "5"}, {"size": "128"}, {"size": "1"}]}}}, "dtype": {"type": "DT_FLOAT"}}}, {"name": "batch_normalization_12/beta", "op": "Const", "attr": {"value": {"tensor": {"dtype": "DT_FLOAT", "tensorShape": {"dim": [{"size": "128"}]}}}, "dtype": {"type": "DT_FLOAT"}}}, {"name": "batch_normalization_12/gamma", "op": "Const", "attr": {"value": {"tensor": {"dtype": "DT_FLOAT", "tensorShape": {"dim": [{"size": "128"}]}}}, "dtype": {"type": "DT_FLOAT"}}}, {"name": "CNN/S4/BB5/W_PW_in", "op": "Const", "attr": {"value": {"tensor": {"dtype": "DT_FLOAT", "tensorShape": {"dim": [{"size": "1"}, {"size": "1"}, {"size": "32"}, {"size": "128"}]}}}, "dtype": {"type": "DT_FLOAT"}}}, {"name": "batch_normalization_11/beta", "op": "Const", "attr": {"value": {"tensor": {"dtype": "DT_FLOAT", "tensorShape": {"dim": [{"size": "32"}]}}}, "dtype": {"type": "DT_FLOAT"}}}, {"name": "batch_normalization_11/gamma", "op": "Const", "attr": {"value": {"tensor": {"dtype": "DT_FLOAT", "tensorShape": {"dim": [{"size": "32"}]}}}, "dtype": {"type": "DT_FLOAT"}}}, {"name": "CNN/S2/BB4/W_PW", "op": "Const", "attr": {"value": {"tensor": {"dtype": "DT_FLOAT", "tensorShape": {"dim": [{"size": "1"}, {"size": "1"}, {"size": "96"}, {"size": "32"}]}}}, "dtype": {"type": "DT_FLOAT"}}}, {"name": "CNN/S2/BB4/W0", "op": "Const", "attr": {"value": {"tensor": {"dtype": "DT_FLOAT", "tensorShape": {"dim": [{"size": "5"}, {"size": "5"}, {"size": "96"}, {"size": "1"}]}}}, "dtype": {"type": "DT_FLOAT"}}}, {"name": "batch_normalization_10/beta", "op": "Const", "attr": {"value": {"tensor": {"dtype": "DT_FLOAT", "tensorShape": {"dim": [{"size": "96"}]}}}, "dtype": {"type": "DT_FLOAT"}}}, {"name": "batch_normalization_10/gamma", "op": "Const", "attr": {"value": {"tensor": {"dtype": "DT_FLOAT", "tensorShape": {"dim": [{"size": "96"}]}}}, "dtype": {"type": "DT_FLOAT"}}}, {"name": "CNN/S2/BB1/MaxOut/Reshape/shape/3", "op": "Const", "attr": {"value": {"tensor": {"dtype": "DT_INT32", "tensorShape": {}}}, "dtype": {"type": "DT_INT32"}}}, {"name": "CNN/S2/BB4/W_PW_in", "op": "Const", "attr": {"value": {"tensor": {"dtype": "DT_FLOAT", "tensorShape": {"dim": [{"size": "1"}, {"size": "1"}, {"size": "32"}, {"size": "192"}]}}}, "dtype": {"type": "DT_FLOAT"}}}, {"name": "batch_normalization_9/beta", "op": "Const", "attr": {"value": {"tensor": {"dtype": "DT_FLOAT", "tensorShape": {"dim": [{"size": "32"}]}}}, "dtype": {"type": "DT_FLOAT"}}}, {"name": "batch_normalization_9/gamma", "op": "Const", "attr": {"value": {"tensor": {"dtype": "DT_FLOAT", "tensorShape": {"dim": [{"size": "32"}]}}}, "dtype": {"type": "DT_FLOAT"}}}, {"name": "CNN/S2/BB3/W_PW", "op": "Const", "attr": {"value": {"tensor": {"dtype": "DT_FLOAT", "tensorShape": {"dim": [{"size": "1"}, {"size": "1"}, {"size": "96"}, {"size": "32"}]}}}, "dtype": {"type": "DT_FLOAT"}}}, {"name": "CNN/S2/BB3/W0", "op": "Const", "attr": {"value": {"tensor": {"dtype": "DT_FLOAT", "tensorShape": {"dim": [{"size": "5"}, {"size": "5"}, {"size": "96"}, {"size": "1"}]}}}, "dtype": {"type": "DT_FLOAT"}}}, {"name": "batch_normalization_8/beta", "op": "Const", "attr": {"value": {"tensor": {"dtype": "DT_FLOAT", "tensorShape": {"dim": [{"size": "96"}]}}}, "dtype": {"type": "DT_FLOAT"}}}, {"name": "batch_normalization_8/gamma", "op": "Const", "attr": {"value": {"tensor": {"dtype": "DT_FLOAT", "tensorShape": {"dim": [{"size": "96"}]}}}, "dtype": {"type": "DT_FLOAT"}}}, {"name": "CNN/S2/BB3/W_PW_in", "op": "Const", "attr": {"value": {"tensor": {"dtype": "DT_FLOAT", "tensorShape": {"dim": [{"size": "1"}, {"size": "1"}, {"size": "32"}, {"size": "192"}]}}}, "dtype": {"type": "DT_FLOAT"}}}, {"name": "batch_normalization_7/beta", "op": "Const", "attr": {"value": {"tensor": {"dtype": "DT_FLOAT", "tensorShape": {"dim": [{"size": "32"}]}}}, "dtype": {"type": "DT_FLOAT"}}}, {"name": "batch_normalization_7/gamma", "op": "Const", "attr": {"value": {"tensor": {"dtype": "DT_FLOAT", "tensorShape": {"dim": [{"size": "32"}]}}}, "dtype": {"type": "DT_FLOAT"}}}, {"name": "CNN/S2/BB2/W_PW", "op": "Const", "attr": {"value": {"tensor": {"dtype": "DT_FLOAT", "tensorShape": {"dim": [{"size": "1"}, {"size": "1"}, {"size": "96"}, {"size": "32"}]}}}, "dtype": {"type": "DT_FLOAT"}}}, {"name": "CNN/S2/BB2/W0", "op": "Const", "attr": {"value": {"tensor": {"dtype": "DT_FLOAT", "tensorShape": {"dim": [{"size": "5"}, {"size": "5"}, {"size": "96"}, {"size": "1"}]}}}, "dtype": {"type": "DT_FLOAT"}}}, {"name": "batch_normalization_6/beta", "op": "Const", "attr": {"value": {"tensor": {"dtype": "DT_FLOAT", "tensorShape": {"dim": [{"size": "96"}]}}}, "dtype": {"type": "DT_FLOAT"}}}, {"name": "batch_normalization_6/gamma", "op": "Const", "attr": {"value": {"tensor": {"dtype": "DT_FLOAT", "tensorShape": {"dim": [{"size": "96"}]}}}, "dtype": {"type": "DT_FLOAT"}}}, {"name": "CNN/S2/BB2/W_PW_in", "op": "Const", "attr": {"value": {"tensor": {"dtype": "DT_FLOAT", "tensorShape": {"dim": [{"size": "1"}, {"size": "1"}, {"size": "32"}, {"size": "192"}]}}}, "dtype": {"type": "DT_FLOAT"}}}, {"name": "batch_normalization_5/beta", "op": "Const", "attr": {"value": {"tensor": {"dtype": "DT_FLOAT", "tensorShape": {"dim": [{"size": "32"}]}}}, "dtype": {"type": "DT_FLOAT"}}}, {"name": "batch_normalization_5/gamma", "op": "Const", "attr": {"value": {"tensor": {"dtype": "DT_FLOAT", "tensorShape": {"dim": [{"size": "32"}]}}}, "dtype": {"type": "DT_FLOAT"}}}, {"name": "CNN/S2/BB1/W_PW", "op": "Const", "attr": {"value": {"tensor": {"dtype": "DT_FLOAT", "tensorShape": {"dim": [{"size": "1"}, {"size": "1"}, {"size": "96"}, {"size": "32"}]}}}, "dtype": {"type": "DT_FLOAT"}}}, {"name": "CNN/S2/BB1/W0", "op": "Const", "attr": {"value": {"tensor": {"dtype": "DT_FLOAT", "tensorShape": {"dim": [{"size": "5"}, {"size": "5"}, {"size": "96"}, {"size": "1"}]}}}, "dtype": {"type": "DT_FLOAT"}}}, {"name": "batch_normalization_4/beta", "op": "Const", "attr": {"value": {"tensor": {"dtype": "DT_FLOAT", "tensorShape": {"dim": [{"size": "96"}]}}}, "dtype": {"type": "DT_FLOAT"}}}, {"name": "batch_normalization_4/gamma", "op": "Const", "attr": {"value": {"tensor": {"dtype": "DT_FLOAT", "tensorShape": {"dim": [{"size": "96"}]}}}, "dtype": {"type": "DT_FLOAT"}}}, {"name": "CNN/S2/BB1/W_PW_in", "op": "Const", "attr": {"value": {"tensor": {"dtype": "DT_FLOAT", "tensorShape": {"dim": [{"size": "1"}, {"size": "1"}, {"size": "32"}, {"size": "192"}]}}}, "dtype": {"type": "DT_FLOAT"}}}, {"name": "batch_normalization_3/beta", "op": "Const", "attr": {"value": {"tensor": {"dtype": "DT_FLOAT", "tensorShape": {"dim": [{"size": "32"}]}}}, "dtype": {"type": "DT_FLOAT"}}}, {"name": "batch_normalization_3/gamma", "op": "Const", "attr": {"value": {"tensor": {"dtype": "DT_FLOAT", "tensorShape": {"dim": [{"size": "32"}]}}}, "dtype": {"type": "DT_FLOAT"}}}, {"name": "ENTRANCE/W_PW", "op": "Const", "attr": {"value": {"tensor": {"dtype": "DT_FLOAT", "tensorShape": {"dim": [{"size": "1"}, {"size": "1"}, {"size": "16"}, {"size": "32"}]}}}, "dtype": {"type": "DT_FLOAT"}}}, {"name": "ENTRANCE/W2", "op": "Const", "attr": {"value": {"tensor": {"dtype": "DT_FLOAT", "tensorShape": {"dim": [{"size": "5"}, {"size": "5"}, {"size": "16"}, {"size": "1"}]}}}, "dtype": {"type": "DT_FLOAT"}}}, {"name": "batch_normalization/beta", "op": "Const", "attr": {"value": {"tensor": {"dtype": "DT_FLOAT", "tensorShape": {"dim": [{"size": "16"}]}}}, "dtype": {"type": "DT_FLOAT"}}}, {"name": "batch_normalization/gamma", "op": "Const", "attr": {"value": {"tensor": {"dtype": "DT_FLOAT", "tensorShape": {"dim": [{"size": "16"}]}}}, "dtype": {"type": "DT_FLOAT"}}}, {"name": "ENTRANCE/W1", "op": "Const", "attr": {"value": {"tensor": {"dtype": "DT_FLOAT", "tensorShape": {"dim": [{"size": "1"}, {"size": "1"}, {"size": "16"}, {"size": "16"}]}}}, "dtype": {"type": "DT_FLOAT"}}}, {"name": "ENTRANCE/W0", "op": "Const", "attr": {"value": {"tensor": {"dtype": "DT_FLOAT", "tensorShape": {"dim": [{"size": "5"}, {"size": "5"}, {"size": "16"}, {"size": "1"}]}}}, "dtype": {"type": "DT_FLOAT"}}}, {"name": "ENTRANCE/WC0", "op": "Const", "attr": {"value": {"tensor": {"dtype": "DT_FLOAT", "tensorShape": {"dim": [{"size": "7"}, {"size": "7"}, {"size": "1"}, {"size": "16"}]}}}, "dtype": {"type": "DT_FLOAT"}}}, {"name": "X", "op": "Placeholder", "attr": {"shape": {"shape": {"dim": [{"size": "-1"}, {"size": "-1"}, {"size": "-1"}, {"size": "1"}]}}, "dtype": {"type": "DT_FLOAT"}}}, {"name": "batch_normalization/moving_variance", "op": "Const", "attr": {"value": {"tensor": {"dtype": "DT_FLOAT", "tensorShape": {"dim": [{"size": "16"}]}}}, "dtype": {"type": "DT_FLOAT"}}}, {"name": "batch_normalization/moving_mean", "op": "Const", "attr": {"value": {"tensor": {"dtype": "DT_FLOAT", "tensorShape": {"dim": [{"size": "16"}]}}}, "dtype": {"type": "DT_FLOAT"}}}, {"name": "CNN/S2/BB0/W_PW", "op": "Const", "attr": {"value": {"tensor": {"dtype": "DT_FLOAT", "tensorShape": {"dim": [{"size": "1"}, {"size": "1"}, {"size": "64"}, {"size": "32"}]}}}, "dtype": {"type": "DT_FLOAT"}}}, {"name": "CNN/S2/BB0/W0", "op": "Const", "attr": {"value": {"tensor": {"dtype": "DT_FLOAT", "tensorShape": {"dim": [{"size": "5"}, {"size": "5"}, {"size": "64"}, {"size": "1"}]}}}, "dtype": {"type": "DT_FLOAT"}}}, {"name": "batch_normalization_2/beta", "op": "Const", "attr": {"value": {"tensor": {"dtype": "DT_FLOAT", "tensorShape": {"dim": [{"size": "64"}]}}}, "dtype": {"type": "DT_FLOAT"}}}, {"name": "batch_normalization_2/gamma", "op": "Const", "attr": {"value": {"tensor": {"dtype": "DT_FLOAT", "tensorShape": {"dim": [{"size": "64"}]}}}, "dtype": {"type": "DT_FLOAT"}}}, {"name": "CNN/S2/BB0/W_PW_in", "op": "Const", "attr": {"value": {"tensor": {"dtype": "DT_FLOAT", "tensorShape": {"dim": [{"size": "1"}, {"size": "1"}, {"size": "32"}, {"size": "64"}]}}}, "dtype": {"type": "DT_FLOAT"}}}, {"name": "batch_normalization_1/beta", "op": "Const", "attr": {"value": {"tensor": {"dtype": "DT_FLOAT", "tensorShape": {"dim": [{"size": "32"}]}}}, "dtype": {"type": "DT_FLOAT"}}}, {"name": "batch_normalization_1/gamma", "op": "Const", "attr": {"value": {"tensor": {"dtype": "DT_FLOAT", "tensorShape": {"dim": [{"size": "32"}]}}}, "dtype": {"type": "DT_FLOAT"}}}, {"name": "batch_normalization_1/moving_variance", "op": "Const", "attr": {"value": {"tensor": {"dtype": "DT_FLOAT", "tensorShape": {"dim": [{"size": "32"}]}}}, "dtype": {"type": "DT_FLOAT"}}}, {"name": "batch_normalization_1/moving_mean", "op": "Const", "attr": {"value": {"tensor": {"dtype": "DT_FLOAT", "tensorShape": {"dim": [{"size": "32"}]}}}, "dtype": {"type": "DT_FLOAT"}}}, {"name": "batch_normalization_2/moving_variance", "op": "Const", "attr": {"value": {"tensor": {"dtype": "DT_FLOAT", "tensorShape": {"dim": [{"size": "64"}]}}}, "dtype": {"type": "DT_FLOAT"}}}, {"name": "batch_normalization_2/moving_mean", "op": "Const", "attr": {"value": {"tensor": {"dtype": "DT_FLOAT", "tensorShape": {"dim": [{"size": "64"}]}}}, "dtype": {"type": "DT_FLOAT"}}}, {"name": "batch_normalization_3/moving_variance", "op": "Const", "attr": {"value": {"tensor": {"dtype": "DT_FLOAT", "tensorShape": {"dim": [{"size": "32"}]}}}, "dtype": {"type": "DT_FLOAT"}}}, {"name": "batch_normalization_3/moving_mean", "op": "Const", "attr": {"value": {"tensor": {"dtype": "DT_FLOAT", "tensorShape": {"dim": [{"size": "32"}]}}}, "dtype": {"type": "DT_FLOAT"}}}, {"name": "batch_normalization_4/moving_variance", "op": "Const", "attr": {"value": {"tensor": {"dtype": "DT_FLOAT", "tensorShape": {"dim": [{"size": "96"}]}}}, "dtype": {"type": "DT_FLOAT"}}}, {"name": "batch_normalization_4/moving_mean", "op": "Const", "attr": {"value": {"tensor": {"dtype": "DT_FLOAT", "tensorShape": {"dim": [{"size": "96"}]}}}, "dtype": {"type": "DT_FLOAT"}}}, {"name": "batch_normalization_5/moving_variance", "op": "Const", "attr": {"value": {"tensor": {"dtype": "DT_FLOAT", "tensorShape": {"dim": [{"size": "32"}]}}}, "dtype": {"type": "DT_FLOAT"}}}, {"name": "batch_normalization_5/moving_mean", "op": "Const", "attr": {"value": {"tensor": {"dtype": "DT_FLOAT", "tensorShape": {"dim": [{"size": "32"}]}}}, "dtype": {"type": "DT_FLOAT"}}}, {"name": "batch_normalization_6/moving_variance", "op": "Const", "attr": {"value": {"tensor": {"dtype": "DT_FLOAT", "tensorShape": {"dim": [{"size": "96"}]}}}, "dtype": {"type": "DT_FLOAT"}}}, {"name": "batch_normalization_6/moving_mean", "op": "Const", "attr": {"value": {"tensor": {"dtype": "DT_FLOAT", "tensorShape": {"dim": [{"size": "96"}]}}}, "dtype": {"type": "DT_FLOAT"}}}, {"name": "batch_normalization_7/moving_variance", "op": "Const", "attr": {"value": {"tensor": {"dtype": "DT_FLOAT", "tensorShape": {"dim": [{"size": "32"}]}}}, "dtype": {"type": "DT_FLOAT"}}}, {"name": "batch_normalization_7/moving_mean", "op": "Const", "attr": {"value": {"tensor": {"dtype": "DT_FLOAT", "tensorShape": {"dim": [{"size": "32"}]}}}, "dtype": {"type": "DT_FLOAT"}}}, {"name": "batch_normalization_8/moving_variance", "op": "Const", "attr": {"value": {"tensor": {"dtype": "DT_FLOAT", "tensorShape": {"dim": [{"size": "96"}]}}}, "dtype": {"type": "DT_FLOAT"}}}, {"name": "batch_normalization_8/moving_mean", "op": "Const", "attr": {"value": {"tensor": {"dtype": "DT_FLOAT", "tensorShape": {"dim": [{"size": "96"}]}}}, "dtype": {"type": "DT_FLOAT"}}}, {"name": "batch_normalization_9/moving_variance", "op": "Const", "attr": {"value": {"tensor": {"dtype": "DT_FLOAT", "tensorShape": {"dim": [{"size": "32"}]}}}, "dtype": {"type": "DT_FLOAT"}}}, {"name": "batch_normalization_9/moving_mean", "op": "Const", "attr": {"value": {"tensor": {"dtype": "DT_FLOAT", "tensorShape": {"dim": [{"size": "32"}]}}}, "dtype": {"type": "DT_FLOAT"}}}, {"name": "batch_normalization_10/moving_variance", "op": "Const", "attr": {"value": {"tensor": {"dtype": "DT_FLOAT", "tensorShape": {"dim": [{"size": "96"}]}}}, "dtype": {"type": "DT_FLOAT"}}}, {"name": "batch_normalization_10/moving_mean", "op": "Const", "attr": {"value": {"tensor": {"dtype": "DT_FLOAT", "tensorShape": {"dim": [{"size": "96"}]}}}, "dtype": {"type": "DT_FLOAT"}}}, {"name": "batch_normalization_25/moving_variance", "op": "Const", "attr": {"value": {"tensor": {"dtype": "DT_FLOAT", "tensorShape": {"dim": [{"size": "32"}]}}}, "dtype": {"type": "DT_FLOAT"}}}, {"name": "batch_normalization_25/moving_mean", "op": "Const", "attr": {"value": {"tensor": {"dtype": "DT_FLOAT", "tensorShape": {"dim": [{"size": "32"}]}}}, "dtype": {"type": "DT_FLOAT"}}}, {"name": "batch_normalization_12/moving_variance", "op": "Const", "attr": {"value": {"tensor": {"dtype": "DT_FLOAT", "tensorShape": {"dim": [{"size": "128"}]}}}, "dtype": {"type": "DT_FLOAT"}}}, {"name": "batch_normalization_12/moving_mean", "op": "Const", "attr": {"value": {"tensor": {"dtype": "DT_FLOAT", "tensorShape": {"dim": [{"size": "128"}]}}}, "dtype": {"type": "DT_FLOAT"}}}, {"name": "CNN/S4/BB5/W_PW", "op": "Const", "attr": {"value": {"tensor": {"dtype": "DT_FLOAT", "tensorShape": {"dim": [{"size": "1"}, {"size": "1"}, {"size": "32"}, {"size": "64"}]}}}, "dtype": {"type": "DT_FLOAT"}}}, {"name": "CNN/S4/BB5/W0", "op": "Const", "attr": {"value": {"tensor": {"dtype": "DT_FLOAT", "tensorShape": {"dim": [{"size": "3"}, {"size": "3"}, {"size": "32"}, {"size": "1"}]}}}, "dtype": {"type": "DT_FLOAT"}}}, {"name": "batch_normalization_13/moving_variance", "op": "Const", "attr": {"value": {"tensor": {"dtype": "DT_FLOAT", "tensorShape": {"dim": [{"size": "64"}]}}}, "dtype": {"type": "DT_FLOAT"}}}, {"name": "batch_normalization_13/moving_mean", "op": "Const", "attr": {"value": {"tensor": {"dtype": "DT_FLOAT", "tensorShape": {"dim": [{"size": "64"}]}}}, "dtype": {"type": "DT_FLOAT"}}}, {"name": "batch_normalization_14/moving_variance", "op": "Const", "attr": {"value": {"tensor": {"dtype": "DT_FLOAT", "tensorShape": {"dim": [{"size": "192"}]}}}, "dtype": {"type": "DT_FLOAT"}}}, {"name": "batch_normalization_14/moving_mean", "op": "Const", "attr": {"value": {"tensor": {"dtype": "DT_FLOAT", "tensorShape": {"dim": [{"size": "192"}]}}}, "dtype": {"type": "DT_FLOAT"}}}, {"name": "batch_normalization_15/moving_variance", "op": "Const", "attr": {"value": {"tensor": {"dtype": "DT_FLOAT", "tensorShape": {"dim": [{"size": "64"}]}}}, "dtype": {"type": "DT_FLOAT"}}}, {"name": "batch_normalization_15/moving_mean", "op": "Const", "attr": {"value": {"tensor": {"dtype": "DT_FLOAT", "tensorShape": {"dim": [{"size": "64"}]}}}, "dtype": {"type": "DT_FLOAT"}}}, {"name": "batch_normalization_16/moving_variance", "op": "Const", "attr": {"value": {"tensor": {"dtype": "DT_FLOAT", "tensorShape": {"dim": [{"size": "192"}]}}}, "dtype": {"type": "DT_FLOAT"}}}, {"name": "batch_normalization_16/moving_mean", "op": "Const", "attr": {"value": {"tensor": {"dtype": "DT_FLOAT", "tensorShape": {"dim": [{"size": "192"}]}}}, "dtype": {"type": "DT_FLOAT"}}}, {"name": "batch_normalization_17/moving_variance", "op": "Const", "attr": {"value": {"tensor": {"dtype": "DT_FLOAT", "tensorShape": {"dim": [{"size": "64"}]}}}, "dtype": {"type": "DT_FLOAT"}}}, {"name": "batch_normalization_17/moving_mean", "op": "Const", "attr": {"value": {"tensor": {"dtype": "DT_FLOAT", "tensorShape": {"dim": [{"size": "64"}]}}}, "dtype": {"type": "DT_FLOAT"}}}, {"name": "batch_normalization_18/moving_variance", "op": "Const", "attr": {"value": {"tensor": {"dtype": "DT_FLOAT", "tensorShape": {"dim": [{"size": "192"}]}}}, "dtype": {"type": "DT_FLOAT"}}}, {"name": "batch_normalization_18/moving_mean", "op": "Const", "attr": {"value": {"tensor": {"dtype": "DT_FLOAT", "tensorShape": {"dim": [{"size": "192"}]}}}, "dtype": {"type": "DT_FLOAT"}}}, {"name": "batch_normalization_26/moving_variance", "op": "Const", "attr": {"value": {"tensor": {"dtype": "DT_FLOAT", "tensorShape": {"dim": [{"size": "64"}]}}}, "dtype": {"type": "DT_FLOAT"}}}, {"name": "batch_normalization_26/moving_mean", "op": "Const", "attr": {"value": {"tensor": {"dtype": "DT_FLOAT", "tensorShape": {"dim": [{"size": "64"}]}}}, "dtype": {"type": "DT_FLOAT"}}}, {"name": "batch_normalization_20/moving_variance", "op": "Const", "attr": {"value": {"tensor": {"dtype": "DT_FLOAT", "tensorShape": {"dim": [{"size": "256"}]}}}, "dtype": {"type": "DT_FLOAT"}}}, {"name": "batch_normalization_20/moving_mean", "op": "Const", "attr": {"value": {"tensor": {"dtype": "DT_FLOAT", "tensorShape": {"dim": [{"size": "256"}]}}}, "dtype": {"type": "DT_FLOAT"}}}, {"name": "CNN/S8/BB9/W_PW", "op": "Const", "attr": {"value": {"tensor": {"dtype": "DT_FLOAT", "tensorShape": {"dim": [{"size": "1"}, {"size": "1"}, {"size": "64"}, {"size": "128"}]}}}, "dtype": {"type": "DT_FLOAT"}}}, {"name": "CNN/S8/BB9/W0", "op": "Const", "attr": {"value": {"tensor": {"dtype": "DT_FLOAT", "tensorShape": {"dim": [{"size": "3"}, {"size": "3"}, {"size": "64"}, {"size": "1"}]}}}, "dtype": {"type": "DT_FLOAT"}}}, {"name": "CNN/S8/BB10/W_PW", "op": "Const", "attr": {"value": {"tensor": {"dtype": "DT_FLOAT", "tensorShape": {"dim": [{"size": "1"}, {"size": "1"}, {"size": "384"}, {"size": "128"}]}}}, "dtype": {"type": "DT_FLOAT"}}}, {"name": "CNN/S8/BB10/W0", "op": "Const", "attr": {"value": {"tensor": {"dtype": "DT_FLOAT", "tensorShape": {"dim": [{"size": "5"}, {"size": "5"}, {"size": "384"}, {"size": "1"}]}}}, "dtype": {"type": "DT_FLOAT"}}}, {"name": "batch_normalization_22/beta", "op": "Const", "attr": {"value": {"tensor": {"dtype": "DT_FLOAT", "tensorShape": {"dim": [{"size": "384"}]}}}, "dtype": {"type": "DT_FLOAT"}}}, {"name": "batch_normalization_22/gamma", "op": "Const", "attr": {"value": {"tensor": {"dtype": "DT_FLOAT", "tensorShape": {"dim": [{"size": "384"}]}}}, "dtype": {"type": "DT_FLOAT"}}}, {"name": "CNN/S8/BB10/W_PW_in", "op": "Const", "attr": {"value": {"tensor": {"dtype": "DT_FLOAT", "tensorShape": {"dim": [{"size": "1"}, {"size": "1"}, {"size": "128"}, {"size": "768"}]}}}, "dtype": {"type": "DT_FLOAT"}}}, {"name": "batch_normalization_21/beta", "op": "Const", "attr": {"value": {"tensor": {"dtype": "DT_FLOAT", "tensorShape": {"dim": [{"size": "128"}]}}}, "dtype": {"type": "DT_FLOAT"}}}, {"name": "batch_normalization_21/gamma", "op": "Const", "attr": {"value": {"tensor": {"dtype": "DT_FLOAT", "tensorShape": {"dim": [{"size": "128"}]}}}, "dtype": {"type": "DT_FLOAT"}}}, {"name": "batch_normalization_21/moving_variance", "op": "Const", "attr": {"value": {"tensor": {"dtype": "DT_FLOAT", "tensorShape": {"dim": [{"size": "128"}]}}}, "dtype": {"type": "DT_FLOAT"}}}, {"name": "batch_normalization_21/moving_mean", "op": "Const", "attr": {"value": {"tensor": {"dtype": "DT_FLOAT", "tensorShape": {"dim": [{"size": "128"}]}}}, "dtype": {"type": "DT_FLOAT"}}}, {"name": "batch_normalization_22/moving_variance", "op": "Const", "attr": {"value": {"tensor": {"dtype": "DT_FLOAT", "tensorShape": {"dim": [{"size": "384"}]}}}, "dtype": {"type": "DT_FLOAT"}}}, {"name": "batch_normalization_22/moving_mean", "op": "Const", "attr": {"value": {"tensor": {"dtype": "DT_FLOAT", "tensorShape": {"dim": [{"size": "384"}]}}}, "dtype": {"type": "DT_FLOAT"}}}, {"name": "batch_normalization_23/moving_variance", "op": "Const", "attr": {"value": {"tensor": {"dtype": "DT_FLOAT", "tensorShape": {"dim": [{"size": "128"}]}}}, "dtype": {"type": "DT_FLOAT"}}}, {"name": "batch_normalization_23/moving_mean", "op": "Const", "attr": {"value": {"tensor": {"dtype": "DT_FLOAT", "tensorShape": {"dim": [{"size": "128"}]}}}, "dtype": {"type": "DT_FLOAT"}}}, {"name": "batch_normalization_24/moving_variance", "op": "Const", "attr": {"value": {"tensor": {"dtype": "DT_FLOAT", "tensorShape": {"dim": [{"size": "384"}]}}}, "dtype": {"type": "DT_FLOAT"}}}, {"name": "batch_normalization_24/moving_mean", "op": "Const", "attr": {"value": {"tensor": {"dtype": "DT_FLOAT", "tensorShape": {"dim": [{"size": "384"}]}}}, "dtype": {"type": "DT_FLOAT"}}}, {"name": "batch_normalization_27/moving_variance", "op": "Const", "attr": {"value": {"tensor": {"dtype": "DT_FLOAT", "tensorShape": {"dim": [{"size": "128"}]}}}, "dtype": {"type": "DT_FLOAT"}}}, {"name": "batch_normalization_27/moving_mean", "op": "Const", "attr": {"value": {"tensor": {"dtype": "DT_FLOAT", "tensorShape": {"dim": [{"size": "128"}]}}}, "dtype": {"type": "DT_FLOAT"}}}, {"name": "SSD/W0_1", "op": "Const", "attr": {"value": {"tensor": {"dtype": "DT_FLOAT", "tensorShape": {"dim": [{"size": "3"}, {"size": "3"}, {"size": "64"}, {"size": "1"}]}}}, "dtype": {"type": "DT_FLOAT"}}}, {"name": "batch_normalization_26/beta", "op": "Const", "attr": {"value": {"tensor": {"dtype": "DT_FLOAT", "tensorShape": {"dim": [{"size": "64"}]}}}, "dtype": {"type": "DT_FLOAT"}}}, {"name": "batch_normalization_26/gamma", "op": "Const", "attr": {"value": {"tensor": {"dtype": "DT_FLOAT", "tensorShape": {"dim": [{"size": "64"}]}}}, "dtype": {"type": "DT_FLOAT"}}}, {"name": "SSD/W2", "op": "Const", "attr": {"value": {"tensor": {"dtype": "DT_FLOAT", "tensorShape": {"dim": [{"size": "3"}, {"size": "3"}, {"size": "32"}, {"size": "1"}]}}}, "dtype": {"type": "DT_FLOAT"}}}, {"name": "batch_normalization_28/beta", "op": "Const", "attr": {"value": {"tensor": {"dtype": "DT_FLOAT", "tensorShape": {"dim": [{"size": "32"}]}}}, "dtype": {"type": "DT_FLOAT"}}}, {"name": "batch_normalization_28/gamma", "op": "Const", "attr": {"value": {"tensor": {"dtype": "DT_FLOAT", "tensorShape": {"dim": [{"size": "32"}]}}}, "dtype": {"type": "DT_FLOAT"}}}, {"name": "SSD/W1", "op": "Const", "attr": {"value": {"tensor": {"dtype": "DT_FLOAT", "tensorShape": {"dim": [{"size": "1"}, {"size": "1"}, {"size": "32"}, {"size": "32"}]}}}, "dtype": {"type": "DT_FLOAT"}}}, {"name": "SSD/W0", "op": "Const", "attr": {"value": {"tensor": {"dtype": "DT_FLOAT", "tensorShape": {"dim": [{"size": "5"}, {"size": "5"}, {"size": "32"}, {"size": "1"}]}}}, "dtype": {"type": "DT_FLOAT"}}}, {"name": "batch_normalization_25/beta", "op": "Const", "attr": {"value": {"tensor": {"dtype": "DT_FLOAT", "tensorShape": {"dim": [{"size": "32"}]}}}, "dtype": {"type": "DT_FLOAT"}}}, {"name": "batch_normalization_25/gamma", "op": "Const", "attr": {"value": {"tensor": {"dtype": "DT_FLOAT", "tensorShape": {"dim": [{"size": "32"}]}}}, "dtype": {"type": "DT_FLOAT"}}}, {"name": "batch_normalization_28/moving_variance", "op": "Const", "attr": {"value": {"tensor": {"dtype": "DT_FLOAT", "tensorShape": {"dim": [{"size": "32"}]}}}, "dtype": {"type": "DT_FLOAT"}}}, {"name": "batch_normalization_28/moving_mean", "op": "Const", "attr": {"value": {"tensor": {"dtype": "DT_FLOAT", "tensorShape": {"dim": [{"size": "32"}]}}}, "dtype": {"type": "DT_FLOAT"}}}, {"name": "batch_normalization_29/moving_variance", "op": "Const", "attr": {"value": {"tensor": {"dtype": "DT_FLOAT", "tensorShape": {"dim": [{"size": "224"}]}}}, "dtype": {"type": "DT_FLOAT"}}}, {"name": "batch_normalization_29/moving_mean", "op": "Const", "attr": {"value": {"tensor": {"dtype": "DT_FLOAT", "tensorShape": {"dim": [{"size": "224"}]}}}, "dtype": {"type": "DT_FLOAT"}}}, {"name": "batch_normalization_30/moving_variance", "op": "Const", "attr": {"value": {"tensor": {"dtype": "DT_FLOAT", "tensorShape": {"dim": [{"size": "224"}]}}}, "dtype": {"type": "DT_FLOAT"}}}, {"name": "batch_normalization_30/moving_mean", "op": "Const", "attr": {"value": {"tensor": {"dtype": "DT_FLOAT", "tensorShape": {"dim": [{"size": "224"}]}}}, "dtype": {"type": "DT_FLOAT"}}}, {"name": "batch_normalization_31/moving_variance", "op": "Const", "attr": {"value": {"tensor": {"dtype": "DT_FLOAT", "tensorShape": {"dim": [{"size": "224"}]}}}, "dtype": {"type": "DT_FLOAT"}}}, {"name": "batch_normalization_31/moving_mean", "op": "Const", "attr": {"value": {"tensor": {"dtype": "DT_FLOAT", "tensorShape": {"dim": [{"size": "224"}]}}}, "dtype": {"type": "DT_FLOAT"}}}, {"name": "SSD/MASK/WC_CVT", "op": "Const", "attr": {"value": {"tensor": {"dtype": "DT_FLOAT", "tensorShape": {"dim": [{"size": "3"}, {"size": "3"}, {"size": "112"}, {"size": "224"}]}}}, "dtype": {"type": "DT_FLOAT"}}}, {"name": "SSD/MASK/conv2d_transpose/output_shape/3", "op": "Const", "attr": {"value": {"tensor": {"dtype": "DT_INT32", "tensorShape": {}}}, "dtype": {"type": "DT_INT32"}}}, {"name": "batch_normalization_34/moving_variance", "op": "Const", "attr": {"value": {"tensor": {"dtype": "DT_FLOAT", "tensorShape": {"dim": [{"size": "112"}]}}}, "dtype": {"type": "DT_FLOAT"}}}, {"name": "batch_normalization_34/moving_mean", "op": "Const", "attr": {"value": {"tensor": {"dtype": "DT_FLOAT", "tensorShape": {"dim": [{"size": "112"}]}}}, "dtype": {"type": "DT_FLOAT"}}}, {"name": "batch_normalization_35/moving_variance", "op": "Const", "attr": {"value": {"tensor": {"dtype": "DT_FLOAT", "tensorShape": {"dim": [{"size": "112"}]}}}, "dtype": {"type": "DT_FLOAT"}}}, {"name": "batch_normalization_35/moving_mean", "op": "Const", "attr": {"value": {"tensor": {"dtype": "DT_FLOAT", "tensorShape": {"dim": [{"size": "112"}]}}}, "dtype": {"type": "DT_FLOAT"}}}, {"name": "add_1/y", "op": "Const", "attr": {"value": {"tensor": {"dtype": "DT_FLOAT", "tensorShape": {}}}, "dtype": {"type": "DT_FLOAT"}}}, {"name": "strided_slice_16/stack", "op": "Const", "attr": {"value": {"tensor": {"dtype": "DT_INT32", "tensorShape": {"dim": [{"size": "2"}]}}}, "dtype": {"type": "DT_INT32"}}}, {"name": "TensorArrayStack/range/start", "op": "Const", "attr": {"value": {"tensor": {"dtype": "DT_INT32", "tensorShape": {}}}, "dtype": {"type": "DT_INT32"}}}, {"name": "strided_slice_24/stack_1", "op": "Const", "attr": {"value": {"tensor": {"dtype": "DT_INT32", "tensorShape": {"dim": [{"size": "2"}]}}}, "dtype": {"type": "DT_INT32"}}}, {"name": "TensorArrayStack/range/delta", "op": "Const", "attr": {"value": {"tensor": {"dtype": "DT_INT32", "tensorShape": {}}}, "dtype": {"type": "DT_INT32"}}}, {"name": "strided_slice_35/stack_1", "op": "Const", "attr": {"value": {"tensor": {"dtype": "DT_INT32", "tensorShape": {"dim": [{"size": "2"}]}}}, "dtype": {"type": "DT_INT32"}}}, {"name": "pred_classes/bias", "op": "Const", "attr": {"value": {"tensor": {"dtype": "DT_FLOAT", "tensorShape": {"dim": [{"size": "2618"}]}}}, "dtype": {"type": "DT_FLOAT"}}}, {"name": "pred_classes/kernel", "op": "Const", "attr": {"value": {"tensor": {"dtype": "DT_FLOAT", "tensorShape": {"dim": [{"size": "1"}, {"size": "1"}, {"size": "224"}, {"size": "2618"}]}}}, "dtype": {"type": "DT_FLOAT"}}}, {"name": "SSD/CLASSES/W4", "op": "Const", "attr": {"value": {"tensor": {"dtype": "DT_FLOAT", "tensorShape": {"dim": [{"size": "3"}, {"size": "3"}, {"size": "224"}, {"size": "1"}]}}}, "dtype": {"type": "DT_FLOAT"}}}, {"name": "batch_normalization_33/beta", "op": "Const", "attr": {"value": {"tensor": {"dtype": "DT_FLOAT", "tensorShape": {"dim": [{"size": "224"}]}}}, "dtype": {"type": "DT_FLOAT"}}}, {"name": "batch_normalization_33/gamma", "op": "Const", "attr": {"value": {"tensor": {"dtype": "DT_FLOAT", "tensorShape": {"dim": [{"size": "224"}]}}}, "dtype": {"type": "DT_FLOAT"}}}, {"name": "SSD/CLASSES/W3", "op": "Const", "attr": {"value": {"tensor": {"dtype": "DT_FLOAT", "tensorShape": {"dim": [{"size": "1"}, {"size": "1"}, {"size": "224"}, {"size": "224"}]}}}, "dtype": {"type": "DT_FLOAT"}}}, {"name": "SSD/CLASSES/W2", "op": "Const", "attr": {"value": {"tensor": {"dtype": "DT_FLOAT", "tensorShape": {"dim": [{"size": "3"}, {"size": "3"}, {"size": "224"}, {"size": "1"}]}}}, "dtype": {"type": "DT_FLOAT"}}}, {"name": "batch_normalization_32/beta", "op": "Const", "attr": {"value": {"tensor": {"dtype": "DT_FLOAT", "tensorShape": {"dim": [{"size": "224"}]}}}, "dtype": {"type": "DT_FLOAT"}}}, {"name": "batch_normalization_32/gamma", "op": "Const", "attr": {"value": {"tensor": {"dtype": "DT_FLOAT", "tensorShape": {"dim": [{"size": "224"}]}}}, "dtype": {"type": "DT_FLOAT"}}}, {"name": "SSD/CLASSES/W1", "op": "Const", "attr": {"value": {"tensor": {"dtype": "DT_FLOAT", "tensorShape": {"dim": [{"size": "1"}, {"size": "1"}, {"size": "224"}, {"size": "224"}]}}}, "dtype": {"type": "DT_FLOAT"}}}, {"name": "SSD/CLASSES/W0", "op": "Const", "attr": {"value": {"tensor": {"dtype": "DT_FLOAT", "tensorShape": {"dim": [{"size": "5"}, {"size": "5"}, {"size": "224"}, {"size": "1"}]}}}, "dtype": {"type": "DT_FLOAT"}}}, {"name": "batch_normalization_32/moving_variance", "op": "Const", "attr": {"value": {"tensor": {"dtype": "DT_FLOAT", "tensorShape": {"dim": [{"size": "224"}]}}}, "dtype": {"type": "DT_FLOAT"}}}, {"name": "batch_normalization_32/moving_mean", "op": "Const", "attr": {"value": {"tensor": {"dtype": "DT_FLOAT", "tensorShape": {"dim": [{"size": "224"}]}}}, "dtype": {"type": "DT_FLOAT"}}}, {"name": "batch_normalization_33/moving_variance", "op": "Const", "attr": {"value": {"tensor": {"dtype": "DT_FLOAT", "tensorShape": {"dim": [{"size": "224"}]}}}, "dtype": {"type": "DT_FLOAT"}}}, {"name": "batch_normalization_33/moving_mean", "op": "Const", "attr": {"value": {"tensor": {"dtype": "DT_FLOAT", "tensorShape": {"dim": [{"size": "224"}]}}}, "dtype": {"type": "DT_FLOAT"}}}, {"name": "Greater/y", "op": "Const", "attr": {"value": {"tensor": {"dtype": "DT_FLOAT", "tensorShape": {}}}, "dtype": {"type": "DT_FLOAT"}}}, {"name": "Reshape/shape/4", "op": "Const", "attr": {"value": {"tensor": {"dtype": "DT_INT32", "tensorShape": {}}}, "dtype": {"type": "DT_INT32"}}}, {"name": "Reshape_1/shape/3", "op": "Const", "attr": {"value": {"tensor": {"dtype": "DT_INT32", "tensorShape": {}}}, "dtype": {"type": "DT_INT32"}}}, {"name": "anchors_shape", "op": "Const", "attr": {"value": {"tensor": {"dtype": "DT_FLOAT", "tensorShape": {"dim": [{"size": "11"}, {"size": "2"}]}}}, "dtype": {"type": "DT_FLOAT"}}}, {"name": "Reshape_1/shape/4", "op": "Const", "attr": {"value": {"tensor": {"dtype": "DT_INT32", "tensorShape": {}}}, "dtype": {"type": "DT_INT32"}}}, {"name": "pred_boxes/bias", "op": "Const", "attr": {"value": {"tensor": {"dtype": "DT_FLOAT", "tensorShape": {"dim": [{"size": "44"}]}}}, "dtype": {"type": "DT_FLOAT"}}}, {"name": "pred_boxes/kernel", "op": "Const", "attr": {"value": {"tensor": {"dtype": "DT_FLOAT", "tensorShape": {"dim": [{"size": "1"}, {"size": "1"}, {"size": "224"}, {"size": "44"}]}}}, "dtype": {"type": "DT_FLOAT"}}}, {"name": "LinSpace_1/start", "op": "Const", "attr": {"value": {"tensor": {"dtype": "DT_FLOAT", "tensorShape": {}}}, "dtype": {"type": "DT_FLOAT"}}}, {"name": "strided_slice_31", "op": "StridedSlice", "input": ["Placeholder", "strided_slice_20/stack_1", "strided_slice_17/stack_1", "strided_slice_37/stack_2"], "attr": {"T": {"type": "DT_FLOAT"}, "Index": {"type": "DT_INT32"}, "shrink_axis_mask": {"i": "0"}, "begin_mask": {"i": "1"}, "ellipsis_mask": {"i": "0"}, "new_axis_mask": {"i": "0"}, "end_mask": {"i": "1"}}}, {"name": "strided_slice_29", "op": "StridedSlice", "input": ["Placeholder", "strided_slice_17/stack_1", "strided_slice_37/stack_1", "strided_slice_37/stack_2"], "attr": {"T": {"type": "DT_FLOAT"}, "Index": {"type": "DT_INT32"}, "shrink_axis_mask": {"i": "0"}, "begin_mask": {"i": "1"}, "ellipsis_mask": {"i": "0"}, "new_axis_mask": {"i": "0"}, "end_mask": {"i": "1"}}}, {"name": "training", "op": "PlaceholderWithDefault", "input": ["training/input"], "attr": {"shape": {"shape": {}}, "dtype": {"type": "DT_BOOL"}}}, {"name": "ENTRANCE/Conv2D", "op": "Conv2D", "input": ["X", "ENTRANCE/WC0"], "attr": {"dilations": {"list": {"i": ["1", "1", "1", "1"]}}, "T": {"type": "DT_FLOAT"}, "strides": {"list": {"i": ["1", "1", "1", "1"]}}, "data_format": {"s": "TkhXQw=="}, "explicit_paddings": {"list": {}}, "use_cudnn_on_gpu": {"b": true}, "padding": {"s": "U0FNRQ=="}}}, {"name": "Shape", "op": "Shape", "input": ["X"], "attr": {"T": {"type": "DT_FLOAT"}, "out_type": {"type": "DT_INT32"}}}, {"name": "strided_slice_27", "op": "StridedSlice", "input": ["Placeholder", "strided_slice_37/stack", "strided_slice_16/stack", "strided_slice_37/stack_2"], "attr": {"T": {"type": "DT_FLOAT"}, "Index": {"type": "DT_INT32"}, "shrink_axis_mask": {"i": "0"}, "begin_mask": {"i": "1"}, "ellipsis_mask": {"i": "0"}, "new_axis_mask": {"i": "0"}, "end_mask": {"i": "1"}}}, {"name": "strided_slice_25", "op": "StridedSlice", "input": ["Placeholder", "strided_slice_16/stack", "strided_slice_20/stack_1", "strided_slice_37/stack_2"], "attr": {"T": {"type": "DT_FLOAT"}, "Index": {"type": "DT_INT32"}, "shrink_axis_mask": {"i": "0"}, "begin_mask": {"i": "1"}, "ellipsis_mask": {"i": "0"}, "new_axis_mask": {"i": "0"}, "end_mask": {"i": "1"}}}, {"name": "while_1/Enter", "op": "Enter", "input": ["TensorArrayStack/range/start"], "attr": {"T": {"type": "DT_INT32"}, "is_constant": {"b": false}, "parallel_iterations": {"i": "10"}, "frame_name": {"s": "d2hpbGVfMS93aGlsZV9jb250ZXh0"}}}, {"name": "TensorArray_2", "op": "TensorArrayV3", "input": ["TensorArrayStack/range/start"], "attr": {"element_shape": {"shape": {"unknownRank": true}}, "dynamic_size": {"b": true}, "clear_after_read": {"b": true}, "identical_element_shapes": {"b": true}, "tensor_array_name": {"s": ""}, "dtype": {"type": "DT_FLOAT"}}}, {"name": "while/Enter", "op": "Enter", "input": ["TensorArrayStack/range/start"], "attr": {"T": {"type": "DT_INT32"}, "is_constant": {"b": false}, "parallel_iterations": {"i": "10"}, "frame_name": {"s": "d2hpbGUvd2hpbGVfY29udGV4dA=="}}}, {"name": "while/Enter_1", "op": "Enter", "input": ["TensorArrayStack/range/start"], "attr": {"T": {"type": "DT_INT32"}, "is_constant": {"b": false}, "parallel_iterations": {"i": "10"}, "frame_name": {"s": "d2hpbGUvd2hpbGVfY29udGV4dA=="}}}, {"name": "TensorArray", "op": "TensorArrayV3", "input": ["TensorArrayStack/range/start"], "attr": {"element_shape": {"shape": {"unknownRank": true}}, "dynamic_size": {"b": true}, "clear_after_read": {"b": true}, "identical_element_shapes": {"b": true}, "tensor_array_name": {"s": ""}, "dtype": {"type": "DT_FLOAT"}}}, {"name": "strided_slice_24", "op": "StridedSlice", "input": ["Placeholder", "strided_slice_37/stack_1", "strided_slice_24/stack_1", "strided_slice_37/stack_2"], "attr": {"T": {"type": "DT_FLOAT"}, "Index": {"type": "DT_INT32"}, "shrink_axis_mask": {"i": "2"}, "begin_mask": {"i": "1"}, "ellipsis_mask": {"i": "0"}, "new_axis_mask": {"i": "0"}, "end_mask": {"i": "1"}}}, {"name": "SSD/CLASSES/batch_normalization/cond/Switch", "op": "Switch", "input": ["training", "training"], "attr": {"T": {"type": "DT_BOOL"}}}, {"name": "SSD/MASK/batch_normalization_1/cond/FusedBatchNorm_1/Switch_2", "op": "Switch", "input": ["batch_normalization_35/beta", "training"], "attr": {"T": {"type": "DT_FLOAT"}}}, {"name": "SSD/MASK/batch_normalization_1/cond/FusedBatchNorm_1/Switch_1", "op": "Switch", "input": ["batch_normalization_35/gamma", "training"], "attr": {"T": {"type": "DT_FLOAT"}}}, {"name": "SSD/MASK/batch_normalization/cond/FusedBatchNorm_1/Switch_2", "op": "Switch", "input": ["batch_normalization_34/beta", "training"], "attr": {"T": {"type": "DT_FLOAT"}}}, {"name": "SSD/MASK/batch_normalization/cond/FusedBatchNorm_1/Switch_1", "op": "Switch", "input": ["batch_normalization_34/gamma", "training"], "attr": {"T": {"type": "DT_FLOAT"}}}, {"name": "SSD/batch_normalization_6/cond/FusedBatchNorm_1/Switch_2", "op": "Switch", "input": ["batch_normalization_31/beta", "training"], "attr": {"T": {"type": "DT_FLOAT"}}}, {"name": "SSD/batch_normalization_6/cond/FusedBatchNorm_1/Switch_1", "op": "Switch", "input": ["batch_normalization_31/gamma", "training"], "attr": {"T": {"type": "DT_FLOAT"}}}, {"name": "SSD/batch_normalization_5/cond/FusedBatchNorm_1/Switch_2", "op": "Switch", "input": ["batch_normalization_30/beta", "training"], "attr": {"T": {"type": "DT_FLOAT"}}}, {"name": "SSD/batch_normalization_5/cond/FusedBatchNorm_1/Switch_1", "op": "Switch", "input": ["batch_normalization_30/gamma", "training"], "attr": {"T": {"type": "DT_FLOAT"}}}, {"name": "SSD/batch_normalization_4/cond/FusedBatchNorm_1/Switch_2", "op": "Switch", "input": ["batch_normalization_29/beta", "training"], "attr": {"T": {"type": "DT_FLOAT"}}}, {"name": "SSD/batch_normalization_4/cond/FusedBatchNorm_1/Switch_1", "op": "Switch", "input": ["batch_normalization_29/gamma", "training"], "attr": {"T": {"type": "DT_FLOAT"}}}, {"name": "SSD/batch_normalization_2/cond/FusedBatchNorm_1/Switch_2", "op": "Switch", "input": ["batch_normalization_27/beta", "training"], "attr": {"T": {"type": "DT_FLOAT"}}}, {"name": "SSD/batch_normalization_2/cond/FusedBatchNorm_1/Switch_1", "op": "Switch", "input": ["batch_normalization_27/gamma", "training"], "attr": {"T": {"type": "DT_FLOAT"}}}, {"name": "CNN/S8/BB11/batch_normalization/cond/FusedBatchNorm_1/Switch_2", "op": "Switch", "input": ["batch_normalization_24/beta", "training"], "attr": {"T": {"type": "DT_FLOAT"}}}, {"name": "CNN/S8/BB11/batch_normalization/cond/FusedBatchNorm_1/Switch_1", "op": "Switch", "input": ["batch_normalization_24/gamma", "training"], "attr": {"T": {"type": "DT_FLOAT"}}}, {"name": "CNN/S8/batch_normalization_2/cond/FusedBatchNorm_1/Switch_2", "op": "Switch", "input": ["batch_normalization_23/beta", "training"], "attr": {"T": {"type": "DT_FLOAT"}}}, {"name": "CNN/S8/batch_normalization_2/cond/FusedBatchNorm_1/Switch_1", "op": "Switch", "input": ["batch_normalization_23/gamma", "training"], "attr": {"T": {"type": "DT_FLOAT"}}}, {"name": "CNN/S8/BB9/batch_normalization/cond/FusedBatchNorm_1/Switch_2", "op": "Switch", "input": ["batch_normalization_20/beta", "training"], "attr": {"T": {"type": "DT_FLOAT"}}}, {"name": "CNN/S8/BB9/batch_normalization/cond/FusedBatchNorm_1/Switch_1", "op": "Switch", "input": ["batch_normalization_20/gamma", "training"], "attr": {"T": {"type": "DT_FLOAT"}}}, {"name": "CNN/S8/batch_normalization/cond/FusedBatchNorm_1/Switch_2", "op": "Switch", "input": ["batch_normalization_19/beta", "training"], "attr": {"T": {"type": "DT_FLOAT"}}}, {"name": "CNN/S8/batch_normalization/cond/FusedBatchNorm_1/Switch_1", "op": "Switch", "input": ["batch_normalization_19/gamma", "training"], "attr": {"T": {"type": "DT_FLOAT"}}}, {"name": "CNN/S4/BB8/batch_normalization/cond/FusedBatchNorm_1/Switch_2", "op": "Switch", "input": ["batch_normalization_18/beta", "training"], "attr": {"T": {"type": "DT_FLOAT"}}}, {"name": "CNN/S4/BB8/batch_normalization/cond/FusedBatchNorm_1/Switch_1", "op": "Switch", "input": ["batch_normalization_18/gamma", "training"], "attr": {"T": {"type": "DT_FLOAT"}}}, {"name": "CNN/S4/batch_normalization_3/cond/FusedBatchNorm_1/Switch_2", "op": "Switch", "input": ["batch_normalization_17/beta", "training"], "attr": {"T": {"type": "DT_FLOAT"}}}, {"name": "CNN/S4/batch_normalization_3/cond/FusedBatchNorm_1/Switch_1", "op": "Switch", "input": ["batch_normalization_17/gamma", "training"], "attr": {"T": {"type": "DT_FLOAT"}}}, {"name": "CNN/S4/BB7/batch_normalization/cond/FusedBatchNorm_1/Switch_2", "op": "Switch", "input": ["batch_normalization_16/beta", "training"], "attr": {"T": {"type": "DT_FLOAT"}}}, {"name": "CNN/S4/BB7/batch_normalization/cond/FusedBatchNorm_1/Switch_1", "op": "Switch", "input": ["batch_normalization_16/gamma", "training"], "attr": {"T": {"type": "DT_FLOAT"}}}, {"name": "CNN/S4/batch_normalization_2/cond/FusedBatchNorm_1/Switch_2", "op": "Switch", "input": ["batch_normalization_15/beta", "training"], "attr": {"T": {"type": "DT_FLOAT"}}}, {"name": "CNN/S4/batch_normalization_2/cond/FusedBatchNorm_1/Switch_1", "op": "Switch", "input": ["batch_normalization_15/gamma", "training"], "attr": {"T": {"type": "DT_FLOAT"}}}, {"name": "CNN/S4/BB6/batch_normalization/cond/FusedBatchNorm_1/Switch_2", "op": "Switch", "input": ["batch_normalization_14/beta", "training"], "attr": {"T": {"type": "DT_FLOAT"}}}, {"name": "CNN/S4/BB6/batch_normalization/cond/FusedBatchNorm_1/Switch_1", "op": "Switch", "input": ["batch_normalization_14/gamma", "training"], "attr": {"T": {"type": "DT_FLOAT"}}}, {"name": "CNN/S4/batch_normalization_1/cond/FusedBatchNorm_1/Switch_2", "op": "Switch", "input": ["batch_normalization_13/beta", "training"], "attr": {"T": {"type": "DT_FLOAT"}}}, {"name": "CNN/S4/batch_normalization_1/cond/FusedBatchNorm_1/Switch_1", "op": "Switch", "input": ["batch_normalization_13/gamma", "training"], "attr": {"T": {"type": "DT_FLOAT"}}}, {"name": "CNN/S4/BB5/batch_normalization/cond/FusedBatchNorm_1/Switch_2", "op": "Switch", "input": ["batch_normalization_12/beta", "training"], "attr": {"T": {"type": "DT_FLOAT"}}}, {"name": "CNN/S4/BB5/batch_normalization/cond/FusedBatchNorm_1/Switch_1", "op": "Switch", "input": ["batch_normalization_12/gamma", "training"], "attr": {"T": {"type": "DT_FLOAT"}}}, {"name": "CNN/S4/batch_normalization/cond/FusedBatchNorm_1/Switch_2", "op": "Switch", "input": ["batch_normalization_11/beta", "training"], "attr": {"T": {"type": "DT_FLOAT"}}}, {"name": "CNN/S4/batch_normalization/cond/FusedBatchNorm_1/Switch_1", "op": "Switch", "input": ["batch_normalization_11/gamma", "training"], "attr": {"T": {"type": "DT_FLOAT"}}}, {"name": "CNN/S2/BB4/batch_normalization/cond/FusedBatchNorm_1/Switch_2", "op": "Switch", "input": ["batch_normalization_10/beta", "training"], "attr": {"T": {"type": "DT_FLOAT"}}}, {"name": "CNN/S2/BB4/batch_normalization/cond/FusedBatchNorm_1/Switch_1", "op": "Switch", "input": ["batch_normalization_10/gamma", "training"], "attr": {"T": {"type": "DT_FLOAT"}}}, {"name": "CNN/S2/batch_normalization_4/cond/FusedBatchNorm_1/Switch_2", "op": "Switch", "input": ["batch_normalization_9/beta", "training"], "attr": {"T": {"type": "DT_FLOAT"}}}, {"name": "CNN/S2/batch_normalization_4/cond/FusedBatchNorm_1/Switch_1", "op": "Switch", "input": ["batch_normalization_9/gamma", "training"], "attr": {"T": {"type": "DT_FLOAT"}}}, {"name": "CNN/S2/BB3/batch_normalization/cond/FusedBatchNorm_1/Switch_2", "op": "Switch", "input": ["batch_normalization_8/beta", "training"], "attr": {"T": {"type": "DT_FLOAT"}}}, {"name": "CNN/S2/BB3/batch_normalization/cond/FusedBatchNorm_1/Switch_1", "op": "Switch", "input": ["batch_normalization_8/gamma", "training"], "attr": {"T": {"type": "DT_FLOAT"}}}, {"name": "CNN/S2/batch_normalization_3/cond/FusedBatchNorm_1/Switch_2", "op": "Switch", "input": ["batch_normalization_7/beta", "training"], "attr": {"T": {"type": "DT_FLOAT"}}}, {"name": "CNN/S2/batch_normalization_3/cond/FusedBatchNorm_1/Switch_1", "op": "Switch", "input": ["batch_normalization_7/gamma", "training"], "attr": {"T": {"type": "DT_FLOAT"}}}, {"name": "CNN/S2/BB2/batch_normalization/cond/FusedBatchNorm_1/Switch_2", "op": "Switch", "input": ["batch_normalization_6/beta", "training"], "attr": {"T": {"type": "DT_FLOAT"}}}, {"name": "CNN/S2/BB2/batch_normalization/cond/FusedBatchNorm_1/Switch_1", "op": "Switch", "input": ["batch_normalization_6/gamma", "training"], "attr": {"T": {"type": "DT_FLOAT"}}}, {"name": "CNN/S2/batch_normalization_2/cond/FusedBatchNorm_1/Switch_2", "op": "Switch", "input": ["batch_normalization_5/beta", "training"], "attr": {"T": {"type": "DT_FLOAT"}}}, {"name": "CNN/S2/batch_normalization_2/cond/FusedBatchNorm_1/Switch_1", "op": "Switch", "input": ["batch_normalization_5/gamma", "training"], "attr": {"T": {"type": "DT_FLOAT"}}}, {"name": "CNN/S2/BB1/batch_normalization/cond/FusedBatchNorm_1/Switch_2", "op": "Switch", "input": ["batch_normalization_4/beta", "training"], "attr": {"T": {"type": "DT_FLOAT"}}}, {"name": "CNN/S2/BB1/batch_normalization/cond/FusedBatchNorm_1/Switch_1", "op": "Switch", "input": ["batch_normalization_4/gamma", "training"], "attr": {"T": {"type": "DT_FLOAT"}}}, {"name": "CNN/S2/batch_normalization_1/cond/FusedBatchNorm_1/Switch_2", "op": "Switch", "input": ["batch_normalization_3/beta", "training"], "attr": {"T": {"type": "DT_FLOAT"}}}, {"name": "CNN/S2/batch_normalization_1/cond/FusedBatchNorm_1/Switch_1", "op": "Switch", "input": ["batch_normalization_3/gamma", "training"], "attr": {"T": {"type": "DT_FLOAT"}}}, {"name": "ENTRANCE/batch_normalization/cond/FusedBatchNorm_1/Switch_2", "op": "Switch", "input": ["batch_normalization/beta", "training"], "attr": {"T": {"type": "DT_FLOAT"}}}, {"name": "ENTRANCE/batch_normalization/cond/FusedBatchNorm_1/Switch_1", "op": "Switch", "input": ["batch_normalization/gamma", "training"], "attr": {"T": {"type": "DT_FLOAT"}}}, {"name": "ENTRANCE/batch_normalization/cond/FusedBatchNorm_1/Switch_4", "op": "Switch", "input": ["batch_normalization/moving_variance", "training"], "attr": {"T": {"type": "DT_FLOAT"}}}, {"name": "ENTRANCE/batch_normalization/cond/FusedBatchNorm_1/Switch_3", "op": "Switch", "input": ["batch_normalization/moving_mean", "training"], "attr": {"T": {"type": "DT_FLOAT"}}}, {"name": "CNN/S2/BB0/batch_normalization/cond/FusedBatchNorm_1/Switch_2", "op": "Switch", "input": ["batch_normalization_2/beta", "training"], "attr": {"T": {"type": "DT_FLOAT"}}}, {"name": "CNN/S2/BB0/batch_normalization/cond/FusedBatchNorm_1/Switch_1", "op": "Switch", "input": ["batch_normalization_2/gamma", "training"], "attr": {"T": {"type": "DT_FLOAT"}}}, {"name": "CNN/S2/batch_normalization/cond/FusedBatchNorm_1/Switch_2", "op": "Switch", "input": ["batch_normalization_1/beta", "training"], "attr": {"T": {"type": "DT_FLOAT"}}}, {"name": "CNN/S2/batch_normalization/cond/FusedBatchNorm_1/Switch_1", "op": "Switch", "input": ["batch_normalization_1/gamma", "training"], "attr": {"T": {"type": "DT_FLOAT"}}}, {"name": "CNN/S2/batch_normalization/cond/FusedBatchNorm_1/Switch_4", "op": "Switch", "input": ["batch_normalization_1/moving_variance", "training"], "attr": {"T": {"type": "DT_FLOAT"}}}, {"name": "CNN/S2/batch_normalization/cond/FusedBatchNorm_1/Switch_3", "op": "Switch", "input": ["batch_normalization_1/moving_mean", "training"], "attr": {"T": {"type": "DT_FLOAT"}}}, {"name": "CNN/S2/BB0/batch_normalization/cond/FusedBatchNorm_1/Switch_4", "op": "Switch", "input": ["batch_normalization_2/moving_variance", "training"], "attr": {"T": {"type": "DT_FLOAT"}}}, {"name": "CNN/S2/BB0/batch_normalization/cond/FusedBatchNorm_1/Switch_3", "op": "Switch", "input": ["batch_normalization_2/moving_mean", "training"], "attr": {"T": {"type": "DT_FLOAT"}}}, {"name": "CNN/S2/batch_normalization_1/cond/FusedBatchNorm_1/Switch_4", "op": "Switch", "input": ["batch_normalization_3/moving_variance", "training"], "attr": {"T": {"type": "DT_FLOAT"}}}, {"name": "CNN/S2/batch_normalization_1/cond/FusedBatchNorm_1/Switch_3", "op": "Switch", "input": ["batch_normalization_3/moving_mean", "training"], "attr": {"T": {"type": "DT_FLOAT"}}}, {"name": "CNN/S2/BB1/batch_normalization/cond/FusedBatchNorm_1/Switch_4", "op": "Switch", "input": ["batch_normalization_4/moving_variance", "training"], "attr": {"T": {"type": "DT_FLOAT"}}}, {"name": "CNN/S2/BB1/batch_normalization/cond/FusedBatchNorm_1/Switch_3", "op": "Switch", "input": ["batch_normalization_4/moving_mean", "training"], "attr": {"T": {"type": "DT_FLOAT"}}}, {"name": "CNN/S2/batch_normalization_2/cond/FusedBatchNorm_1/Switch_4", "op": "Switch", "input": ["batch_normalization_5/moving_variance", "training"], "attr": {"T": {"type": "DT_FLOAT"}}}, {"name": "CNN/S2/batch_normalization_2/cond/FusedBatchNorm_1/Switch_3", "op": "Switch", "input": ["batch_normalization_5/moving_mean", "training"], "attr": {"T": {"type": "DT_FLOAT"}}}, {"name": "CNN/S2/BB2/batch_normalization/cond/FusedBatchNorm_1/Switch_4", "op": "Switch", "input": ["batch_normalization_6/moving_variance", "training"], "attr": {"T": {"type": "DT_FLOAT"}}}, {"name": "CNN/S2/BB2/batch_normalization/cond/FusedBatchNorm_1/Switch_3", "op": "Switch", "input": ["batch_normalization_6/moving_mean", "training"], "attr": {"T": {"type": "DT_FLOAT"}}}, {"name": "CNN/S2/batch_normalization_3/cond/FusedBatchNorm_1/Switch_4", "op": "Switch", "input": ["batch_normalization_7/moving_variance", "training"], "attr": {"T": {"type": "DT_FLOAT"}}}, {"name": "CNN/S2/batch_normalization_3/cond/FusedBatchNorm_1/Switch_3", "op": "Switch", "input": ["batch_normalization_7/moving_mean", "training"], "attr": {"T": {"type": "DT_FLOAT"}}}, {"name": "CNN/S2/BB3/batch_normalization/cond/FusedBatchNorm_1/Switch_4", "op": "Switch", "input": ["batch_normalization_8/moving_variance", "training"], "attr": {"T": {"type": "DT_FLOAT"}}}, {"name": "CNN/S2/BB3/batch_normalization/cond/FusedBatchNorm_1/Switch_3", "op": "Switch", "input": ["batch_normalization_8/moving_mean", "training"], "attr": {"T": {"type": "DT_FLOAT"}}}, {"name": "CNN/S2/batch_normalization_4/cond/FusedBatchNorm_1/Switch_4", "op": "Switch", "input": ["batch_normalization_9/moving_variance", "training"], "attr": {"T": {"type": "DT_FLOAT"}}}, {"name": "CNN/S2/batch_normalization_4/cond/FusedBatchNorm_1/Switch_3", "op": "Switch", "input": ["batch_normalization_9/moving_mean", "training"], "attr": {"T": {"type": "DT_FLOAT"}}}, {"name": "CNN/S2/BB4/batch_normalization/cond/FusedBatchNorm_1/Switch_4", "op": "Switch", "input": ["batch_normalization_10/moving_variance", "training"], "attr": {"T": {"type": "DT_FLOAT"}}}, {"name": "CNN/S2/BB4/batch_normalization/cond/FusedBatchNorm_1/Switch_3", "op": "Switch", "input": ["batch_normalization_10/moving_mean", "training"], "attr": {"T": {"type": "DT_FLOAT"}}}, {"name": "SSD/batch_normalization/cond/FusedBatchNorm_1/Switch_4", "op": "Switch", "input": ["batch_normalization_25/moving_variance", "training"], "attr": {"T": {"type": "DT_FLOAT"}}}, {"name": "SSD/batch_normalization/cond/FusedBatchNorm_1/Switch_3", "op": "Switch", "input": ["batch_normalization_25/moving_mean", "training"], "attr": {"T": {"type": "DT_FLOAT"}}}, {"name": "CNN/S4/BB5/batch_normalization/cond/FusedBatchNorm_1/Switch_4", "op": "Switch", "input": ["batch_normalization_12/moving_variance", "training"], "attr": {"T": {"type": "DT_FLOAT"}}}, {"name": "CNN/S4/BB5/batch_normalization/cond/FusedBatchNorm_1/Switch_3", "op": "Switch", "input": ["batch_normalization_12/moving_mean", "training"], "attr": {"T": {"type": "DT_FLOAT"}}}, {"name": "CNN/S4/batch_normalization_1/cond/FusedBatchNorm_1/Switch_4", "op": "Switch", "input": ["batch_normalization_13/moving_variance", "training"], "attr": {"T": {"type": "DT_FLOAT"}}}, {"name": "CNN/S4/batch_normalization_1/cond/FusedBatchNorm_1/Switch_3", "op": "Switch", "input": ["batch_normalization_13/moving_mean", "training"], "attr": {"T": {"type": "DT_FLOAT"}}}, {"name": "CNN/S4/BB6/batch_normalization/cond/FusedBatchNorm_1/Switch_4", "op": "Switch", "input": ["batch_normalization_14/moving_variance", "training"], "attr": {"T": {"type": "DT_FLOAT"}}}, {"name": "CNN/S4/BB6/batch_normalization/cond/FusedBatchNorm_1/Switch_3", "op": "Switch", "input": ["batch_normalization_14/moving_mean", "training"], "attr": {"T": {"type": "DT_FLOAT"}}}, {"name": "CNN/S4/batch_normalization_2/cond/FusedBatchNorm_1/Switch_4", "op": "Switch", "input": ["batch_normalization_15/moving_variance", "training"], "attr": {"T": {"type": "DT_FLOAT"}}}, {"name": "CNN/S4/batch_normalization_2/cond/FusedBatchNorm_1/Switch_3", "op": "Switch", "input": ["batch_normalization_15/moving_mean", "training"], "attr": {"T": {"type": "DT_FLOAT"}}}, {"name": "CNN/S4/BB7/batch_normalization/cond/FusedBatchNorm_1/Switch_4", "op": "Switch", "input": ["batch_normalization_16/moving_variance", "training"], "attr": {"T": {"type": "DT_FLOAT"}}}, {"name": "CNN/S4/BB7/batch_normalization/cond/FusedBatchNorm_1/Switch_3", "op": "Switch", "input": ["batch_normalization_16/moving_mean", "training"], "attr": {"T": {"type": "DT_FLOAT"}}}, {"name": "CNN/S4/batch_normalization_3/cond/FusedBatchNorm_1/Switch_4", "op": "Switch", "input": ["batch_normalization_17/moving_variance", "training"], "attr": {"T": {"type": "DT_FLOAT"}}}, {"name": "CNN/S4/batch_normalization_3/cond/FusedBatchNorm_1/Switch_3", "op": "Switch", "input": ["batch_normalization_17/moving_mean", "training"], "attr": {"T": {"type": "DT_FLOAT"}}}, {"name": "CNN/S4/BB8/batch_normalization/cond/FusedBatchNorm_1/Switch_4", "op": "Switch", "input": ["batch_normalization_18/moving_variance", "training"], "attr": {"T": {"type": "DT_FLOAT"}}}, {"name": "CNN/S4/BB8/batch_normalization/cond/FusedBatchNorm_1/Switch_3", "op": "Switch", "input": ["batch_normalization_18/moving_mean", "training"], "attr": {"T": {"type": "DT_FLOAT"}}}, {"name": "SSD/batch_normalization_1/cond/FusedBatchNorm_1/Switch_4", "op": "Switch", "input": ["batch_normalization_26/moving_variance", "training"], "attr": {"T": {"type": "DT_FLOAT"}}}, {"name": "SSD/batch_normalization_1/cond/FusedBatchNorm_1/Switch_3", "op": "Switch", "input": ["batch_normalization_26/moving_mean", "training"], "attr": {"T": {"type": "DT_FLOAT"}}}, {"name": "CNN/S8/BB9/batch_normalization/cond/FusedBatchNorm_1/Switch_4", "op": "Switch", "input": ["batch_normalization_20/moving_variance", "training"], "attr": {"T": {"type": "DT_FLOAT"}}}, {"name": "CNN/S8/BB9/batch_normalization/cond/FusedBatchNorm_1/Switch_3", "op": "Switch", "input": ["batch_normalization_20/moving_mean", "training"], "attr": {"T": {"type": "DT_FLOAT"}}}, {"name": "CNN/S8/BB10/batch_normalization/cond/FusedBatchNorm_1/Switch_2", "op": "Switch", "input": ["batch_normalization_22/beta", "training"], "attr": {"T": {"type": "DT_FLOAT"}}}, {"name": "CNN/S8/BB10/batch_normalization/cond/FusedBatchNorm_1/Switch_1", "op": "Switch", "input": ["batch_normalization_22/gamma", "training"], "attr": {"T": {"type": "DT_FLOAT"}}}, {"name": "CNN/S8/batch_normalization_1/cond/FusedBatchNorm_1/Switch_2", "op": "Switch", "input": ["batch_normalization_21/beta", "training"], "attr": {"T": {"type": "DT_FLOAT"}}}, {"name": "CNN/S8/batch_normalization_1/cond/FusedBatchNorm_1/Switch_1", "op": "Switch", "input": ["batch_normalization_21/gamma", "training"], "attr": {"T": {"type": "DT_FLOAT"}}}, {"name": "CNN/S8/batch_normalization_1/cond/FusedBatchNorm_1/Switch_4", "op": "Switch", "input": ["batch_normalization_21/moving_variance", "training"], "attr": {"T": {"type": "DT_FLOAT"}}}, {"name": "CNN/S8/batch_normalization_1/cond/FusedBatchNorm_1/Switch_3", "op": "Switch", "input": ["batch_normalization_21/moving_mean", "training"], "attr": {"T": {"type": "DT_FLOAT"}}}, {"name": "CNN/S8/BB10/batch_normalization/cond/FusedBatchNorm_1/Switch_4", "op": "Switch", "input": ["batch_normalization_22/moving_variance", "training"], "attr": {"T": {"type": "DT_FLOAT"}}}, {"name": "CNN/S8/BB10/batch_normalization/cond/FusedBatchNorm_1/Switch_3", "op": "Switch", "input": ["batch_normalization_22/moving_mean", "training"], "attr": {"T": {"type": "DT_FLOAT"}}}, {"name": "CNN/S8/batch_normalization_2/cond/FusedBatchNorm_1/Switch_4", "op": "Switch", "input": ["batch_normalization_23/moving_variance", "training"], "attr": {"T": {"type": "DT_FLOAT"}}}, {"name": "CNN/S8/batch_normalization_2/cond/FusedBatchNorm_1/Switch_3", "op": "Switch", "input": ["batch_normalization_23/moving_mean", "training"], "attr": {"T": {"type": "DT_FLOAT"}}}, {"name": "CNN/S8/BB11/batch_normalization/cond/FusedBatchNorm_1/Switch_4", "op": "Switch", "input": ["batch_normalization_24/moving_variance", "training"], "attr": {"T": {"type": "DT_FLOAT"}}}, {"name": "CNN/S8/BB11/batch_normalization/cond/FusedBatchNorm_1/Switch_3", "op": "Switch", "input": ["batch_normalization_24/moving_mean", "training"], "attr": {"T": {"type": "DT_FLOAT"}}}, {"name": "SSD/batch_normalization_2/cond/FusedBatchNorm_1/Switch_4", "op": "Switch", "input": ["batch_normalization_27/moving_variance", "training"], "attr": {"T": {"type": "DT_FLOAT"}}}, {"name": "SSD/batch_normalization_2/cond/FusedBatchNorm_1/Switch_3", "op": "Switch", "input": ["batch_normalization_27/moving_mean", "training"], "attr": {"T": {"type": "DT_FLOAT"}}}, {"name": "SSD/batch_normalization_1/cond/FusedBatchNorm_1/Switch_2", "op": "Switch", "input": ["batch_normalization_26/beta", "training"], "attr": {"T": {"type": "DT_FLOAT"}}}, {"name": "SSD/batch_normalization_1/cond/FusedBatchNorm_1/Switch_1", "op": "Switch", "input": ["batch_normalization_26/gamma", "training"], "attr": {"T": {"type": "DT_FLOAT"}}}, {"name": "SSD/batch_normalization_3/cond/FusedBatchNorm_1/Switch_2", "op": "Switch", "input": ["batch_normalization_28/beta", "training"], "attr": {"T": {"type": "DT_FLOAT"}}}, {"name": "SSD/batch_normalization_3/cond/FusedBatchNorm_1/Switch_1", "op": "Switch", "input": ["batch_normalization_28/gamma", "training"], "attr": {"T": {"type": "DT_FLOAT"}}}, {"name": "SSD/batch_normalization/cond/FusedBatchNorm_1/Switch_2", "op": "Switch", "input": ["batch_normalization_25/beta", "training"], "attr": {"T": {"type": "DT_FLOAT"}}}, {"name": "SSD/batch_normalization/cond/FusedBatchNorm_1/Switch_1", "op": "Switch", "input": ["batch_normalization_25/gamma", "training"], "attr": {"T": {"type": "DT_FLOAT"}}}, {"name": "SSD/batch_normalization_3/cond/FusedBatchNorm_1/Switch_4", "op": "Switch", "input": ["batch_normalization_28/moving_variance", "training"], "attr": {"T": {"type": "DT_FLOAT"}}}, {"name": "SSD/batch_normalization_3/cond/FusedBatchNorm_1/Switch_3", "op": "Switch", "input": ["batch_normalization_28/moving_mean", "training"], "attr": {"T": {"type": "DT_FLOAT"}}}, {"name": "SSD/batch_normalization_4/cond/FusedBatchNorm_1/Switch_4", "op": "Switch", "input": ["batch_normalization_29/moving_variance", "training"], "attr": {"T": {"type": "DT_FLOAT"}}}, {"name": "SSD/batch_normalization_4/cond/FusedBatchNorm_1/Switch_3", "op": "Switch", "input": ["batch_normalization_29/moving_mean", "training"], "attr": {"T": {"type": "DT_FLOAT"}}}, {"name": "SSD/batch_normalization_5/cond/FusedBatchNorm_1/Switch_4", "op": "Switch", "input": ["batch_normalization_30/moving_variance", "training"], "attr": {"T": {"type": "DT_FLOAT"}}}, {"name": "SSD/batch_normalization_5/cond/FusedBatchNorm_1/Switch_3", "op": "Switch", "input": ["batch_normalization_30/moving_mean", "training"], "attr": {"T": {"type": "DT_FLOAT"}}}, {"name": "SSD/batch_normalization_6/cond/FusedBatchNorm_1/Switch_4", "op": "Switch", "input": ["batch_normalization_31/moving_variance", "training"], "attr": {"T": {"type": "DT_FLOAT"}}}, {"name": "SSD/batch_normalization_6/cond/FusedBatchNorm_1/Switch_3", "op": "Switch", "input": ["batch_normalization_31/moving_mean", "training"], "attr": {"T": {"type": "DT_FLOAT"}}}, {"name": "SSD/MASK/batch_normalization/cond/FusedBatchNorm_1/Switch_4", "op": "Switch", "input": ["batch_normalization_34/moving_variance", "training"], "attr": {"T": {"type": "DT_FLOAT"}}}, {"name": "SSD/MASK/batch_normalization/cond/FusedBatchNorm_1/Switch_3", "op": "Switch", "input": ["batch_normalization_34/moving_mean", "training"], "attr": {"T": {"type": "DT_FLOAT"}}}, {"name": "SSD/MASK/batch_normalization_1/cond/FusedBatchNorm_1/Switch_4", "op": "Switch", "input": ["batch_normalization_35/moving_variance", "training"], "attr": {"T": {"type": "DT_FLOAT"}}}, {"name": "SSD/MASK/batch_normalization_1/cond/FusedBatchNorm_1/Switch_3", "op": "Switch", "input": ["batch_normalization_35/moving_mean", "training"], "attr": {"T": {"type": "DT_FLOAT"}}}, {"name": "SSD/CLASSES/batch_normalization_1/cond/FusedBatchNorm_1/Switch_2", "op": "Switch", "input": ["batch_normalization_33/beta", "training"], "attr": {"T": {"type": "DT_FLOAT"}}}, {"name": "SSD/CLASSES/batch_normalization_1/cond/FusedBatchNorm_1/Switch_1", "op": "Switch", "input": ["batch_normalization_33/gamma", "training"], "attr": {"T": {"type": "DT_FLOAT"}}}, {"name": "SSD/CLASSES/batch_normalization/cond/FusedBatchNorm_1/Switch_2", "op": "Switch", "input": ["batch_normalization_32/beta", "training"], "attr": {"T": {"type": "DT_FLOAT"}}}, {"name": "SSD/CLASSES/batch_normalization/cond/FusedBatchNorm_1/Switch_1", "op": "Switch", "input": ["batch_normalization_32/gamma", "training"], "attr": {"T": {"type": "DT_FLOAT"}}}, {"name": "SSD/CLASSES/batch_normalization/cond/FusedBatchNorm_1/Switch_4", "op": "Switch", "input": ["batch_normalization_32/moving_variance", "training"], "attr": {"T": {"type": "DT_FLOAT"}}}, {"name": "SSD/CLASSES/batch_normalization/cond/FusedBatchNorm_1/Switch_3", "op": "Switch", "input": ["batch_normalization_32/moving_mean", "training"], "attr": {"T": {"type": "DT_FLOAT"}}}, {"name": "SSD/CLASSES/batch_normalization_1/cond/FusedBatchNorm_1/Switch_4", "op": "Switch", "input": ["batch_normalization_33/moving_variance", "training"], "attr": {"T": {"type": "DT_FLOAT"}}}, {"name": "SSD/CLASSES/batch_normalization_1/cond/FusedBatchNorm_1/Switch_3", "op": "Switch", "input": ["batch_normalization_33/moving_mean", "training"], "attr": {"T": {"type": "DT_FLOAT"}}}, {"name": "ENTRANCE/Relu", "op": "Relu", "input": ["ENTRANCE/Conv2D"], "attr": {"T": {"type": "DT_FLOAT"}}}, {"name": "strided_slice", "op": "StridedSlice", "input": ["Shape", "strided_slice_11/stack_2", "strided_slice_11/stack_1", "strided_slice_11/stack_2"], "attr": {"T": {"type": "DT_INT32"}, "Index": {"type": "DT_INT32"}, "shrink_axis_mask": {"i": "0"}, "begin_mask": {"i": "0"}, "ellipsis_mask": {"i": "0"}, "new_axis_mask": {"i": "0"}, "end_mask": {"i": "0"}}}, {"name": "while_1/Merge", "op": "Merge", "input": ["while_1/Enter", "while_1/NextIteration"], "attr": {"T": {"type": "DT_INT32"}, "N": {"i": "2"}}}, {"name": "while_1/TensorArrayWrite/TensorArrayWriteV3/Enter", "op": "Enter", "input": ["TensorArray_2"], "attr": {"T": {"type": "DT_RESOURCE"}, "is_constant": {"b": true}, "parallel_iterations": {"i": "10"}, "frame_name": {"s": "d2hpbGVfMS93aGlsZV9jb250ZXh0"}}}, {"name": "while_1/Enter_1", "op": "Enter", "input": ["TensorArray_2:1"], "attr": {"T": {"type": "DT_FLOAT"}, "is_constant": {"b": false}, "parallel_iterations": {"i": "10"}, "frame_name": {"s": "d2hpbGVfMS93aGlsZV9jb250ZXh0"}}}, {"name": "while/Merge", "op": "Merge", "input": ["while/Enter", "while/NextIteration"], "attr": {"T": {"type": "DT_INT32"}, "N": {"i": "2"}}}, {"name": "while/Merge_1", "op": "Merge", "input": ["while/Enter_1", "while/NextIteration_1"], "attr": {"T": {"type": "DT_INT32"}, "N": {"i": "2"}}}, {"name": "while/while/TensorArrayWrite/TensorArrayWriteV3/Enter", "op": "Enter", "input": ["TensorArray"], "attr": {"T": {"type": "DT_RESOURCE"}, "is_constant": {"b": true}, "parallel_iterations": {"i": "10"}, "frame_name": {"s": "d2hpbGUvd2hpbGVfY29udGV4dA=="}}}, {"name": "while/Enter_2", "op": "Enter", "input": ["TensorArray:1"], "attr": {"T": {"type": "DT_FLOAT"}, "is_constant": {"b": false}, "parallel_iterations": {"i": "10"}, "frame_name": {"s": "d2hpbGUvd2hpbGVfY29udGV4dA=="}}}, {"name": "Cast_7", "op": "Cast", "input": ["strided_slice_24"], "attr": {"SrcT": {"type": "DT_FLOAT"}, "Truncate": {"b": false}, "DstT": {"type": "DT_INT32"}}}, {"name": "SSD/CLASSES/batch_normalization/cond/switch_t", "op": "Identity", "input": ["SSD/CLASSES/batch_normalization/cond/Switch:1"], "attr": {"T": {"type": "DT_BOOL"}}}, {"name": "ENTRANCE/depthwise", "op": "DepthwiseConv2dNative", "input": ["ENTRANCE/Relu", "ENTRANCE/W0"], "attr": {"dilations": {"list": {"i": ["1", "1", "1", "1"]}}, "padding": {"s": "U0FNRQ=="}, "T": {"type": "DT_FLOAT"}, "data_format": {"s": "TkhXQw=="}, "strides": {"list": {"i": ["1", "1", "1", "1"]}}}}, {"name": "Cast", "op": "Cast", "input": ["strided_slice"], "attr": {"SrcT": {"type": "DT_INT32"}, "Truncate": {"b": false}, "DstT": {"type": "DT_FLOAT"}}}, {"name": "while_1/Merge_1", "op": "Merge", "input": ["while_1/Enter_1", "while_1/NextIteration_1"], "attr": {"T": {"type": "DT_FLOAT"}, "N": {"i": "2"}}}, {"name": "while/strided_slice/stack_1", "op": "Const", "input": ["^while/Merge"], "attr": {"value": {"tensor": {"dtype": "DT_INT32", "tensorShape": {"dim": [{"size": "1"}]}}}, "dtype": {"type": "DT_INT32"}}}, {"name": "while/strided_slice/stack", "op": "Const", "input": ["^while/Merge"], "attr": {"value": {"tensor": {"dtype": "DT_INT32", "tensorShape": {"dim": [{"size": "1"}]}}}, "dtype": {"type": "DT_INT32"}}}, {"name": "while/while/TensorArrayWrite/TensorArrayWriteV3/Enter_1", "op": "Enter", "input": ["while/while/TensorArrayWrite/TensorArrayWriteV3/Enter"], "attr": {"T": {"type": "DT_RESOURCE"}, "is_constant": {"b": true}, "parallel_iterations": {"i": "10"}, "frame_name": {"s": "d2hpbGUvd2hpbGUvd2hpbGVfY29udGV4dA=="}}}, {"name": "while/Merge_2", "op": "Merge", "input": ["while/Enter_2", "while/NextIteration_2"], "attr": {"T": {"type": "DT_FLOAT"}, "N": {"i": "2"}}}, {"name": "while_1/strided_slice/Enter", "op": "Enter", "input": ["Cast_7"], "attr": {"T": {"type": "DT_INT32"}, "is_constant": {"b": true}, "parallel_iterations": {"i": "10"}, "frame_name": {"s": "d2hpbGVfMS93aGlsZV9jb250ZXh0"}}}, {"name": "SSD/CLASSES/batch_normalization/cond/Const", "op": "Const", "input": ["^SSD/CLASSES/batch_normalization/cond/switch_t"], "attr": {"value": {"tensor": {"dtype": "DT_FLOAT", "tensorShape": {"dim": [{}]}}}, "dtype": {"type": "DT_FLOAT"}}}, {"name": "SSD/cond/Const", "op": "Const", "input": ["^SSD/CLASSES/batch_normalization/cond/switch_t"], "attr": {"value": {"tensor": {"dtype": "DT_INT32", "tensorShape": {"dim": [{"size": "4"}]}}}, "dtype": {"type": "DT_INT32"}}}, {"name": "SSD/cond/Pad/paddings", "op": "Const", "input": ["^SSD/CLASSES/batch_normalization/cond/switch_t"], "attr": {"value": {"tensor": {"dtype": "DT_INT32", "tensorShape": {"dim": [{"size": "4"}, {"size": "2"}]}}}, "dtype": {"type": "DT_INT32"}}}, {"name": "SSD/cond/Bernoulli/sample/concat/axis", "op": "Const", "input": ["^SSD/CLASSES/batch_normalization/cond/switch_t"], "attr": {"value": {"tensor": {"dtype": "DT_INT32", "tensorShape": {}}}, "dtype": {"type": "DT_INT32"}}}, {"name": "SSD/cond/strided_slice_2/stack_2", "op": "Const", "input": ["^SSD/CLASSES/batch_normalization/cond/switch_t"], "attr": {"value": {"tensor": {"dtype": "DT_INT32", "tensorShape": {"dim": [{"size": "1"}]}}}, "dtype": {"type": "DT_INT32"}}}, {"name": "SSD/cond/Bernoulli/sample/Const", "op": "Const", "input": ["^SSD/CLASSES/batch_normalization/cond/switch_t"], "attr": {"value": {"tensor": {"dtype": "DT_INT32", "tensorShape": {"dim": [{"size": "1"}]}}}, "dtype": {"type": "DT_INT32"}}}, {"name": "SSD/cond/sub_2/y", "op": "Const", "input": ["^SSD/CLASSES/batch_normalization/cond/switch_t"], "attr": {"value": {"tensor": {"dtype": "DT_FLOAT", "tensorShape": {}}}, "dtype": {"type": "DT_FLOAT"}}}, {"name": "SSD/cond/strided_slice_2/stack", "op": "Const", "input": ["^SSD/CLASSES/batch_normalization/cond/switch_t"], "attr": {"value": {"tensor": {"dtype": "DT_INT32", "tensorShape": {"dim": [{"size": "1"}]}}}, "dtype": {"type": "DT_INT32"}}}, {"name": "SSD/cond/strided_slice_1/stack", "op": "Const", "input": ["^SSD/CLASSES/batch_normalization/cond/switch_t"], "attr": {"value": {"tensor": {"dtype": "DT_INT32", "tensorShape": {"dim": [{"size": "1"}]}}}, "dtype": {"type": "DT_INT32"}}}, {"name": "SSD/cond/stack/0", "op": "Const", "input": ["^SSD/CLASSES/batch_normalization/cond/switch_t"], "attr": {"value": {"tensor": {"dtype": "DT_FLOAT", "tensorShape": {}}}, "dtype": {"type": "DT_FLOAT"}}}, {"name": "SSD/cond/mul", "op": "Const", "input": ["^SSD/CLASSES/batch_normalization/cond/switch_t"], "attr": {"value": {"tensor": {"dtype": "DT_FLOAT", "tensorShape": {}}}, "dtype": {"type": "DT_FLOAT"}}}, {"name": "SSD/cond/Bernoulli/batch_shape_tensor/batch_shape", "op": "Const", "input": ["^SSD/CLASSES/batch_normalization/cond/switch_t"], "attr": {"value": {"tensor": {"dtype": "DT_INT32", "tensorShape": {"dim": [{}]}}}, "dtype": {"type": "DT_INT32"}}}, {"name": "SSD/cond/strided_slice_2/stack_1", "op": "Const", "input": ["^SSD/CLASSES/batch_normalization/cond/switch_t"], "attr": {"value": {"tensor": {"dtype": "DT_INT32", "tensorShape": {"dim": [{"size": "1"}]}}}, "dtype": {"type": "DT_INT32"}}}, {"name": "SSD/cond/sub_4/x", "op": "Const", "input": ["^SSD/CLASSES/batch_normalization/cond/switch_t"], "attr": {"value": {"tensor": {"dtype": "DT_INT32", "tensorShape": {}}}, "dtype": {"type": "DT_INT32"}}}, {"name": "ENTRANCE/Conv2D_1", "op": "Conv2D", "input": ["ENTRANCE/depthwise", "ENTRANCE/W1"], "attr": {"dilations": {"list": {"i": ["1", "1", "1", "1"]}}, "T": {"type": "DT_FLOAT"}, "strides": {"list": {"i": ["1", "1", "1", "1"]}}, "data_format": {"s": "TkhXQw=="}, "explicit_paddings": {"list": {}}, "use_cudnn_on_gpu": {"b": true}, "padding": {"s": "VkFMSUQ="}}}, {"name": "strided_slice_9", "op": "StridedSlice", "input": ["Cast", "strided_slice_9/stack", "strided_slice_11/stack_2", "strided_slice_11/stack_2"], "attr": {"T": {"type": "DT_FLOAT"}, "Index": {"type": "DT_INT32"}, "shrink_axis_mask": {"i": "1"}, "begin_mask": {"i": "0"}, "ellipsis_mask": {"i": "0"}, "new_axis_mask": {"i": "0"}, "end_mask": {"i": "0"}}}, {"name": "strided_slice_13", "op": "StridedSlice", "input": ["Cast", "strided_slice_11/stack_2", "strided_slice_11/stack", "strided_slice_11/stack_2"], "attr": {"T": {"type": "DT_FLOAT"}, "Index": {"type": "DT_INT32"}, "shrink_axis_mask": {"i": "1"}, "begin_mask": {"i": "0"}, "ellipsis_mask": {"i": "0"}, "new_axis_mask": {"i": "0"}, "end_mask": {"i": "0"}}}, {"name": "ENTRANCE/Relu_1", "op": "Relu", "input": ["ENTRANCE/Conv2D_1"], "attr": {"T": {"type": "DT_FLOAT"}}}, {"name": "ENTRANCE/batch_normalization/cond/FusedBatchNorm_1/Switch", "op": "Switch", "input": ["ENTRANCE/Relu_1", "training"], "attr": {"T": {"type": "DT_FLOAT"}}}, {"name": "ENTRANCE/batch_normalization/cond/FusedBatchNorm", "op": "FusedBatchNorm", "input": ["ENTRANCE/batch_normalization/cond/FusedBatchNorm_1/Switch:1", "ENTRANCE/batch_normalization/cond/FusedBatchNorm_1/Switch_1:1", "ENTRANCE/batch_normalization/cond/FusedBatchNorm_1/Switch_2:1", "SSD/CLASSES/batch_normalization/cond/Const", "SSD/CLASSES/batch_normalization/cond/Const"], "attr": {"epsilon": {"f": 0.0010000000474974513}, "T": {"type": "DT_FLOAT"}, "data_format": {"s": "TkhXQw=="}, "is_training": {"b": true}}}, {"name": "ENTRANCE/batch_normalization/cond/FusedBatchNorm_1", "op": "FusedBatchNorm", "input": ["ENTRANCE/batch_normalization/cond/FusedBatchNorm_1/Switch", "ENTRANCE/batch_normalization/cond/FusedBatchNorm_1/Switch_1", "ENTRANCE/batch_normalization/cond/FusedBatchNorm_1/Switch_2", "ENTRANCE/batch_normalization/cond/FusedBatchNorm_1/Switch_3", "ENTRANCE/batch_normalization/cond/FusedBatchNorm_1/Switch_4"], "attr": {"epsilon": {"f": 0.0010000000474974513}, "T": {"type": "DT_FLOAT"}, "data_format": {"s": "TkhXQw=="}, "is_training": {"b": false}}}, {"name": "ENTRANCE/batch_normalization/cond/Merge", "op": "Merge", "input": ["ENTRANCE/batch_normalization/cond/FusedBatchNorm_1", "ENTRANCE/batch_normalization/cond/FusedBatchNorm"], "attr": {"T": {"type": "DT_FLOAT"}, "N": {"i": "2"}}}, {"name": "ENTRANCE/depthwise_1", "op": "DepthwiseConv2dNative", "input": ["ENTRANCE/batch_normalization/cond/Merge", "ENTRANCE/W2"], "attr": {"dilations": {"list": {"i": ["1", "1", "1", "1"]}}, "padding": {"s": "U0FNRQ=="}, "T": {"type": "DT_FLOAT"}, "data_format": {"s": "TkhXQw=="}, "strides": {"list": {"i": ["1", "1", "1", "1"]}}}}, {"name": "ENTRANCE/Conv2D_2", "op": "Conv2D", "input": ["ENTRANCE/depthwise_1", "ENTRANCE/W_PW"], "attr": {"dilations": {"list": {"i": ["1", "1", "1", "1"]}}, "T": {"type": "DT_FLOAT"}, "strides": {"list": {"i": ["1", "1", "1", "1"]}}, "data_format": {"s": "TkhXQw=="}, "explicit_paddings": {"list": {}}, "use_cudnn_on_gpu": {"b": true}, "padding": {"s": "VkFMSUQ="}}}, {"name": "CNN/S2/BB0/MaxPool", "op": "MaxPool", "input": ["ENTRANCE/Conv2D_2"], "attr": {"ksize": {"list": {"i": ["1", "2", "2", "1"]}}, "padding": {"s": "U0FNRQ=="}, "T": {"type": "DT_FLOAT"}, "data_format": {"s": "TkhXQw=="}, "strides": {"list": {"i": ["1", "2", "2", "1"]}}}}, {"name": "CNN/S2/Relu", "op": "Relu", "input": ["ENTRANCE/Conv2D_2"], "attr": {"T": {"type": "DT_FLOAT"}}}, {"name": "CNN/S2/batch_normalization/cond/FusedBatchNorm_1/Switch", "op": "Switch", "input": ["CNN/S2/Relu", "training"], "attr": {"T": {"type": "DT_FLOAT"}}}, {"name": "CNN/S2/batch_normalization/cond/FusedBatchNorm", "op": "FusedBatchNorm", "input": ["CNN/S2/batch_normalization/cond/FusedBatchNorm_1/Switch:1", "CNN/S2/batch_normalization/cond/FusedBatchNorm_1/Switch_1:1", "CNN/S2/batch_normalization/cond/FusedBatchNorm_1/Switch_2:1", "SSD/CLASSES/batch_normalization/cond/Const", "SSD/CLASSES/batch_normalization/cond/Const"], "attr": {"epsilon": {"f": 0.0010000000474974513}, "T": {"type": "DT_FLOAT"}, "data_format": {"s": "TkhXQw=="}, "is_training": {"b": true}}}, {"name": "CNN/S2/batch_normalization/cond/FusedBatchNorm_1", "op": "FusedBatchNorm", "input": ["CNN/S2/batch_normalization/cond/FusedBatchNorm_1/Switch", "CNN/S2/batch_normalization/cond/FusedBatchNorm_1/Switch_1", "CNN/S2/batch_normalization/cond/FusedBatchNorm_1/Switch_2", "CNN/S2/batch_normalization/cond/FusedBatchNorm_1/Switch_3", "CNN/S2/batch_normalization/cond/FusedBatchNorm_1/Switch_4"], "attr": {"epsilon": {"f": 0.0010000000474974513}, "T": {"type": "DT_FLOAT"}, "data_format": {"s": "TkhXQw=="}, "is_training": {"b": false}}}, {"name": "CNN/S2/batch_normalization/cond/Merge", "op": "Merge", "input": ["CNN/S2/batch_normalization/cond/FusedBatchNorm_1", "CNN/S2/batch_normalization/cond/FusedBatchNorm"], "attr": {"T": {"type": "DT_FLOAT"}, "N": {"i": "2"}}}, {"name": "CNN/S2/BB0/Conv2D", "op": "Conv2D", "input": ["CNN/S2/batch_normalization/cond/Merge", "CNN/S2/BB0/W_PW_in"], "attr": {"dilations": {"list": {"i": ["1", "1", "1", "1"]}}, "T": {"type": "DT_FLOAT"}, "strides": {"list": {"i": ["1", "1", "1", "1"]}}, "data_format": {"s": "TkhXQw=="}, "explicit_paddings": {"list": {}}, "use_cudnn_on_gpu": {"b": true}, "padding": {"s": "VkFMSUQ="}}}, {"name": "CNN/S2/BB0/Relu", "op": "Relu", "input": ["CNN/S2/BB0/Conv2D"], "attr": {"T": {"type": "DT_FLOAT"}}}, {"name": "CNN/S2/BB0/batch_normalization/cond/FusedBatchNorm_1/Switch", "op": "Switch", "input": ["CNN/S2/BB0/Relu", "training"], "attr": {"T": {"type": "DT_FLOAT"}}}, {"name": "CNN/S2/BB0/batch_normalization/cond/FusedBatchNorm", "op": "FusedBatchNorm", "input": ["CNN/S2/BB0/batch_normalization/cond/FusedBatchNorm_1/Switch:1", "CNN/S2/BB0/batch_normalization/cond/FusedBatchNorm_1/Switch_1:1", "CNN/S2/BB0/batch_normalization/cond/FusedBatchNorm_1/Switch_2:1", "SSD/CLASSES/batch_normalization/cond/Const", "SSD/CLASSES/batch_normalization/cond/Const"], "attr": {"epsilon": {"f": 0.0010000000474974513}, "T": {"type": "DT_FLOAT"}, "data_format": {"s": "TkhXQw=="}, "is_training": {"b": true}}}, {"name": "CNN/S2/BB0/batch_normalization/cond/FusedBatchNorm_1", "op": "FusedBatchNorm", "input": ["CNN/S2/BB0/batch_normalization/cond/FusedBatchNorm_1/Switch", "CNN/S2/BB0/batch_normalization/cond/FusedBatchNorm_1/Switch_1", "CNN/S2/BB0/batch_normalization/cond/FusedBatchNorm_1/Switch_2", "CNN/S2/BB0/batch_normalization/cond/FusedBatchNorm_1/Switch_3", "CNN/S2/BB0/batch_normalization/cond/FusedBatchNorm_1/Switch_4"], "attr": {"epsilon": {"f": 0.0010000000474974513}, "T": {"type": "DT_FLOAT"}, "data_format": {"s": "TkhXQw=="}, "is_training": {"b": false}}}, {"name": "CNN/S2/BB0/batch_normalization/cond/Merge", "op": "Merge", "input": ["CNN/S2/BB0/batch_normalization/cond/FusedBatchNorm_1", "CNN/S2/BB0/batch_normalization/cond/FusedBatchNorm"], "attr": {"T": {"type": "DT_FLOAT"}, "N": {"i": "2"}}}, {"name": "CNN/S2/BB0/depthwise", "op": "DepthwiseConv2dNative", "input": ["CNN/S2/BB0/batch_normalization/cond/Merge", "CNN/S2/BB0/W0"], "attr": {"dilations": {"list": {"i": ["1", "1", "1", "1"]}}, "padding": {"s": "U0FNRQ=="}, "T": {"type": "DT_FLOAT"}, "data_format": {"s": "TkhXQw=="}, "strides": {"list": {"i": ["1", "2", "2", "1"]}}}}, {"name": "CNN/S2/BB0/Conv2D_1", "op": "Conv2D", "input": ["CNN/S2/BB0/depthwise", "CNN/S2/BB0/W_PW"], "attr": {"dilations": {"list": {"i": ["1", "1", "1", "1"]}}, "T": {"type": "DT_FLOAT"}, "strides": {"list": {"i": ["1", "1", "1", "1"]}}, "data_format": {"s": "TkhXQw=="}, "explicit_paddings": {"list": {}}, "use_cudnn_on_gpu": {"b": true}, "padding": {"s": "VkFMSUQ="}}}, {"name": "CNN/S2/BB0/Add", "op": "Add", "input": ["CNN/S2/BB0/Conv2D_1", "CNN/S2/BB0/MaxPool"], "attr": {"T": {"type": "DT_FLOAT"}}}, {"name": "CNN/S2/Relu_1", "op": "Relu", "input": ["CNN/S2/BB0/Add"], "attr": {"T": {"type": "DT_FLOAT"}}}, {"name": "CNN/S2/batch_normalization_1/cond/FusedBatchNorm_1/Switch", "op": "Switch", "input": ["CNN/S2/Relu_1", "training"], "attr": {"T": {"type": "DT_FLOAT"}}}, {"name": "CNN/S2/batch_normalization_1/cond/FusedBatchNorm", "op": "FusedBatchNorm", "input": ["CNN/S2/batch_normalization_1/cond/FusedBatchNorm_1/Switch:1", "CNN/S2/batch_normalization_1/cond/FusedBatchNorm_1/Switch_1:1", "CNN/S2/batch_normalization_1/cond/FusedBatchNorm_1/Switch_2:1", "SSD/CLASSES/batch_normalization/cond/Const", "SSD/CLASSES/batch_normalization/cond/Const"], "attr": {"epsilon": {"f": 0.0010000000474974513}, "T": {"type": "DT_FLOAT"}, "data_format": {"s": "TkhXQw=="}, "is_training": {"b": true}}}, {"name": "CNN/S2/batch_normalization_1/cond/FusedBatchNorm_1", "op": "FusedBatchNorm", "input": ["CNN/S2/batch_normalization_1/cond/FusedBatchNorm_1/Switch", "CNN/S2/batch_normalization_1/cond/FusedBatchNorm_1/Switch_1", "CNN/S2/batch_normalization_1/cond/FusedBatchNorm_1/Switch_2", "CNN/S2/batch_normalization_1/cond/FusedBatchNorm_1/Switch_3", "CNN/S2/batch_normalization_1/cond/FusedBatchNorm_1/Switch_4"], "attr": {"epsilon": {"f": 0.0010000000474974513}, "T": {"type": "DT_FLOAT"}, "data_format": {"s": "TkhXQw=="}, "is_training": {"b": false}}}, {"name": "CNN/S2/batch_normalization_1/cond/Merge", "op": "Merge", "input": ["CNN/S2/batch_normalization_1/cond/FusedBatchNorm_1", "CNN/S2/batch_normalization_1/cond/FusedBatchNorm"], "attr": {"T": {"type": "DT_FLOAT"}, "N": {"i": "2"}}}, {"name": "CNN/S2/BB1/Conv2D", "op": "Conv2D", "input": ["CNN/S2/batch_normalization_1/cond/Merge", "CNN/S2/BB1/W_PW_in"], "attr": {"dilations": {"list": {"i": ["1", "1", "1", "1"]}}, "T": {"type": "DT_FLOAT"}, "strides": {"list": {"i": ["1", "1", "1", "1"]}}, "data_format": {"s": "TkhXQw=="}, "explicit_paddings": {"list": {}}, "use_cudnn_on_gpu": {"b": true}, "padding": {"s": "VkFMSUQ="}}}, {"name": "CNN/S2/BB1/MaxOut/Shape", "op": "Shape", "input": ["CNN/S2/BB1/Conv2D"], "attr": {"T": {"type": "DT_FLOAT"}, "out_type": {"type": "DT_INT32"}}}, {"name": "CNN/S2/BB1/MaxOut/strided_slice_2", "op": "StridedSlice", "input": ["CNN/S2/BB1/MaxOut/Shape", "strided_slice_11/stack", "strided_slice_11/stack_1", "strided_slice_11/stack_2"], "attr": {"T": {"type": "DT_INT32"}, "Index": {"type": "DT_INT32"}, "shrink_axis_mask": {"i": "1"}, "ellipsis_mask": {"i": "0"}, "begin_mask": {"i": "0"}, "new_axis_mask": {"i": "0"}, "end_mask": {"i": "0"}}}, {"name": "CNN/S2/BB1/MaxOut/strided_slice_1", "op": "StridedSlice", "input": ["CNN/S2/BB1/MaxOut/Shape", "strided_slice_11/stack_2", "strided_slice_11/stack", "strided_slice_11/stack_2"], "attr": {"T": {"type": "DT_INT32"}, "Index": {"type": "DT_INT32"}, "shrink_axis_mask": {"i": "1"}, "ellipsis_mask": {"i": "0"}, "begin_mask": {"i": "0"}, "new_axis_mask": {"i": "0"}, "end_mask": {"i": "0"}}}, {"name": "CNN/S2/BB1/MaxOut/strided_slice", "op": "StridedSlice", "input": ["CNN/S2/BB1/MaxOut/Shape", "strided_slice_9/stack", "strided_slice_11/stack_2", "strided_slice_11/stack_2"], "attr": {"T": {"type": "DT_INT32"}, "Index": {"type": "DT_INT32"}, "shrink_axis_mask": {"i": "1"}, "ellipsis_mask": {"i": "0"}, "begin_mask": {"i": "0"}, "new_axis_mask": {"i": "0"}, "end_mask": {"i": "0"}}}, {"name": "CNN/S2/BB1/MaxOut/Reshape/shape", "op": "Pack", "input": ["CNN/S2/BB1/MaxOut/strided_slice", "CNN/S2/BB1/MaxOut/strided_slice_1", "CNN/S2/BB1/MaxOut/strided_slice_2", "CNN/S2/BB1/MaxOut/Reshape/shape/3", "SSD/MASK/mul/y"], "attr": {"T": {"type": "DT_INT32"}, "axis": {"i": "0"}, "N": {"i": "5"}}}, {"name": "CNN/S2/BB1/MaxOut/Reshape", "op": "Reshape", "input": ["CNN/S2/BB1/Conv2D", "CNN/S2/BB1/MaxOut/Reshape/shape"], "attr": {"T": {"type": "DT_FLOAT"}, "Tshape": {"type": "DT_INT32"}}}, {"name": "CNN/S2/BB1/MaxOut/Max", "op": "Max", "input": ["CNN/S2/BB1/MaxOut/Reshape", "concat/axis"], "attr": {"keep_dims": {"b": false}, "Tidx": {"type": "DT_INT32"}, "T": {"type": "DT_FLOAT"}}}, {"name": "CNN/S2/BB1/batch_normalization/cond/FusedBatchNorm_1/Switch", "op": "Switch", "input": ["CNN/S2/BB1/MaxOut/Max", "training"], "attr": {"T": {"type": "DT_FLOAT"}}}, {"name": "CNN/S2/BB1/batch_normalization/cond/FusedBatchNorm", "op": "FusedBatchNorm", "input": ["CNN/S2/BB1/batch_normalization/cond/FusedBatchNorm_1/Switch:1", "CNN/S2/BB1/batch_normalization/cond/FusedBatchNorm_1/Switch_1:1", "CNN/S2/BB1/batch_normalization/cond/FusedBatchNorm_1/Switch_2:1", "SSD/CLASSES/batch_normalization/cond/Const", "SSD/CLASSES/batch_normalization/cond/Const"], "attr": {"epsilon": {"f": 0.0010000000474974513}, "T": {"type": "DT_FLOAT"}, "data_format": {"s": "TkhXQw=="}, "is_training": {"b": true}}}, {"name": "CNN/S2/BB1/batch_normalization/cond/FusedBatchNorm_1", "op": "FusedBatchNorm", "input": ["CNN/S2/BB1/batch_normalization/cond/FusedBatchNorm_1/Switch", "CNN/S2/BB1/batch_normalization/cond/FusedBatchNorm_1/Switch_1", "CNN/S2/BB1/batch_normalization/cond/FusedBatchNorm_1/Switch_2", "CNN/S2/BB1/batch_normalization/cond/FusedBatchNorm_1/Switch_3", "CNN/S2/BB1/batch_normalization/cond/FusedBatchNorm_1/Switch_4"], "attr": {"epsilon": {"f": 0.0010000000474974513}, "T": {"type": "DT_FLOAT"}, "data_format": {"s": "TkhXQw=="}, "is_training": {"b": false}}}, {"name": "CNN/S2/BB1/batch_normalization/cond/Merge", "op": "Merge", "input": ["CNN/S2/BB1/batch_normalization/cond/FusedBatchNorm_1", "CNN/S2/BB1/batch_normalization/cond/FusedBatchNorm"], "attr": {"T": {"type": "DT_FLOAT"}, "N": {"i": "2"}}}, {"name": "CNN/S2/BB1/depthwise", "op": "DepthwiseConv2dNative", "input": ["CNN/S2/BB1/batch_normalization/cond/Merge", "CNN/S2/BB1/W0"], "attr": {"dilations": {"list": {"i": ["1", "1", "1", "1"]}}, "padding": {"s": "U0FNRQ=="}, "T": {"type": "DT_FLOAT"}, "data_format": {"s": "TkhXQw=="}, "strides": {"list": {"i": ["1", "1", "1", "1"]}}}}, {"name": "CNN/S2/BB1/Conv2D_1", "op": "Conv2D", "input": ["CNN/S2/BB1/depthwise", "CNN/S2/BB1/W_PW"], "attr": {"dilations": {"list": {"i": ["1", "1", "1", "1"]}}, "T": {"type": "DT_FLOAT"}, "strides": {"list": {"i": ["1", "1", "1", "1"]}}, "data_format": {"s": "TkhXQw=="}, "explicit_paddings": {"list": {}}, "use_cudnn_on_gpu": {"b": true}, "padding": {"s": "VkFMSUQ="}}}, {"name": "CNN/S2/BB1/Add", "op": "Add", "input": ["CNN/S2/BB0/Add", "CNN/S2/BB1/Conv2D_1"], "attr": {"T": {"type": "DT_FLOAT"}}}, {"name": "CNN/S2/Relu_2", "op": "Relu", "input": ["CNN/S2/BB1/Add"], "attr": {"T": {"type": "DT_FLOAT"}}}, {"name": "CNN/S2/batch_normalization_2/cond/FusedBatchNorm_1/Switch", "op": "Switch", "input": ["CNN/S2/Relu_2", "training"], "attr": {"T": {"type": "DT_FLOAT"}}}, {"name": "CNN/S2/batch_normalization_2/cond/FusedBatchNorm", "op": "FusedBatchNorm", "input": ["CNN/S2/batch_normalization_2/cond/FusedBatchNorm_1/Switch:1", "CNN/S2/batch_normalization_2/cond/FusedBatchNorm_1/Switch_1:1", "CNN/S2/batch_normalization_2/cond/FusedBatchNorm_1/Switch_2:1", "SSD/CLASSES/batch_normalization/cond/Const", "SSD/CLASSES/batch_normalization/cond/Const"], "attr": {"epsilon": {"f": 0.0010000000474974513}, "T": {"type": "DT_FLOAT"}, "data_format": {"s": "TkhXQw=="}, "is_training": {"b": true}}}, {"name": "CNN/S2/batch_normalization_2/cond/FusedBatchNorm_1", "op": "FusedBatchNorm", "input": ["CNN/S2/batch_normalization_2/cond/FusedBatchNorm_1/Switch", "CNN/S2/batch_normalization_2/cond/FusedBatchNorm_1/Switch_1", "CNN/S2/batch_normalization_2/cond/FusedBatchNorm_1/Switch_2", "CNN/S2/batch_normalization_2/cond/FusedBatchNorm_1/Switch_3", "CNN/S2/batch_normalization_2/cond/FusedBatchNorm_1/Switch_4"], "attr": {"epsilon": {"f": 0.0010000000474974513}, "T": {"type": "DT_FLOAT"}, "data_format": {"s": "TkhXQw=="}, "is_training": {"b": false}}}, {"name": "CNN/S2/batch_normalization_2/cond/Merge", "op": "Merge", "input": ["CNN/S2/batch_normalization_2/cond/FusedBatchNorm_1", "CNN/S2/batch_normalization_2/cond/FusedBatchNorm"], "attr": {"T": {"type": "DT_FLOAT"}, "N": {"i": "2"}}}, {"name": "CNN/S2/BB2/Conv2D", "op": "Conv2D", "input": ["CNN/S2/batch_normalization_2/cond/Merge", "CNN/S2/BB2/W_PW_in"], "attr": {"dilations": {"list": {"i": ["1", "1", "1", "1"]}}, "T": {"type": "DT_FLOAT"}, "strides": {"list": {"i": ["1", "1", "1", "1"]}}, "data_format": {"s": "TkhXQw=="}, "explicit_paddings": {"list": {}}, "use_cudnn_on_gpu": {"b": true}, "padding": {"s": "VkFMSUQ="}}}, {"name": "CNN/S2/BB2/MaxOut/Shape", "op": "Shape", "input": ["CNN/S2/BB2/Conv2D"], "attr": {"T": {"type": "DT_FLOAT"}, "out_type": {"type": "DT_INT32"}}}, {"name": "CNN/S2/BB2/MaxOut/strided_slice_2", "op": "StridedSlice", "input": ["CNN/S2/BB2/MaxOut/Shape", "strided_slice_11/stack", "strided_slice_11/stack_1", "strided_slice_11/stack_2"], "attr": {"T": {"type": "DT_INT32"}, "Index": {"type": "DT_INT32"}, "shrink_axis_mask": {"i": "1"}, "ellipsis_mask": {"i": "0"}, "begin_mask": {"i": "0"}, "new_axis_mask": {"i": "0"}, "end_mask": {"i": "0"}}}, {"name": "CNN/S2/BB2/MaxOut/strided_slice_1", "op": "StridedSlice", "input": ["CNN/S2/BB2/MaxOut/Shape", "strided_slice_11/stack_2", "strided_slice_11/stack", "strided_slice_11/stack_2"], "attr": {"T": {"type": "DT_INT32"}, "Index": {"type": "DT_INT32"}, "shrink_axis_mask": {"i": "1"}, "ellipsis_mask": {"i": "0"}, "begin_mask": {"i": "0"}, "new_axis_mask": {"i": "0"}, "end_mask": {"i": "0"}}}, {"name": "CNN/S2/BB2/MaxOut/strided_slice", "op": "StridedSlice", "input": ["CNN/S2/BB2/MaxOut/Shape", "strided_slice_9/stack", "strided_slice_11/stack_2", "strided_slice_11/stack_2"], "attr": {"T": {"type": "DT_INT32"}, "Index": {"type": "DT_INT32"}, "shrink_axis_mask": {"i": "1"}, "ellipsis_mask": {"i": "0"}, "begin_mask": {"i": "0"}, "new_axis_mask": {"i": "0"}, "end_mask": {"i": "0"}}}, {"name": "CNN/S2/BB2/MaxOut/Reshape/shape", "op": "Pack", "input": ["CNN/S2/BB2/MaxOut/strided_slice", "CNN/S2/BB2/MaxOut/strided_slice_1", "CNN/S2/BB2/MaxOut/strided_slice_2", "CNN/S2/BB1/MaxOut/Reshape/shape/3", "SSD/MASK/mul/y"], "attr": {"T": {"type": "DT_INT32"}, "axis": {"i": "0"}, "N": {"i": "5"}}}, {"name": "CNN/S2/BB2/MaxOut/Reshape", "op": "Reshape", "input": ["CNN/S2/BB2/Conv2D", "CNN/S2/BB2/MaxOut/Reshape/shape"], "attr": {"T": {"type": "DT_FLOAT"}, "Tshape": {"type": "DT_INT32"}}}, {"name": "CNN/S2/BB2/MaxOut/Max", "op": "Max", "input": ["CNN/S2/BB2/MaxOut/Reshape", "concat/axis"], "attr": {"keep_dims": {"b": false}, "Tidx": {"type": "DT_INT32"}, "T": {"type": "DT_FLOAT"}}}, {"name": "CNN/S2/BB2/batch_normalization/cond/FusedBatchNorm_1/Switch", "op": "Switch", "input": ["CNN/S2/BB2/MaxOut/Max", "training"], "attr": {"T": {"type": "DT_FLOAT"}}}, {"name": "CNN/S2/BB2/batch_normalization/cond/FusedBatchNorm", "op": "FusedBatchNorm", "input": ["CNN/S2/BB2/batch_normalization/cond/FusedBatchNorm_1/Switch:1", "CNN/S2/BB2/batch_normalization/cond/FusedBatchNorm_1/Switch_1:1", "CNN/S2/BB2/batch_normalization/cond/FusedBatchNorm_1/Switch_2:1", "SSD/CLASSES/batch_normalization/cond/Const", "SSD/CLASSES/batch_normalization/cond/Const"], "attr": {"epsilon": {"f": 0.0010000000474974513}, "T": {"type": "DT_FLOAT"}, "data_format": {"s": "TkhXQw=="}, "is_training": {"b": true}}}, {"name": "CNN/S2/BB2/batch_normalization/cond/FusedBatchNorm_1", "op": "FusedBatchNorm", "input": ["CNN/S2/BB2/batch_normalization/cond/FusedBatchNorm_1/Switch", "CNN/S2/BB2/batch_normalization/cond/FusedBatchNorm_1/Switch_1", "CNN/S2/BB2/batch_normalization/cond/FusedBatchNorm_1/Switch_2", "CNN/S2/BB2/batch_normalization/cond/FusedBatchNorm_1/Switch_3", "CNN/S2/BB2/batch_normalization/cond/FusedBatchNorm_1/Switch_4"], "attr": {"epsilon": {"f": 0.0010000000474974513}, "T": {"type": "DT_FLOAT"}, "data_format": {"s": "TkhXQw=="}, "is_training": {"b": false}}}, {"name": "CNN/S2/BB2/batch_normalization/cond/Merge", "op": "Merge", "input": ["CNN/S2/BB2/batch_normalization/cond/FusedBatchNorm_1", "CNN/S2/BB2/batch_normalization/cond/FusedBatchNorm"], "attr": {"T": {"type": "DT_FLOAT"}, "N": {"i": "2"}}}, {"name": "CNN/S2/BB2/depthwise", "op": "DepthwiseConv2dNative", "input": ["CNN/S2/BB2/batch_normalization/cond/Merge", "CNN/S2/BB2/W0"], "attr": {"dilations": {"list": {"i": ["1", "1", "1", "1"]}}, "padding": {"s": "U0FNRQ=="}, "T": {"type": "DT_FLOAT"}, "data_format": {"s": "TkhXQw=="}, "strides": {"list": {"i": ["1", "1", "1", "1"]}}}}, {"name": "CNN/S2/BB2/Conv2D_1", "op": "Conv2D", "input": ["CNN/S2/BB2/depthwise", "CNN/S2/BB2/W_PW"], "attr": {"dilations": {"list": {"i": ["1", "1", "1", "1"]}}, "T": {"type": "DT_FLOAT"}, "strides": {"list": {"i": ["1", "1", "1", "1"]}}, "data_format": {"s": "TkhXQw=="}, "explicit_paddings": {"list": {}}, "use_cudnn_on_gpu": {"b": true}, "padding": {"s": "VkFMSUQ="}}}, {"name": "CNN/S2/BB2/Add", "op": "Add", "input": ["CNN/S2/BB1/Add", "CNN/S2/BB2/Conv2D_1"], "attr": {"T": {"type": "DT_FLOAT"}}}, {"name": "CNN/S2/Relu_3", "op": "Relu", "input": ["CNN/S2/BB2/Add"], "attr": {"T": {"type": "DT_FLOAT"}}}, {"name": "CNN/S2/batch_normalization_3/cond/FusedBatchNorm_1/Switch", "op": "Switch", "input": ["CNN/S2/Relu_3", "training"], "attr": {"T": {"type": "DT_FLOAT"}}}, {"name": "CNN/S2/batch_normalization_3/cond/FusedBatchNorm", "op": "FusedBatchNorm", "input": ["CNN/S2/batch_normalization_3/cond/FusedBatchNorm_1/Switch:1", "CNN/S2/batch_normalization_3/cond/FusedBatchNorm_1/Switch_1:1", "CNN/S2/batch_normalization_3/cond/FusedBatchNorm_1/Switch_2:1", "SSD/CLASSES/batch_normalization/cond/Const", "SSD/CLASSES/batch_normalization/cond/Const"], "attr": {"epsilon": {"f": 0.0010000000474974513}, "T": {"type": "DT_FLOAT"}, "data_format": {"s": "TkhXQw=="}, "is_training": {"b": true}}}, {"name": "CNN/S2/batch_normalization_3/cond/FusedBatchNorm_1", "op": "FusedBatchNorm", "input": ["CNN/S2/batch_normalization_3/cond/FusedBatchNorm_1/Switch", "CNN/S2/batch_normalization_3/cond/FusedBatchNorm_1/Switch_1", "CNN/S2/batch_normalization_3/cond/FusedBatchNorm_1/Switch_2", "CNN/S2/batch_normalization_3/cond/FusedBatchNorm_1/Switch_3", "CNN/S2/batch_normalization_3/cond/FusedBatchNorm_1/Switch_4"], "attr": {"epsilon": {"f": 0.0010000000474974513}, "T": {"type": "DT_FLOAT"}, "data_format": {"s": "TkhXQw=="}, "is_training": {"b": false}}}, {"name": "CNN/S2/batch_normalization_3/cond/Merge", "op": "Merge", "input": ["CNN/S2/batch_normalization_3/cond/FusedBatchNorm_1", "CNN/S2/batch_normalization_3/cond/FusedBatchNorm"], "attr": {"T": {"type": "DT_FLOAT"}, "N": {"i": "2"}}}, {"name": "CNN/S2/BB3/Conv2D", "op": "Conv2D", "input": ["CNN/S2/batch_normalization_3/cond/Merge", "CNN/S2/BB3/W_PW_in"], "attr": {"dilations": {"list": {"i": ["1", "1", "1", "1"]}}, "T": {"type": "DT_FLOAT"}, "strides": {"list": {"i": ["1", "1", "1", "1"]}}, "data_format": {"s": "TkhXQw=="}, "explicit_paddings": {"list": {}}, "use_cudnn_on_gpu": {"b": true}, "padding": {"s": "VkFMSUQ="}}}, {"name": "CNN/S2/BB3/MaxOut/Shape", "op": "Shape", "input": ["CNN/S2/BB3/Conv2D"], "attr": {"T": {"type": "DT_FLOAT"}, "out_type": {"type": "DT_INT32"}}}, {"name": "CNN/S2/BB3/MaxOut/strided_slice_2", "op": "StridedSlice", "input": ["CNN/S2/BB3/MaxOut/Shape", "strided_slice_11/stack", "strided_slice_11/stack_1", "strided_slice_11/stack_2"], "attr": {"T": {"type": "DT_INT32"}, "Index": {"type": "DT_INT32"}, "shrink_axis_mask": {"i": "1"}, "ellipsis_mask": {"i": "0"}, "begin_mask": {"i": "0"}, "new_axis_mask": {"i": "0"}, "end_mask": {"i": "0"}}}, {"name": "CNN/S2/BB3/MaxOut/strided_slice_1", "op": "StridedSlice", "input": ["CNN/S2/BB3/MaxOut/Shape", "strided_slice_11/stack_2", "strided_slice_11/stack", "strided_slice_11/stack_2"], "attr": {"T": {"type": "DT_INT32"}, "Index": {"type": "DT_INT32"}, "shrink_axis_mask": {"i": "1"}, "ellipsis_mask": {"i": "0"}, "begin_mask": {"i": "0"}, "new_axis_mask": {"i": "0"}, "end_mask": {"i": "0"}}}, {"name": "CNN/S2/BB3/MaxOut/strided_slice", "op": "StridedSlice", "input": ["CNN/S2/BB3/MaxOut/Shape", "strided_slice_9/stack", "strided_slice_11/stack_2", "strided_slice_11/stack_2"], "attr": {"T": {"type": "DT_INT32"}, "Index": {"type": "DT_INT32"}, "shrink_axis_mask": {"i": "1"}, "ellipsis_mask": {"i": "0"}, "begin_mask": {"i": "0"}, "new_axis_mask": {"i": "0"}, "end_mask": {"i": "0"}}}, {"name": "CNN/S2/BB3/MaxOut/Reshape/shape", "op": "Pack", "input": ["CNN/S2/BB3/MaxOut/strided_slice", "CNN/S2/BB3/MaxOut/strided_slice_1", "CNN/S2/BB3/MaxOut/strided_slice_2", "CNN/S2/BB1/MaxOut/Reshape/shape/3", "SSD/MASK/mul/y"], "attr": {"T": {"type": "DT_INT32"}, "axis": {"i": "0"}, "N": {"i": "5"}}}, {"name": "CNN/S2/BB3/MaxOut/Reshape", "op": "Reshape", "input": ["CNN/S2/BB3/Conv2D", "CNN/S2/BB3/MaxOut/Reshape/shape"], "attr": {"T": {"type": "DT_FLOAT"}, "Tshape": {"type": "DT_INT32"}}}, {"name": "CNN/S2/BB3/MaxOut/Max", "op": "Max", "input": ["CNN/S2/BB3/MaxOut/Reshape", "concat/axis"], "attr": {"keep_dims": {"b": false}, "Tidx": {"type": "DT_INT32"}, "T": {"type": "DT_FLOAT"}}}, {"name": "CNN/S2/BB3/batch_normalization/cond/FusedBatchNorm_1/Switch", "op": "Switch", "input": ["CNN/S2/BB3/MaxOut/Max", "training"], "attr": {"T": {"type": "DT_FLOAT"}}}, {"name": "CNN/S2/BB3/batch_normalization/cond/FusedBatchNorm", "op": "FusedBatchNorm", "input": ["CNN/S2/BB3/batch_normalization/cond/FusedBatchNorm_1/Switch:1", "CNN/S2/BB3/batch_normalization/cond/FusedBatchNorm_1/Switch_1:1", "CNN/S2/BB3/batch_normalization/cond/FusedBatchNorm_1/Switch_2:1", "SSD/CLASSES/batch_normalization/cond/Const", "SSD/CLASSES/batch_normalization/cond/Const"], "attr": {"epsilon": {"f": 0.0010000000474974513}, "T": {"type": "DT_FLOAT"}, "data_format": {"s": "TkhXQw=="}, "is_training": {"b": true}}}, {"name": "CNN/S2/BB3/batch_normalization/cond/FusedBatchNorm_1", "op": "FusedBatchNorm", "input": ["CNN/S2/BB3/batch_normalization/cond/FusedBatchNorm_1/Switch", "CNN/S2/BB3/batch_normalization/cond/FusedBatchNorm_1/Switch_1", "CNN/S2/BB3/batch_normalization/cond/FusedBatchNorm_1/Switch_2", "CNN/S2/BB3/batch_normalization/cond/FusedBatchNorm_1/Switch_3", "CNN/S2/BB3/batch_normalization/cond/FusedBatchNorm_1/Switch_4"], "attr": {"epsilon": {"f": 0.0010000000474974513}, "T": {"type": "DT_FLOAT"}, "data_format": {"s": "TkhXQw=="}, "is_training": {"b": false}}}, {"name": "CNN/S2/BB3/batch_normalization/cond/Merge", "op": "Merge", "input": ["CNN/S2/BB3/batch_normalization/cond/FusedBatchNorm_1", "CNN/S2/BB3/batch_normalization/cond/FusedBatchNorm"], "attr": {"T": {"type": "DT_FLOAT"}, "N": {"i": "2"}}}, {"name": "CNN/S2/BB3/depthwise", "op": "DepthwiseConv2dNative", "input": ["CNN/S2/BB3/batch_normalization/cond/Merge", "CNN/S2/BB3/W0"], "attr": {"dilations": {"list": {"i": ["1", "1", "1", "1"]}}, "padding": {"s": "U0FNRQ=="}, "T": {"type": "DT_FLOAT"}, "data_format": {"s": "TkhXQw=="}, "strides": {"list": {"i": ["1", "1", "1", "1"]}}}}, {"name": "CNN/S2/BB3/Conv2D_1", "op": "Conv2D", "input": ["CNN/S2/BB3/depthwise", "CNN/S2/BB3/W_PW"], "attr": {"dilations": {"list": {"i": ["1", "1", "1", "1"]}}, "T": {"type": "DT_FLOAT"}, "strides": {"list": {"i": ["1", "1", "1", "1"]}}, "data_format": {"s": "TkhXQw=="}, "explicit_paddings": {"list": {}}, "use_cudnn_on_gpu": {"b": true}, "padding": {"s": "VkFMSUQ="}}}, {"name": "CNN/S2/BB3/Add", "op": "Add", "input": ["CNN/S2/BB2/Add", "CNN/S2/BB3/Conv2D_1"], "attr": {"T": {"type": "DT_FLOAT"}}}, {"name": "CNN/S2/Relu_4", "op": "Relu", "input": ["CNN/S2/BB3/Add"], "attr": {"T": {"type": "DT_FLOAT"}}}, {"name": "CNN/S2/batch_normalization_4/cond/FusedBatchNorm_1/Switch", "op": "Switch", "input": ["CNN/S2/Relu_4", "training"], "attr": {"T": {"type": "DT_FLOAT"}}}, {"name": "CNN/S2/batch_normalization_4/cond/FusedBatchNorm", "op": "FusedBatchNorm", "input": ["CNN/S2/batch_normalization_4/cond/FusedBatchNorm_1/Switch:1", "CNN/S2/batch_normalization_4/cond/FusedBatchNorm_1/Switch_1:1", "CNN/S2/batch_normalization_4/cond/FusedBatchNorm_1/Switch_2:1", "SSD/CLASSES/batch_normalization/cond/Const", "SSD/CLASSES/batch_normalization/cond/Const"], "attr": {"epsilon": {"f": 0.0010000000474974513}, "T": {"type": "DT_FLOAT"}, "data_format": {"s": "TkhXQw=="}, "is_training": {"b": true}}}, {"name": "CNN/S2/batch_normalization_4/cond/FusedBatchNorm_1", "op": "FusedBatchNorm", "input": ["CNN/S2/batch_normalization_4/cond/FusedBatchNorm_1/Switch", "CNN/S2/batch_normalization_4/cond/FusedBatchNorm_1/Switch_1", "CNN/S2/batch_normalization_4/cond/FusedBatchNorm_1/Switch_2", "CNN/S2/batch_normalization_4/cond/FusedBatchNorm_1/Switch_3", "CNN/S2/batch_normalization_4/cond/FusedBatchNorm_1/Switch_4"], "attr": {"epsilon": {"f": 0.0010000000474974513}, "T": {"type": "DT_FLOAT"}, "data_format": {"s": "TkhXQw=="}, "is_training": {"b": false}}}, {"name": "CNN/S2/batch_normalization_4/cond/Merge", "op": "Merge", "input": ["CNN/S2/batch_normalization_4/cond/FusedBatchNorm_1", "CNN/S2/batch_normalization_4/cond/FusedBatchNorm"], "attr": {"T": {"type": "DT_FLOAT"}, "N": {"i": "2"}}}, {"name": "CNN/S2/BB4/Conv2D", "op": "Conv2D", "input": ["CNN/S2/batch_normalization_4/cond/Merge", "CNN/S2/BB4/W_PW_in"], "attr": {"dilations": {"list": {"i": ["1", "1", "1", "1"]}}, "T": {"type": "DT_FLOAT"}, "strides": {"list": {"i": ["1", "1", "1", "1"]}}, "data_format": {"s": "TkhXQw=="}, "explicit_paddings": {"list": {}}, "use_cudnn_on_gpu": {"b": true}, "padding": {"s": "VkFMSUQ="}}}, {"name": "CNN/S2/BB4/MaxOut/Shape", "op": "Shape", "input": ["CNN/S2/BB4/Conv2D"], "attr": {"T": {"type": "DT_FLOAT"}, "out_type": {"type": "DT_INT32"}}}, {"name": "CNN/S2/BB4/MaxOut/strided_slice_2", "op": "StridedSlice", "input": ["CNN/S2/BB4/MaxOut/Shape", "strided_slice_11/stack", "strided_slice_11/stack_1", "strided_slice_11/stack_2"], "attr": {"T": {"type": "DT_INT32"}, "Index": {"type": "DT_INT32"}, "shrink_axis_mask": {"i": "1"}, "ellipsis_mask": {"i": "0"}, "begin_mask": {"i": "0"}, "new_axis_mask": {"i": "0"}, "end_mask": {"i": "0"}}}, {"name": "CNN/S2/BB4/MaxOut/strided_slice_1", "op": "StridedSlice", "input": ["CNN/S2/BB4/MaxOut/Shape", "strided_slice_11/stack_2", "strided_slice_11/stack", "strided_slice_11/stack_2"], "attr": {"T": {"type": "DT_INT32"}, "Index": {"type": "DT_INT32"}, "shrink_axis_mask": {"i": "1"}, "ellipsis_mask": {"i": "0"}, "begin_mask": {"i": "0"}, "new_axis_mask": {"i": "0"}, "end_mask": {"i": "0"}}}, {"name": "CNN/S2/BB4/MaxOut/strided_slice", "op": "StridedSlice", "input": ["CNN/S2/BB4/MaxOut/Shape", "strided_slice_9/stack", "strided_slice_11/stack_2", "strided_slice_11/stack_2"], "attr": {"T": {"type": "DT_INT32"}, "Index": {"type": "DT_INT32"}, "shrink_axis_mask": {"i": "1"}, "ellipsis_mask": {"i": "0"}, "begin_mask": {"i": "0"}, "new_axis_mask": {"i": "0"}, "end_mask": {"i": "0"}}}, {"name": "CNN/S2/BB4/MaxOut/Reshape/shape", "op": "Pack", "input": ["CNN/S2/BB4/MaxOut/strided_slice", "CNN/S2/BB4/MaxOut/strided_slice_1", "CNN/S2/BB4/MaxOut/strided_slice_2", "CNN/S2/BB1/MaxOut/Reshape/shape/3", "SSD/MASK/mul/y"], "attr": {"T": {"type": "DT_INT32"}, "axis": {"i": "0"}, "N": {"i": "5"}}}, {"name": "CNN/S2/BB4/MaxOut/Reshape", "op": "Reshape", "input": ["CNN/S2/BB4/Conv2D", "CNN/S2/BB4/MaxOut/Reshape/shape"], "attr": {"T": {"type": "DT_FLOAT"}, "Tshape": {"type": "DT_INT32"}}}, {"name": "CNN/S2/BB4/MaxOut/Max", "op": "Max", "input": ["CNN/S2/BB4/MaxOut/Reshape", "concat/axis"], "attr": {"keep_dims": {"b": false}, "Tidx": {"type": "DT_INT32"}, "T": {"type": "DT_FLOAT"}}}, {"name": "CNN/S2/BB4/batch_normalization/cond/FusedBatchNorm_1/Switch", "op": "Switch", "input": ["CNN/S2/BB4/MaxOut/Max", "training"], "attr": {"T": {"type": "DT_FLOAT"}}}, {"name": "CNN/S2/BB4/batch_normalization/cond/FusedBatchNorm", "op": "FusedBatchNorm", "input": ["CNN/S2/BB4/batch_normalization/cond/FusedBatchNorm_1/Switch:1", "CNN/S2/BB4/batch_normalization/cond/FusedBatchNorm_1/Switch_1:1", "CNN/S2/BB4/batch_normalization/cond/FusedBatchNorm_1/Switch_2:1", "SSD/CLASSES/batch_normalization/cond/Const", "SSD/CLASSES/batch_normalization/cond/Const"], "attr": {"epsilon": {"f": 0.0010000000474974513}, "T": {"type": "DT_FLOAT"}, "data_format": {"s": "TkhXQw=="}, "is_training": {"b": true}}}, {"name": "CNN/S2/BB4/batch_normalization/cond/FusedBatchNorm_1", "op": "FusedBatchNorm", "input": ["CNN/S2/BB4/batch_normalization/cond/FusedBatchNorm_1/Switch", "CNN/S2/BB4/batch_normalization/cond/FusedBatchNorm_1/Switch_1", "CNN/S2/BB4/batch_normalization/cond/FusedBatchNorm_1/Switch_2", "CNN/S2/BB4/batch_normalization/cond/FusedBatchNorm_1/Switch_3", "CNN/S2/BB4/batch_normalization/cond/FusedBatchNorm_1/Switch_4"], "attr": {"epsilon": {"f": 0.0010000000474974513}, "T": {"type": "DT_FLOAT"}, "data_format": {"s": "TkhXQw=="}, "is_training": {"b": false}}}, {"name": "CNN/S2/BB4/batch_normalization/cond/Merge", "op": "Merge", "input": ["CNN/S2/BB4/batch_normalization/cond/FusedBatchNorm_1", "CNN/S2/BB4/batch_normalization/cond/FusedBatchNorm"], "attr": {"T": {"type": "DT_FLOAT"}, "N": {"i": "2"}}}, {"name": "CNN/S2/BB4/depthwise", "op": "DepthwiseConv2dNative", "input": ["CNN/S2/BB4/batch_normalization/cond/Merge", "CNN/S2/BB4/W0"], "attr": {"dilations": {"list": {"i": ["1", "1", "1", "1"]}}, "padding": {"s": "U0FNRQ=="}, "T": {"type": "DT_FLOAT"}, "data_format": {"s": "TkhXQw=="}, "strides": {"list": {"i": ["1", "1", "1", "1"]}}}}, {"name": "CNN/S2/BB4/Conv2D_1", "op": "Conv2D", "input": ["CNN/S2/BB4/depthwise", "CNN/S2/BB4/W_PW"], "attr": {"dilations": {"list": {"i": ["1", "1", "1", "1"]}}, "T": {"type": "DT_FLOAT"}, "strides": {"list": {"i": ["1", "1", "1", "1"]}}, "data_format": {"s": "TkhXQw=="}, "explicit_paddings": {"list": {}}, "use_cudnn_on_gpu": {"b": true}, "padding": {"s": "VkFMSUQ="}}}, {"name": "CNN/S2/BB4/Add", "op": "Add", "input": ["CNN/S2/BB3/Add", "CNN/S2/BB4/Conv2D_1"], "attr": {"T": {"type": "DT_FLOAT"}}}, {"name": "SSD/Relu", "op": "Relu", "input": ["CNN/S2/BB4/Add"], "attr": {"T": {"type": "DT_FLOAT"}}}, {"name": "CNN/S4/BB5/depthwise", "op": "DepthwiseConv2dNative", "input": ["CNN/S2/BB4/Add", "CNN/S4/BB5/W0"], "attr": {"dilations": {"list": {"i": ["1", "1", "1", "1"]}}, "padding": {"s": "U0FNRQ=="}, "T": {"type": "DT_FLOAT"}, "data_format": {"s": "TkhXQw=="}, "strides": {"list": {"i": ["1", "2", "2", "1"]}}}}, {"name": "SSD/batch_normalization/cond/FusedBatchNorm_1/Switch", "op": "Switch", "input": ["SSD/Relu", "training"], "attr": {"T": {"type": "DT_FLOAT"}}}, {"name": "CNN/S4/BB5/Conv2D_1", "op": "Conv2D", "input": ["CNN/S4/BB5/depthwise", "CNN/S4/BB5/W_PW"], "attr": {"dilations": {"list": {"i": ["1", "1", "1", "1"]}}, "T": {"type": "DT_FLOAT"}, "strides": {"list": {"i": ["1", "1", "1", "1"]}}, "data_format": {"s": "TkhXQw=="}, "explicit_paddings": {"list": {}}, "use_cudnn_on_gpu": {"b": true}, "padding": {"s": "VkFMSUQ="}}}, {"name": "CNN/S4/batch_normalization/cond/FusedBatchNorm", "op": "FusedBatchNorm", "input": ["SSD/batch_normalization/cond/FusedBatchNorm_1/Switch:1", "CNN/S4/batch_normalization/cond/FusedBatchNorm_1/Switch_1:1", "CNN/S4/batch_normalization/cond/FusedBatchNorm_1/Switch_2:1", "SSD/CLASSES/batch_normalization/cond/Const", "SSD/CLASSES/batch_normalization/cond/Const"], "attr": {"epsilon": {"f": 0.0010000000474974513}, "T": {"type": "DT_FLOAT"}, "data_format": {"s": "TkhXQw=="}, "is_training": {"b": true}}}, {"name": "CNN/S4/batch_normalization/cond/FusedBatchNorm_1", "op": "FusedBatchNorm", "input": ["SSD/batch_normalization/cond/FusedBatchNorm_1/Switch", "CNN/S4/batch_normalization/cond/FusedBatchNorm_1/Switch_1", "CNN/S4/batch_normalization/cond/FusedBatchNorm_1/Switch_2", "SSD/batch_normalization/cond/FusedBatchNorm_1/Switch_3", "SSD/batch_normalization/cond/FusedBatchNorm_1/Switch_4"], "attr": {"epsilon": {"f": 0.0010000000474974513}, "T": {"type": "DT_FLOAT"}, "data_format": {"s": "TkhXQw=="}, "is_training": {"b": false}}}, {"name": "SSD/batch_normalization/cond/FusedBatchNorm", "op": "FusedBatchNorm", "input": ["SSD/batch_normalization/cond/FusedBatchNorm_1/Switch:1", "SSD/batch_normalization/cond/FusedBatchNorm_1/Switch_1:1", "SSD/batch_normalization/cond/FusedBatchNorm_1/Switch_2:1", "SSD/CLASSES/batch_normalization/cond/Const", "SSD/CLASSES/batch_normalization/cond/Const"], "attr": {"epsilon": {"f": 0.0010000000474974513}, "T": {"type": "DT_FLOAT"}, "data_format": {"s": "TkhXQw=="}, "is_training": {"b": true}}}, {"name": "SSD/batch_normalization/cond/FusedBatchNorm_1", "op": "FusedBatchNorm", "input": ["SSD/batch_normalization/cond/FusedBatchNorm_1/Switch", "SSD/batch_normalization/cond/FusedBatchNorm_1/Switch_1", "SSD/batch_normalization/cond/FusedBatchNorm_1/Switch_2", "SSD/batch_normalization/cond/FusedBatchNorm_1/Switch_3", "SSD/batch_normalization/cond/FusedBatchNorm_1/Switch_4"], "attr": {"epsilon": {"f": 0.0010000000474974513}, "T": {"type": "DT_FLOAT"}, "data_format": {"s": "TkhXQw=="}, "is_training": {"b": false}}}, {"name": "CNN/S4/batch_normalization/cond/Merge", "op": "Merge", "input": ["CNN/S4/batch_normalization/cond/FusedBatchNorm_1", "CNN/S4/batch_normalization/cond/FusedBatchNorm"], "attr": {"T": {"type": "DT_FLOAT"}, "N": {"i": "2"}}}, {"name": "SSD/batch_normalization/cond/Merge", "op": "Merge", "input": ["SSD/batch_normalization/cond/FusedBatchNorm_1", "SSD/batch_normalization/cond/FusedBatchNorm"], "attr": {"T": {"type": "DT_FLOAT"}, "N": {"i": "2"}}}, {"name": "CNN/S4/BB5/Conv2D", "op": "Conv2D", "input": ["CNN/S4/batch_normalization/cond/Merge", "CNN/S4/BB5/W_PW_in"], "attr": {"dilations": {"list": {"i": ["1", "1", "1", "1"]}}, "T": {"type": "DT_FLOAT"}, "strides": {"list": {"i": ["1", "1", "1", "1"]}}, "data_format": {"s": "TkhXQw=="}, "explicit_paddings": {"list": {}}, "use_cudnn_on_gpu": {"b": true}, "padding": {"s": "VkFMSUQ="}}}, {"name": "SSD/depthwise", "op": "DepthwiseConv2dNative", "input": ["SSD/batch_normalization/cond/Merge", "SSD/W0"], "attr": {"dilations": {"list": {"i": ["1", "1", "1", "1"]}}, "padding": {"s": "U0FNRQ=="}, "T": {"type": "DT_FLOAT"}, "data_format": {"s": "TkhXQw=="}, "strides": {"list": {"i": ["1", "2", "2", "1"]}}}}, {"name": "CNN/S4/BB5/Relu", "op": "Relu", "input": ["CNN/S4/BB5/Conv2D"], "attr": {"T": {"type": "DT_FLOAT"}}}, {"name": "SSD/Conv2D", "op": "Conv2D", "input": ["SSD/depthwise", "SSD/W1"], "attr": {"dilations": {"list": {"i": ["1", "1", "1", "1"]}}, "T": {"type": "DT_FLOAT"}, "strides": {"list": {"i": ["1", "1", "1", "1"]}}, "data_format": {"s": "TkhXQw=="}, "explicit_paddings": {"list": {}}, "use_cudnn_on_gpu": {"b": true}, "padding": {"s": "VkFMSUQ="}}}, {"name": "CNN/S4/BB5/batch_normalization/cond/FusedBatchNorm_1/Switch", "op": "Switch", "input": ["CNN/S4/BB5/Relu", "training"], "attr": {"T": {"type": "DT_FLOAT"}}}, {"name": "SSD/Relu_3", "op": "Relu", "input": ["SSD/Conv2D"], "attr": {"T": {"type": "DT_FLOAT"}}}, {"name": "CNN/S4/BB5/batch_normalization/cond/FusedBatchNorm", "op": "FusedBatchNorm", "input": ["CNN/S4/BB5/batch_normalization/cond/FusedBatchNorm_1/Switch:1", "CNN/S4/BB5/batch_normalization/cond/FusedBatchNorm_1/Switch_1:1", "CNN/S4/BB5/batch_normalization/cond/FusedBatchNorm_1/Switch_2:1", "SSD/CLASSES/batch_normalization/cond/Const", "SSD/CLASSES/batch_normalization/cond/Const"], "attr": {"epsilon": {"f": 0.0010000000474974513}, "T": {"type": "DT_FLOAT"}, "data_format": {"s": "TkhXQw=="}, "is_training": {"b": true}}}, {"name": "CNN/S4/BB5/batch_normalization/cond/FusedBatchNorm_1", "op": "FusedBatchNorm", "input": ["CNN/S4/BB5/batch_normalization/cond/FusedBatchNorm_1/Switch", "CNN/S4/BB5/batch_normalization/cond/FusedBatchNorm_1/Switch_1", "CNN/S4/BB5/batch_normalization/cond/FusedBatchNorm_1/Switch_2", "CNN/S4/BB5/batch_normalization/cond/FusedBatchNorm_1/Switch_3", "CNN/S4/BB5/batch_normalization/cond/FusedBatchNorm_1/Switch_4"], "attr": {"epsilon": {"f": 0.0010000000474974513}, "T": {"type": "DT_FLOAT"}, "data_format": {"s": "TkhXQw=="}, "is_training": {"b": false}}}, {"name": "SSD/batch_normalization_3/cond/FusedBatchNorm_1/Switch", "op": "Switch", "input": ["SSD/Relu_3", "training"], "attr": {"T": {"type": "DT_FLOAT"}}}, {"name": "CNN/S4/BB5/batch_normalization/cond/Merge", "op": "Merge", "input": ["CNN/S4/BB5/batch_normalization/cond/FusedBatchNorm_1", "CNN/S4/BB5/batch_normalization/cond/FusedBatchNorm"], "attr": {"T": {"type": "DT_FLOAT"}, "N": {"i": "2"}}}, {"name": "SSD/batch_normalization_3/cond/FusedBatchNorm", "op": "FusedBatchNorm", "input": ["SSD/batch_normalization_3/cond/FusedBatchNorm_1/Switch:1", "SSD/batch_normalization_3/cond/FusedBatchNorm_1/Switch_1:1", "SSD/batch_normalization_3/cond/FusedBatchNorm_1/Switch_2:1", "SSD/CLASSES/batch_normalization/cond/Const", "SSD/CLASSES/batch_normalization/cond/Const"], "attr": {"epsilon": {"f": 0.0010000000474974513}, "T": {"type": "DT_FLOAT"}, "data_format": {"s": "TkhXQw=="}, "is_training": {"b": true}}}, {"name": "SSD/batch_normalization_3/cond/FusedBatchNorm_1", "op": "FusedBatchNorm", "input": ["SSD/batch_normalization_3/cond/FusedBatchNorm_1/Switch", "SSD/batch_normalization_3/cond/FusedBatchNorm_1/Switch_1", "SSD/batch_normalization_3/cond/FusedBatchNorm_1/Switch_2", "SSD/batch_normalization_3/cond/FusedBatchNorm_1/Switch_3", "SSD/batch_normalization_3/cond/FusedBatchNorm_1/Switch_4"], "attr": {"epsilon": {"f": 0.0010000000474974513}, "T": {"type": "DT_FLOAT"}, "data_format": {"s": "TkhXQw=="}, "is_training": {"b": false}}}, {"name": "CNN/S4/BB5/depthwise_1", "op": "DepthwiseConv2dNative", "input": ["CNN/S4/BB5/batch_normalization/cond/Merge", "CNN/S4/BB5/W0_1"], "attr": {"dilations": {"list": {"i": ["1", "1", "1", "1"]}}, "padding": {"s": "U0FNRQ=="}, "T": {"type": "DT_FLOAT"}, "data_format": {"s": "TkhXQw=="}, "strides": {"list": {"i": ["1", "2", "2", "1"]}}}}, {"name": "SSD/batch_normalization_3/cond/Merge", "op": "Merge", "input": ["SSD/batch_normalization_3/cond/FusedBatchNorm_1", "SSD/batch_normalization_3/cond/FusedBatchNorm"], "attr": {"T": {"type": "DT_FLOAT"}, "N": {"i": "2"}}}, {"name": "CNN/S4/BB5/Conv2D_2", "op": "Conv2D", "input": ["CNN/S4/BB5/depthwise_1", "CNN/S4/BB5/W_PW_1"], "attr": {"dilations": {"list": {"i": ["1", "1", "1", "1"]}}, "T": {"type": "DT_FLOAT"}, "strides": {"list": {"i": ["1", "1", "1", "1"]}}, "data_format": {"s": "TkhXQw=="}, "explicit_paddings": {"list": {}}, "use_cudnn_on_gpu": {"b": true}, "padding": {"s": "VkFMSUQ="}}}, {"name": "SSD/depthwise_1", "op": "DepthwiseConv2dNative", "input": ["SSD/batch_normalization_3/cond/Merge", "SSD/W2"], "attr": {"dilations": {"list": {"i": ["1", "1", "1", "1"]}}, "padding": {"s": "U0FNRQ=="}, "T": {"type": "DT_FLOAT"}, "data_format": {"s": "TkhXQw=="}, "strides": {"list": {"i": ["1", "2", "2", "1"]}}}}, {"name": "CNN/S4/BB5/Add", "op": "Add", "input": ["CNN/S4/BB5/Conv2D_1", "CNN/S4/BB5/Conv2D_2"], "attr": {"T": {"type": "DT_FLOAT"}}}, {"name": "CNN/S4/Relu_1", "op": "Relu", "input": ["CNN/S4/BB5/Add"], "attr": {"T": {"type": "DT_FLOAT"}}}, {"name": "CNN/S4/batch_normalization_1/cond/FusedBatchNorm_1/Switch", "op": "Switch", "input": ["CNN/S4/Relu_1", "training"], "attr": {"T": {"type": "DT_FLOAT"}}}, {"name": "CNN/S4/batch_normalization_1/cond/FusedBatchNorm", "op": "FusedBatchNorm", "input": ["CNN/S4/batch_normalization_1/cond/FusedBatchNorm_1/Switch:1", "CNN/S4/batch_normalization_1/cond/FusedBatchNorm_1/Switch_1:1", "CNN/S4/batch_normalization_1/cond/FusedBatchNorm_1/Switch_2:1", "SSD/CLASSES/batch_normalization/cond/Const", "SSD/CLASSES/batch_normalization/cond/Const"], "attr": {"epsilon": {"f": 0.0010000000474974513}, "T": {"type": "DT_FLOAT"}, "data_format": {"s": "TkhXQw=="}, "is_training": {"b": true}}}, {"name": "CNN/S4/batch_normalization_1/cond/FusedBatchNorm_1", "op": "FusedBatchNorm", "input": ["CNN/S4/batch_normalization_1/cond/FusedBatchNorm_1/Switch", "CNN/S4/batch_normalization_1/cond/FusedBatchNorm_1/Switch_1", "CNN/S4/batch_normalization_1/cond/FusedBatchNorm_1/Switch_2", "CNN/S4/batch_normalization_1/cond/FusedBatchNorm_1/Switch_3", "CNN/S4/batch_normalization_1/cond/FusedBatchNorm_1/Switch_4"], "attr": {"epsilon": {"f": 0.0010000000474974513}, "T": {"type": "DT_FLOAT"}, "data_format": {"s": "TkhXQw=="}, "is_training": {"b": false}}}, {"name": "CNN/S4/batch_normalization_1/cond/Merge", "op": "Merge", "input": ["CNN/S4/batch_normalization_1/cond/FusedBatchNorm_1", "CNN/S4/batch_normalization_1/cond/FusedBatchNorm"], "attr": {"T": {"type": "DT_FLOAT"}, "N": {"i": "2"}}}, {"name": "CNN/S4/BB6/Conv2D", "op": "Conv2D", "input": ["CNN/S4/batch_normalization_1/cond/Merge", "CNN/S4/BB6/W_PW_in"], "attr": {"dilations": {"list": {"i": ["1", "1", "1", "1"]}}, "T": {"type": "DT_FLOAT"}, "strides": {"list": {"i": ["1", "1", "1", "1"]}}, "data_format": {"s": "TkhXQw=="}, "explicit_paddings": {"list": {}}, "use_cudnn_on_gpu": {"b": true}, "padding": {"s": "VkFMSUQ="}}}, {"name": "CNN/S4/BB6/MaxOut/Shape", "op": "Shape", "input": ["CNN/S4/BB6/Conv2D"], "attr": {"T": {"type": "DT_FLOAT"}, "out_type": {"type": "DT_INT32"}}}, {"name": "CNN/S4/BB6/MaxOut/strided_slice_2", "op": "StridedSlice", "input": ["CNN/S4/BB6/MaxOut/Shape", "strided_slice_11/stack", "strided_slice_11/stack_1", "strided_slice_11/stack_2"], "attr": {"T": {"type": "DT_INT32"}, "Index": {"type": "DT_INT32"}, "shrink_axis_mask": {"i": "1"}, "ellipsis_mask": {"i": "0"}, "begin_mask": {"i": "0"}, "new_axis_mask": {"i": "0"}, "end_mask": {"i": "0"}}}, {"name": "CNN/S4/BB6/MaxOut/strided_slice_1", "op": "StridedSlice", "input": ["CNN/S4/BB6/MaxOut/Shape", "strided_slice_11/stack_2", "strided_slice_11/stack", "strided_slice_11/stack_2"], "attr": {"T": {"type": "DT_INT32"}, "Index": {"type": "DT_INT32"}, "shrink_axis_mask": {"i": "1"}, "ellipsis_mask": {"i": "0"}, "begin_mask": {"i": "0"}, "new_axis_mask": {"i": "0"}, "end_mask": {"i": "0"}}}, {"name": "CNN/S4/BB6/MaxOut/strided_slice", "op": "StridedSlice", "input": ["CNN/S4/BB6/MaxOut/Shape", "strided_slice_9/stack", "strided_slice_11/stack_2", "strided_slice_11/stack_2"], "attr": {"T": {"type": "DT_INT32"}, "Index": {"type": "DT_INT32"}, "shrink_axis_mask": {"i": "1"}, "ellipsis_mask": {"i": "0"}, "begin_mask": {"i": "0"}, "new_axis_mask": {"i": "0"}, "end_mask": {"i": "0"}}}, {"name": "CNN/S4/BB6/MaxOut/Reshape/shape", "op": "Pack", "input": ["CNN/S4/BB6/MaxOut/strided_slice", "CNN/S4/BB6/MaxOut/strided_slice_1", "CNN/S4/BB6/MaxOut/strided_slice_2", "CNN/S4/BB6/MaxOut/Reshape/shape/3", "SSD/MASK/mul/y"], "attr": {"T": {"type": "DT_INT32"}, "axis": {"i": "0"}, "N": {"i": "5"}}}, {"name": "CNN/S4/BB6/MaxOut/Reshape", "op": "Reshape", "input": ["CNN/S4/BB6/Conv2D", "CNN/S4/BB6/MaxOut/Reshape/shape"], "attr": {"T": {"type": "DT_FLOAT"}, "Tshape": {"type": "DT_INT32"}}}, {"name": "CNN/S4/BB6/MaxOut/Max", "op": "Max", "input": ["CNN/S4/BB6/MaxOut/Reshape", "concat/axis"], "attr": {"keep_dims": {"b": false}, "Tidx": {"type": "DT_INT32"}, "T": {"type": "DT_FLOAT"}}}, {"name": "CNN/S4/BB6/batch_normalization/cond/FusedBatchNorm_1/Switch", "op": "Switch", "input": ["CNN/S4/BB6/MaxOut/Max", "training"], "attr": {"T": {"type": "DT_FLOAT"}}}, {"name": "CNN/S4/BB6/batch_normalization/cond/FusedBatchNorm", "op": "FusedBatchNorm", "input": ["CNN/S4/BB6/batch_normalization/cond/FusedBatchNorm_1/Switch:1", "CNN/S4/BB6/batch_normalization/cond/FusedBatchNorm_1/Switch_1:1", "CNN/S4/BB6/batch_normalization/cond/FusedBatchNorm_1/Switch_2:1", "SSD/CLASSES/batch_normalization/cond/Const", "SSD/CLASSES/batch_normalization/cond/Const"], "attr": {"epsilon": {"f": 0.0010000000474974513}, "T": {"type": "DT_FLOAT"}, "data_format": {"s": "TkhXQw=="}, "is_training": {"b": true}}}, {"name": "CNN/S4/BB6/batch_normalization/cond/FusedBatchNorm_1", "op": "FusedBatchNorm", "input": ["CNN/S4/BB6/batch_normalization/cond/FusedBatchNorm_1/Switch", "CNN/S4/BB6/batch_normalization/cond/FusedBatchNorm_1/Switch_1", "CNN/S4/BB6/batch_normalization/cond/FusedBatchNorm_1/Switch_2", "CNN/S4/BB6/batch_normalization/cond/FusedBatchNorm_1/Switch_3", "CNN/S4/BB6/batch_normalization/cond/FusedBatchNorm_1/Switch_4"], "attr": {"epsilon": {"f": 0.0010000000474974513}, "T": {"type": "DT_FLOAT"}, "data_format": {"s": "TkhXQw=="}, "is_training": {"b": false}}}, {"name": "CNN/S4/BB6/batch_normalization/cond/Merge", "op": "Merge", "input": ["CNN/S4/BB6/batch_normalization/cond/FusedBatchNorm_1", "CNN/S4/BB6/batch_normalization/cond/FusedBatchNorm"], "attr": {"T": {"type": "DT_FLOAT"}, "N": {"i": "2"}}}, {"name": "CNN/S4/BB6/depthwise", "op": "DepthwiseConv2dNative", "input": ["CNN/S4/BB6/batch_normalization/cond/Merge", "CNN/S4/BB6/W0"], "attr": {"dilations": {"list": {"i": ["1", "1", "1", "1"]}}, "padding": {"s": "U0FNRQ=="}, "T": {"type": "DT_FLOAT"}, "data_format": {"s": "TkhXQw=="}, "strides": {"list": {"i": ["1", "1", "1", "1"]}}}}, {"name": "CNN/S4/BB6/Conv2D_1", "op": "Conv2D", "input": ["CNN/S4/BB6/depthwise", "CNN/S4/BB6/W_PW"], "attr": {"dilations": {"list": {"i": ["1", "1", "1", "1"]}}, "T": {"type": "DT_FLOAT"}, "strides": {"list": {"i": ["1", "1", "1", "1"]}}, "data_format": {"s": "TkhXQw=="}, "explicit_paddings": {"list": {}}, "use_cudnn_on_gpu": {"b": true}, "padding": {"s": "VkFMSUQ="}}}, {"name": "CNN/S4/BB6/Add", "op": "Add", "input": ["CNN/S4/BB5/Add", "CNN/S4/BB6/Conv2D_1"], "attr": {"T": {"type": "DT_FLOAT"}}}, {"name": "CNN/S4/Relu_2", "op": "Relu", "input": ["CNN/S4/BB6/Add"], "attr": {"T": {"type": "DT_FLOAT"}}}, {"name": "CNN/S4/batch_normalization_2/cond/FusedBatchNorm_1/Switch", "op": "Switch", "input": ["CNN/S4/Relu_2", "training"], "attr": {"T": {"type": "DT_FLOAT"}}}, {"name": "CNN/S4/batch_normalization_2/cond/FusedBatchNorm", "op": "FusedBatchNorm", "input": ["CNN/S4/batch_normalization_2/cond/FusedBatchNorm_1/Switch:1", "CNN/S4/batch_normalization_2/cond/FusedBatchNorm_1/Switch_1:1", "CNN/S4/batch_normalization_2/cond/FusedBatchNorm_1/Switch_2:1", "SSD/CLASSES/batch_normalization/cond/Const", "SSD/CLASSES/batch_normalization/cond/Const"], "attr": {"epsilon": {"f": 0.0010000000474974513}, "T": {"type": "DT_FLOAT"}, "data_format": {"s": "TkhXQw=="}, "is_training": {"b": true}}}, {"name": "CNN/S4/batch_normalization_2/cond/FusedBatchNorm_1", "op": "FusedBatchNorm", "input": ["CNN/S4/batch_normalization_2/cond/FusedBatchNorm_1/Switch", "CNN/S4/batch_normalization_2/cond/FusedBatchNorm_1/Switch_1", "CNN/S4/batch_normalization_2/cond/FusedBatchNorm_1/Switch_2", "CNN/S4/batch_normalization_2/cond/FusedBatchNorm_1/Switch_3", "CNN/S4/batch_normalization_2/cond/FusedBatchNorm_1/Switch_4"], "attr": {"epsilon": {"f": 0.0010000000474974513}, "T": {"type": "DT_FLOAT"}, "data_format": {"s": "TkhXQw=="}, "is_training": {"b": false}}}, {"name": "CNN/S4/batch_normalization_2/cond/Merge", "op": "Merge", "input": ["CNN/S4/batch_normalization_2/cond/FusedBatchNorm_1", "CNN/S4/batch_normalization_2/cond/FusedBatchNorm"], "attr": {"T": {"type": "DT_FLOAT"}, "N": {"i": "2"}}}, {"name": "CNN/S4/BB7/Conv2D", "op": "Conv2D", "input": ["CNN/S4/batch_normalization_2/cond/Merge", "CNN/S4/BB7/W_PW_in"], "attr": {"dilations": {"list": {"i": ["1", "1", "1", "1"]}}, "T": {"type": "DT_FLOAT"}, "strides": {"list": {"i": ["1", "1", "1", "1"]}}, "data_format": {"s": "TkhXQw=="}, "explicit_paddings": {"list": {}}, "use_cudnn_on_gpu": {"b": true}, "padding": {"s": "VkFMSUQ="}}}, {"name": "CNN/S4/BB7/MaxOut/Shape", "op": "Shape", "input": ["CNN/S4/BB7/Conv2D"], "attr": {"T": {"type": "DT_FLOAT"}, "out_type": {"type": "DT_INT32"}}}, {"name": "CNN/S4/BB7/MaxOut/strided_slice_2", "op": "StridedSlice", "input": ["CNN/S4/BB7/MaxOut/Shape", "strided_slice_11/stack", "strided_slice_11/stack_1", "strided_slice_11/stack_2"], "attr": {"T": {"type": "DT_INT32"}, "Index": {"type": "DT_INT32"}, "shrink_axis_mask": {"i": "1"}, "ellipsis_mask": {"i": "0"}, "begin_mask": {"i": "0"}, "new_axis_mask": {"i": "0"}, "end_mask": {"i": "0"}}}, {"name": "CNN/S4/BB7/MaxOut/strided_slice_1", "op": "StridedSlice", "input": ["CNN/S4/BB7/MaxOut/Shape", "strided_slice_11/stack_2", "strided_slice_11/stack", "strided_slice_11/stack_2"], "attr": {"T": {"type": "DT_INT32"}, "Index": {"type": "DT_INT32"}, "shrink_axis_mask": {"i": "1"}, "ellipsis_mask": {"i": "0"}, "begin_mask": {"i": "0"}, "new_axis_mask": {"i": "0"}, "end_mask": {"i": "0"}}}, {"name": "CNN/S4/BB7/MaxOut/strided_slice", "op": "StridedSlice", "input": ["CNN/S4/BB7/MaxOut/Shape", "strided_slice_9/stack", "strided_slice_11/stack_2", "strided_slice_11/stack_2"], "attr": {"T": {"type": "DT_INT32"}, "Index": {"type": "DT_INT32"}, "shrink_axis_mask": {"i": "1"}, "ellipsis_mask": {"i": "0"}, "begin_mask": {"i": "0"}, "new_axis_mask": {"i": "0"}, "end_mask": {"i": "0"}}}, {"name": "CNN/S4/BB7/MaxOut/Reshape/shape", "op": "Pack", "input": ["CNN/S4/BB7/MaxOut/strided_slice", "CNN/S4/BB7/MaxOut/strided_slice_1", "CNN/S4/BB7/MaxOut/strided_slice_2", "CNN/S4/BB6/MaxOut/Reshape/shape/3", "SSD/MASK/mul/y"], "attr": {"T": {"type": "DT_INT32"}, "axis": {"i": "0"}, "N": {"i": "5"}}}, {"name": "CNN/S4/BB7/MaxOut/Reshape", "op": "Reshape", "input": ["CNN/S4/BB7/Conv2D", "CNN/S4/BB7/MaxOut/Reshape/shape"], "attr": {"T": {"type": "DT_FLOAT"}, "Tshape": {"type": "DT_INT32"}}}, {"name": "CNN/S4/BB7/MaxOut/Max", "op": "Max", "input": ["CNN/S4/BB7/MaxOut/Reshape", "concat/axis"], "attr": {"keep_dims": {"b": false}, "Tidx": {"type": "DT_INT32"}, "T": {"type": "DT_FLOAT"}}}, {"name": "CNN/S4/BB7/batch_normalization/cond/FusedBatchNorm_1/Switch", "op": "Switch", "input": ["CNN/S4/BB7/MaxOut/Max", "training"], "attr": {"T": {"type": "DT_FLOAT"}}}, {"name": "CNN/S4/BB7/batch_normalization/cond/FusedBatchNorm", "op": "FusedBatchNorm", "input": ["CNN/S4/BB7/batch_normalization/cond/FusedBatchNorm_1/Switch:1", "CNN/S4/BB7/batch_normalization/cond/FusedBatchNorm_1/Switch_1:1", "CNN/S4/BB7/batch_normalization/cond/FusedBatchNorm_1/Switch_2:1", "SSD/CLASSES/batch_normalization/cond/Const", "SSD/CLASSES/batch_normalization/cond/Const"], "attr": {"epsilon": {"f": 0.0010000000474974513}, "T": {"type": "DT_FLOAT"}, "data_format": {"s": "TkhXQw=="}, "is_training": {"b": true}}}, {"name": "CNN/S4/BB7/batch_normalization/cond/FusedBatchNorm_1", "op": "FusedBatchNorm", "input": ["CNN/S4/BB7/batch_normalization/cond/FusedBatchNorm_1/Switch", "CNN/S4/BB7/batch_normalization/cond/FusedBatchNorm_1/Switch_1", "CNN/S4/BB7/batch_normalization/cond/FusedBatchNorm_1/Switch_2", "CNN/S4/BB7/batch_normalization/cond/FusedBatchNorm_1/Switch_3", "CNN/S4/BB7/batch_normalization/cond/FusedBatchNorm_1/Switch_4"], "attr": {"epsilon": {"f": 0.0010000000474974513}, "T": {"type": "DT_FLOAT"}, "data_format": {"s": "TkhXQw=="}, "is_training": {"b": false}}}, {"name": "CNN/S4/BB7/batch_normalization/cond/Merge", "op": "Merge", "input": ["CNN/S4/BB7/batch_normalization/cond/FusedBatchNorm_1", "CNN/S4/BB7/batch_normalization/cond/FusedBatchNorm"], "attr": {"T": {"type": "DT_FLOAT"}, "N": {"i": "2"}}}, {"name": "CNN/S4/BB7/depthwise", "op": "DepthwiseConv2dNative", "input": ["CNN/S4/BB7/batch_normalization/cond/Merge", "CNN/S4/BB7/W0"], "attr": {"dilations": {"list": {"i": ["1", "1", "1", "1"]}}, "padding": {"s": "U0FNRQ=="}, "T": {"type": "DT_FLOAT"}, "data_format": {"s": "TkhXQw=="}, "strides": {"list": {"i": ["1", "1", "1", "1"]}}}}, {"name": "CNN/S4/BB7/Conv2D_1", "op": "Conv2D", "input": ["CNN/S4/BB7/depthwise", "CNN/S4/BB7/W_PW"], "attr": {"dilations": {"list": {"i": ["1", "1", "1", "1"]}}, "T": {"type": "DT_FLOAT"}, "strides": {"list": {"i": ["1", "1", "1", "1"]}}, "data_format": {"s": "TkhXQw=="}, "explicit_paddings": {"list": {}}, "use_cudnn_on_gpu": {"b": true}, "padding": {"s": "VkFMSUQ="}}}, {"name": "CNN/S4/BB7/Add", "op": "Add", "input": ["CNN/S4/BB6/Add", "CNN/S4/BB7/Conv2D_1"], "attr": {"T": {"type": "DT_FLOAT"}}}, {"name": "CNN/S4/Relu_3", "op": "Relu", "input": ["CNN/S4/BB7/Add"], "attr": {"T": {"type": "DT_FLOAT"}}}, {"name": "CNN/S4/batch_normalization_3/cond/FusedBatchNorm_1/Switch", "op": "Switch", "input": ["CNN/S4/Relu_3", "training"], "attr": {"T": {"type": "DT_FLOAT"}}}, {"name": "CNN/S4/batch_normalization_3/cond/FusedBatchNorm", "op": "FusedBatchNorm", "input": ["CNN/S4/batch_normalization_3/cond/FusedBatchNorm_1/Switch:1", "CNN/S4/batch_normalization_3/cond/FusedBatchNorm_1/Switch_1:1", "CNN/S4/batch_normalization_3/cond/FusedBatchNorm_1/Switch_2:1", "SSD/CLASSES/batch_normalization/cond/Const", "SSD/CLASSES/batch_normalization/cond/Const"], "attr": {"epsilon": {"f": 0.0010000000474974513}, "T": {"type": "DT_FLOAT"}, "data_format": {"s": "TkhXQw=="}, "is_training": {"b": true}}}, {"name": "CNN/S4/batch_normalization_3/cond/FusedBatchNorm_1", "op": "FusedBatchNorm", "input": ["CNN/S4/batch_normalization_3/cond/FusedBatchNorm_1/Switch", "CNN/S4/batch_normalization_3/cond/FusedBatchNorm_1/Switch_1", "CNN/S4/batch_normalization_3/cond/FusedBatchNorm_1/Switch_2", "CNN/S4/batch_normalization_3/cond/FusedBatchNorm_1/Switch_3", "CNN/S4/batch_normalization_3/cond/FusedBatchNorm_1/Switch_4"], "attr": {"epsilon": {"f": 0.0010000000474974513}, "T": {"type": "DT_FLOAT"}, "data_format": {"s": "TkhXQw=="}, "is_training": {"b": false}}}, {"name": "CNN/S4/batch_normalization_3/cond/Merge", "op": "Merge", "input": ["CNN/S4/batch_normalization_3/cond/FusedBatchNorm_1", "CNN/S4/batch_normalization_3/cond/FusedBatchNorm"], "attr": {"T": {"type": "DT_FLOAT"}, "N": {"i": "2"}}}, {"name": "CNN/S4/BB8/Conv2D", "op": "Conv2D", "input": ["CNN/S4/batch_normalization_3/cond/Merge", "CNN/S4/BB8/W_PW_in"], "attr": {"dilations": {"list": {"i": ["1", "1", "1", "1"]}}, "T": {"type": "DT_FLOAT"}, "strides": {"list": {"i": ["1", "1", "1", "1"]}}, "data_format": {"s": "TkhXQw=="}, "explicit_paddings": {"list": {}}, "use_cudnn_on_gpu": {"b": true}, "padding": {"s": "VkFMSUQ="}}}, {"name": "CNN/S4/BB8/MaxOut/Shape", "op": "Shape", "input": ["CNN/S4/BB8/Conv2D"], "attr": {"T": {"type": "DT_FLOAT"}, "out_type": {"type": "DT_INT32"}}}, {"name": "CNN/S4/BB8/MaxOut/strided_slice_2", "op": "StridedSlice", "input": ["CNN/S4/BB8/MaxOut/Shape", "strided_slice_11/stack", "strided_slice_11/stack_1", "strided_slice_11/stack_2"], "attr": {"T": {"type": "DT_INT32"}, "Index": {"type": "DT_INT32"}, "shrink_axis_mask": {"i": "1"}, "ellipsis_mask": {"i": "0"}, "begin_mask": {"i": "0"}, "new_axis_mask": {"i": "0"}, "end_mask": {"i": "0"}}}, {"name": "CNN/S4/BB8/MaxOut/strided_slice_1", "op": "StridedSlice", "input": ["CNN/S4/BB8/MaxOut/Shape", "strided_slice_11/stack_2", "strided_slice_11/stack", "strided_slice_11/stack_2"], "attr": {"T": {"type": "DT_INT32"}, "Index": {"type": "DT_INT32"}, "shrink_axis_mask": {"i": "1"}, "ellipsis_mask": {"i": "0"}, "begin_mask": {"i": "0"}, "new_axis_mask": {"i": "0"}, "end_mask": {"i": "0"}}}, {"name": "CNN/S4/BB8/MaxOut/strided_slice", "op": "StridedSlice", "input": ["CNN/S4/BB8/MaxOut/Shape", "strided_slice_9/stack", "strided_slice_11/stack_2", "strided_slice_11/stack_2"], "attr": {"T": {"type": "DT_INT32"}, "Index": {"type": "DT_INT32"}, "shrink_axis_mask": {"i": "1"}, "ellipsis_mask": {"i": "0"}, "begin_mask": {"i": "0"}, "new_axis_mask": {"i": "0"}, "end_mask": {"i": "0"}}}, {"name": "CNN/S4/BB8/MaxOut/Reshape/shape", "op": "Pack", "input": ["CNN/S4/BB8/MaxOut/strided_slice", "CNN/S4/BB8/MaxOut/strided_slice_1", "CNN/S4/BB8/MaxOut/strided_slice_2", "CNN/S4/BB6/MaxOut/Reshape/shape/3", "SSD/MASK/mul/y"], "attr": {"T": {"type": "DT_INT32"}, "axis": {"i": "0"}, "N": {"i": "5"}}}, {"name": "CNN/S4/BB8/MaxOut/Reshape", "op": "Reshape", "input": ["CNN/S4/BB8/Conv2D", "CNN/S4/BB8/MaxOut/Reshape/shape"], "attr": {"T": {"type": "DT_FLOAT"}, "Tshape": {"type": "DT_INT32"}}}, {"name": "CNN/S4/BB8/MaxOut/Max", "op": "Max", "input": ["CNN/S4/BB8/MaxOut/Reshape", "concat/axis"], "attr": {"keep_dims": {"b": false}, "Tidx": {"type": "DT_INT32"}, "T": {"type": "DT_FLOAT"}}}, {"name": "CNN/S4/BB8/batch_normalization/cond/FusedBatchNorm_1/Switch", "op": "Switch", "input": ["CNN/S4/BB8/MaxOut/Max", "training"], "attr": {"T": {"type": "DT_FLOAT"}}}, {"name": "CNN/S4/BB8/batch_normalization/cond/FusedBatchNorm", "op": "FusedBatchNorm", "input": ["CNN/S4/BB8/batch_normalization/cond/FusedBatchNorm_1/Switch:1", "CNN/S4/BB8/batch_normalization/cond/FusedBatchNorm_1/Switch_1:1", "CNN/S4/BB8/batch_normalization/cond/FusedBatchNorm_1/Switch_2:1", "SSD/CLASSES/batch_normalization/cond/Const", "SSD/CLASSES/batch_normalization/cond/Const"], "attr": {"epsilon": {"f": 0.0010000000474974513}, "T": {"type": "DT_FLOAT"}, "data_format": {"s": "TkhXQw=="}, "is_training": {"b": true}}}, {"name": "CNN/S4/BB8/batch_normalization/cond/FusedBatchNorm_1", "op": "FusedBatchNorm", "input": ["CNN/S4/BB8/batch_normalization/cond/FusedBatchNorm_1/Switch", "CNN/S4/BB8/batch_normalization/cond/FusedBatchNorm_1/Switch_1", "CNN/S4/BB8/batch_normalization/cond/FusedBatchNorm_1/Switch_2", "CNN/S4/BB8/batch_normalization/cond/FusedBatchNorm_1/Switch_3", "CNN/S4/BB8/batch_normalization/cond/FusedBatchNorm_1/Switch_4"], "attr": {"epsilon": {"f": 0.0010000000474974513}, "T": {"type": "DT_FLOAT"}, "data_format": {"s": "TkhXQw=="}, "is_training": {"b": false}}}, {"name": "CNN/S4/BB8/batch_normalization/cond/Merge", "op": "Merge", "input": ["CNN/S4/BB8/batch_normalization/cond/FusedBatchNorm_1", "CNN/S4/BB8/batch_normalization/cond/FusedBatchNorm"], "attr": {"T": {"type": "DT_FLOAT"}, "N": {"i": "2"}}}, {"name": "CNN/S4/BB8/depthwise", "op": "DepthwiseConv2dNative", "input": ["CNN/S4/BB8/batch_normalization/cond/Merge", "CNN/S4/BB8/W0"], "attr": {"dilations": {"list": {"i": ["1", "1", "1", "1"]}}, "padding": {"s": "U0FNRQ=="}, "T": {"type": "DT_FLOAT"}, "data_format": {"s": "TkhXQw=="}, "strides": {"list": {"i": ["1", "1", "1", "1"]}}}}, {"name": "CNN/S4/BB8/Conv2D_1", "op": "Conv2D", "input": ["CNN/S4/BB8/depthwise", "CNN/S4/BB8/W_PW"], "attr": {"dilations": {"list": {"i": ["1", "1", "1", "1"]}}, "T": {"type": "DT_FLOAT"}, "strides": {"list": {"i": ["1", "1", "1", "1"]}}, "data_format": {"s": "TkhXQw=="}, "explicit_paddings": {"list": {}}, "use_cudnn_on_gpu": {"b": true}, "padding": {"s": "VkFMSUQ="}}}, {"name": "CNN/S4/BB8/Add", "op": "Add", "input": ["CNN/S4/BB7/Add", "CNN/S4/BB8/Conv2D_1"], "attr": {"T": {"type": "DT_FLOAT"}}}, {"name": "SSD/Relu_1", "op": "Relu", "input": ["CNN/S4/BB8/Add"], "attr": {"T": {"type": "DT_FLOAT"}}}, {"name": "CNN/S8/BB9/depthwise", "op": "DepthwiseConv2dNative", "input": ["CNN/S4/BB8/Add", "CNN/S8/BB9/W0"], "attr": {"dilations": {"list": {"i": ["1", "1", "1", "1"]}}, "padding": {"s": "U0FNRQ=="}, "T": {"type": "DT_FLOAT"}, "data_format": {"s": "TkhXQw=="}, "strides": {"list": {"i": ["1", "2", "2", "1"]}}}}, {"name": "SSD/batch_normalization_1/cond/FusedBatchNorm_1/Switch", "op": "Switch", "input": ["SSD/Relu_1", "training"], "attr": {"T": {"type": "DT_FLOAT"}}}, {"name": "CNN/S8/BB9/Conv2D_1", "op": "Conv2D", "input": ["CNN/S8/BB9/depthwise", "CNN/S8/BB9/W_PW"], "attr": {"dilations": {"list": {"i": ["1", "1", "1", "1"]}}, "T": {"type": "DT_FLOAT"}, "strides": {"list": {"i": ["1", "1", "1", "1"]}}, "data_format": {"s": "TkhXQw=="}, "explicit_paddings": {"list": {}}, "use_cudnn_on_gpu": {"b": true}, "padding": {"s": "VkFMSUQ="}}}, {"name": "CNN/S8/batch_normalization/cond/FusedBatchNorm", "op": "FusedBatchNorm", "input": ["SSD/batch_normalization_1/cond/FusedBatchNorm_1/Switch:1", "CNN/S8/batch_normalization/cond/FusedBatchNorm_1/Switch_1:1", "CNN/S8/batch_normalization/cond/FusedBatchNorm_1/Switch_2:1", "SSD/CLASSES/batch_normalization/cond/Const", "SSD/CLASSES/batch_normalization/cond/Const"], "attr": {"epsilon": {"f": 0.0010000000474974513}, "T": {"type": "DT_FLOAT"}, "data_format": {"s": "TkhXQw=="}, "is_training": {"b": true}}}, {"name": "CNN/S8/batch_normalization/cond/FusedBatchNorm_1", "op": "FusedBatchNorm", "input": ["SSD/batch_normalization_1/cond/FusedBatchNorm_1/Switch", "CNN/S8/batch_normalization/cond/FusedBatchNorm_1/Switch_1", "CNN/S8/batch_normalization/cond/FusedBatchNorm_1/Switch_2", "SSD/batch_normalization_1/cond/FusedBatchNorm_1/Switch_3", "SSD/batch_normalization_1/cond/FusedBatchNorm_1/Switch_4"], "attr": {"epsilon": {"f": 0.0010000000474974513}, "T": {"type": "DT_FLOAT"}, "data_format": {"s": "TkhXQw=="}, "is_training": {"b": false}}}, {"name": "SSD/batch_normalization_1/cond/FusedBatchNorm", "op": "FusedBatchNorm", "input": ["SSD/batch_normalization_1/cond/FusedBatchNorm_1/Switch:1", "SSD/batch_normalization_1/cond/FusedBatchNorm_1/Switch_1:1", "SSD/batch_normalization_1/cond/FusedBatchNorm_1/Switch_2:1", "SSD/CLASSES/batch_normalization/cond/Const", "SSD/CLASSES/batch_normalization/cond/Const"], "attr": {"epsilon": {"f": 0.0010000000474974513}, "T": {"type": "DT_FLOAT"}, "data_format": {"s": "TkhXQw=="}, "is_training": {"b": true}}}, {"name": "SSD/batch_normalization_1/cond/FusedBatchNorm_1", "op": "FusedBatchNorm", "input": ["SSD/batch_normalization_1/cond/FusedBatchNorm_1/Switch", "SSD/batch_normalization_1/cond/FusedBatchNorm_1/Switch_1", "SSD/batch_normalization_1/cond/FusedBatchNorm_1/Switch_2", "SSD/batch_normalization_1/cond/FusedBatchNorm_1/Switch_3", "SSD/batch_normalization_1/cond/FusedBatchNorm_1/Switch_4"], "attr": {"epsilon": {"f": 0.0010000000474974513}, "T": {"type": "DT_FLOAT"}, "data_format": {"s": "TkhXQw=="}, "is_training": {"b": false}}}, {"name": "CNN/S8/batch_normalization/cond/Merge", "op": "Merge", "input": ["CNN/S8/batch_normalization/cond/FusedBatchNorm_1", "CNN/S8/batch_normalization/cond/FusedBatchNorm"], "attr": {"T": {"type": "DT_FLOAT"}, "N": {"i": "2"}}}, {"name": "SSD/batch_normalization_1/cond/Merge", "op": "Merge", "input": ["SSD/batch_normalization_1/cond/FusedBatchNorm_1", "SSD/batch_normalization_1/cond/FusedBatchNorm"], "attr": {"T": {"type": "DT_FLOAT"}, "N": {"i": "2"}}}, {"name": "CNN/S8/BB9/Conv2D", "op": "Conv2D", "input": ["CNN/S8/batch_normalization/cond/Merge", "CNN/S8/BB9/W_PW_in"], "attr": {"dilations": {"list": {"i": ["1", "1", "1", "1"]}}, "T": {"type": "DT_FLOAT"}, "strides": {"list": {"i": ["1", "1", "1", "1"]}}, "data_format": {"s": "TkhXQw=="}, "explicit_paddings": {"list": {}}, "use_cudnn_on_gpu": {"b": true}, "padding": {"s": "VkFMSUQ="}}}, {"name": "SSD/depthwise_2", "op": "DepthwiseConv2dNative", "input": ["SSD/batch_normalization_1/cond/Merge", "SSD/W0_1"], "attr": {"dilations": {"list": {"i": ["1", "1", "1", "1"]}}, "padding": {"s": "U0FNRQ=="}, "T": {"type": "DT_FLOAT"}, "data_format": {"s": "TkhXQw=="}, "strides": {"list": {"i": ["1", "2", "2", "1"]}}}}, {"name": "CNN/S8/BB9/Relu", "op": "Relu", "input": ["CNN/S8/BB9/Conv2D"], "attr": {"T": {"type": "DT_FLOAT"}}}, {"name": "CNN/S8/BB9/batch_normalization/cond/FusedBatchNorm_1/Switch", "op": "Switch", "input": ["CNN/S8/BB9/Relu", "training"], "attr": {"T": {"type": "DT_FLOAT"}}}, {"name": "CNN/S8/BB9/batch_normalization/cond/FusedBatchNorm", "op": "FusedBatchNorm", "input": ["CNN/S8/BB9/batch_normalization/cond/FusedBatchNorm_1/Switch:1", "CNN/S8/BB9/batch_normalization/cond/FusedBatchNorm_1/Switch_1:1", "CNN/S8/BB9/batch_normalization/cond/FusedBatchNorm_1/Switch_2:1", "SSD/CLASSES/batch_normalization/cond/Co…
": {"i": "0"}, "end_mask": {"i": "0"}}}, {"name": "while/while/strided_slice_22", "op": "StridedSlice", "input": ["while/while/transpose_1", "while/while/strided_slice_19/stack_1", "while/while/strided_slice_44/stack_1", "while/while/strided_slice_45/stack_1"], "attr": {"T": {"type": "DT_FLOAT"}, "Index": {"type": "DT_INT32"}, "shrink_axis_mask": {"i": "1"}, "begin_mask": {"i": "0"}, "ellipsis_mask": {"i": "0"}, "new_axis_mask": {"i": "0"}, "end_mask": {"i": "0"}}}, {"name": "while/while/strided_slice_11", "op": "StridedSlice", "input": ["while/while/transpose_1", "while/while/strided_slice_45/stack_1", "while/while/strided_slice_19/stack", "while/while/strided_slice_45/stack_1"], "attr": {"T": {"type": "DT_FLOAT"}, "Index": {"type": "DT_INT32"}, "shrink_axis_mask": {"i": "1"}, "begin_mask": {"i": "0"}, "ellipsis_mask": {"i": "0"}, "new_axis_mask": {"i": "0"}, "end_mask": {"i": "0"}}}, {"name": "while/while/transpose", "op": "Transpose", "input": ["while/while/strided_slice_2", "while/while/transpose/perm"], "attr": {"Tperm": {"type": "DT_INT32"}, "T": {"type": "DT_FLOAT"}}}, {"name": "while_1/Mean", "op": "Mean", "input": ["while_1/strided_slice_7", "while_1/Mean/reduction_indices"], "attr": {"keep_dims": {"b": false}, "Tidx": {"type": "DT_INT32"}, "T": {"type": "DT_FLOAT"}}}, {"name": "while/while/truediv_5", "op": "Mul", "input": ["while/while/Greater/y", "while/while/strided_slice_21"], "attr": {"T": {"type": "DT_FLOAT"}}}, {"name": "while/while/mul_1", "op": "Mul", "input": ["while/while/strided_slice_21", "while/while/strided_slice_22"], "attr": {"T": {"type": "DT_FLOAT"}}}, {"name": "while/while/truediv_4", "op": "Mul", "input": ["while/while/Greater/y", "while/while/strided_slice_22"], "attr": {"T": {"type": "DT_FLOAT"}}}, {"name": "while/while/strided_slice_19", "op": "StridedSlice", "input": ["while/while/transpose", "while/while/strided_slice_19/stack", "while/while/strided_slice_19/stack_1", "while/while/strided_slice_45/stack_1"], "attr": {"T": {"type": "DT_FLOAT"}, "Index": {"type": "DT_INT32"}, "shrink_axis_mask": {"i": "1"}, "begin_mask": {"i": "0"}, "ellipsis_mask": {"i": "0"}, "new_axis_mask": {"i": "0"}, "end_mask": {"i": "0"}}}, {"name": "while/while/strided_slice_5", "op": "StridedSlice", "input": ["while/while/transpose", "while/while/Const", "while/while/strided_slice_45/stack_1", "while/while/strided_slice_45/stack_1"], "attr": {"T": {"type": "DT_FLOAT"}, "Index": {"type": "DT_INT32"}, "shrink_axis_mask": {"i": "1"}, "begin_mask": {"i": "0"}, "ellipsis_mask": {"i": "0"}, "new_axis_mask": {"i": "0"}, "end_mask": {"i": "0"}}}, {"name": "while/while/strided_slice_20", "op": "StridedSlice", "input": ["while/while/transpose", "while/while/strided_slice_19/stack_1", "while/while/strided_slice_44/stack_1", "while/while/strided_slice_45/stack_1"], "attr": {"T": {"type": "DT_FLOAT"}, "Index": {"type": "DT_INT32"}, "shrink_axis_mask": {"i": "1"}, "begin_mask": {"i": "0"}, "ellipsis_mask": {"i": "0"}, "new_axis_mask": {"i": "0"}, "end_mask": {"i": "0"}}}, {"name": "while/while/strided_slice_3", "op": "StridedSlice", "input": ["while/while/transpose", "while/while/strided_slice_45/stack_1", "while/while/strided_slice_19/stack", "while/while/strided_slice_45/stack_1"], "attr": {"T": {"type": "DT_FLOAT"}, "Index": {"type": "DT_INT32"}, "shrink_axis_mask": {"i": "1"}, "begin_mask": {"i": "0"}, "ellipsis_mask": {"i": "0"}, "new_axis_mask": {"i": "0"}, "end_mask": {"i": "0"}}}, {"name": "while_1/strided_slice_9", "op": "StridedSlice", "input": ["while_1/Mean", "while_1/strided_slice_9/stack", "while_1/strided_slice_9/stack_1", "while_1/strided_slice_8/stack_2"], "attr": {"T": {"type": "DT_FLOAT"}, "Index": {"type": "DT_INT32"}, "shrink_axis_mask": {"i": "1"}, "begin_mask": {"i": "0"}, "ellipsis_mask": {"i": "0"}, "new_axis_mask": {"i": "0"}, "end_mask": {"i": "0"}}}, {"name": "while_1/Min", "op": "Min", "input": ["while_1/Mean", "while_1/strided_slice_8/stack"], "attr": {"keep_dims": {"b": false}, "Tidx": {"type": "DT_INT32"}, "T": {"type": "DT_FLOAT"}}}, {"name": "while_1/strided_slice_8", "op": "StridedSlice", "input": ["while_1/Mean", "while_1/strided_slice_8/stack", "while_1/strided_slice_8/stack_1", "while_1/strided_slice_8/stack_2"], "attr": {"T": {"type": "DT_FLOAT"}, "Index": {"type": "DT_INT32"}, "shrink_axis_mask": {"i": "0"}, "begin_mask": {"i": "1"}, "ellipsis_mask": {"i": "0"}, "new_axis_mask": {"i": "0"}, "end_mask": {"i": "0"}}}, {"name": "while/while/add_3", "op": "Add", "input": ["while/while/strided_slice_13", "while/while/truediv_5"], "attr": {"T": {"type": "DT_FLOAT"}}}, {"name": "while/while/sub_3", "op": "Sub", "input": ["while/while/strided_slice_13", "while/while/truediv_5"], "attr": {"T": {"type": "DT_FLOAT"}}}, {"name": "while/while/add_2", "op": "Add", "input": ["while/while/strided_slice_11", "while/while/truediv_4"], "attr": {"T": {"type": "DT_FLOAT"}}}, {"name": "while/while/sub_2", "op": "Sub", "input": ["while/while/strided_slice_11", "while/while/truediv_4"], "attr": {"T": {"type": "DT_FLOAT"}}}, {"name": "while/while/truediv_1", "op": "Mul", "input": ["while/while/Greater/y", "while/while/strided_slice_19"], "attr": {"T": {"type": "DT_FLOAT"}}}, {"name": "while/while/mul", "op": "Mul", "input": ["while/while/strided_slice_19", "while/while/strided_slice_20"], "attr": {"T": {"type": "DT_FLOAT"}}}, {"name": "while/while/truediv", "op": "Mul", "input": ["while/while/Greater/y", "while/while/strided_slice_20"], "attr": {"T": {"type": "DT_FLOAT"}}}, {"name": "ConstantFolding/while_1/concat/values_2_const_axis", "op": "Const", "input": ["^while_1/strided_slice_9"], "attr": {"value": {"tensor": {"dtype": "DT_INT32", "tensorShape": {}}}, "dtype": {"type": "DT_INT32"}}}, {"name": "ConstantFolding/while_1/concat/values_1_const_axis", "op": "Const", "input": ["^while_1/Min"], "attr": {"value": {"tensor": {"dtype": "DT_INT32", "tensorShape": {}}}, "dtype": {"type": "DT_INT32"}}}, {"name": "ConstantFolding/while/while/concat_1/values_3_const_axis", "op": "Const", "input": ["^while/while/add_3"], "attr": {"value": {"tensor": {"dtype": "DT_INT32", "tensorShape": {}}}, "dtype": {"type": "DT_INT32"}}}, {"name": "ConstantFolding/while/while/concat_1/values_1_const_axis", "op": "Const", "input": ["^while/while/sub_3"], "attr": {"value": {"tensor": {"dtype": "DT_INT32", "tensorShape": {}}}, "dtype": {"type": "DT_INT32"}}}, {"name": "ConstantFolding/while/while/concat_1/values_2_const_axis", "op": "Const", "input": ["^while/while/add_2"], "attr": {"value": {"tensor": {"dtype": "DT_INT32", "tensorShape": {}}}, "dtype": {"type": "DT_INT32"}}}, {"name": "ConstantFolding/while/while/concat_1/values_0_const_axis", "op": "Const", "input": ["^while/while/sub_2"], "attr": {"value": {"tensor": {"dtype": "DT_INT32", "tensorShape": {}}}, "dtype": {"type": "DT_INT32"}}}, {"name": "while/while/add_1", "op": "Add", "input": ["while/while/strided_slice_5", "while/while/truediv_1"], "attr": {"T": {"type": "DT_FLOAT"}}}, {"name": "while/while/sub_1", "op": "Sub", "input": ["while/while/strided_slice_5", "while/while/truediv_1"], "attr": {"T": {"type": "DT_FLOAT"}}}, {"name": "while/while/add_4", "op": "Add", "input": ["while/while/mul", "while/while/mul_1"], "attr": {"T": {"type": "DT_FLOAT"}}}, {"name": "while/while/add", "op": "Add", "input": ["while/while/strided_slice_3", "while/while/truediv"], "attr": {"T": {"type": "DT_FLOAT"}}}, {"name": "while/while/sub", "op": "Sub", "input": ["while/while/strided_slice_3", "while/while/truediv"], "attr": {"T": {"type": "DT_FLOAT"}}}, {"name": "while_1/concat/values_2", "op": "ExpandDims", "input": ["while_1/strided_slice_9", "ConstantFolding/while_1/concat/values_2_const_axis"], "attr": {"Tdim": {"type": "DT_INT32"}, "T": {"type": "DT_FLOAT"}}}, {"name": "while_1/concat/values_1", "op": "ExpandDims", "input": ["while_1/Min", "ConstantFolding/while_1/concat/values_1_const_axis"], "attr": {"Tdim": {"type": "DT_INT32"}, "T": {"type": "DT_FLOAT"}}}, {"name": "while/while/concat_1/values_3", "op": "ExpandDims", "input": ["while/while/add_3", "ConstantFolding/while/while/concat_1/values_3_const_axis"], "attr": {"Tdim": {"type": "DT_INT32"}, "T": {"type": "DT_FLOAT"}}}, {"name": "while/while/concat_1/values_1", "op": "ExpandDims", "input": ["while/while/sub_3", "ConstantFolding/while/while/concat_1/values_1_const_axis"], "attr": {"Tdim": {"type": "DT_INT32"}, "T": {"type": "DT_FLOAT"}}}, {"name": "while/while/concat_1/values_2", "op": "ExpandDims", "input": ["while/while/add_2", "ConstantFolding/while/while/concat_1/values_2_const_axis"], "attr": {"Tdim": {"type": "DT_INT32"}, "T": {"type": "DT_FLOAT"}}}, {"name": "while/while/concat_1/values_0", "op": "ExpandDims", "input": ["while/while/sub_2", "ConstantFolding/while/while/concat_1/values_0_const_axis"], "attr": {"Tdim": {"type": "DT_INT32"}, "T": {"type": "DT_FLOAT"}}}, {"name": "ConstantFolding/while/while/concat/values_3_const_axis", "op": "Const", "input": ["^while/while/add_1"], "attr": {"value": {"tensor": {"dtype": "DT_INT32", "tensorShape": {}}}, "dtype": {"type": "DT_INT32"}}}, {"name": "ConstantFolding/while/while/concat/values_1_const_axis", "op": "Const", "input": ["^while/while/sub_1"], "attr": {"value": {"tensor": {"dtype": "DT_INT32", "tensorShape": {}}}, "dtype": {"type": "DT_INT32"}}}, {"name": "ConstantFolding/while/while/concat/values_2_const_axis", "op": "Const", "input": ["^while/while/add"], "attr": {"value": {"tensor": {"dtype": "DT_INT32", "tensorShape": {}}}, "dtype": {"type": "DT_INT32"}}}, {"name": "ConstantFolding/while/while/concat/values_0_const_axis", "op": "Const", "input": ["^while/while/sub"], "attr": {"value": {"tensor": {"dtype": "DT_INT32", "tensorShape": {}}}, "dtype": {"type": "DT_INT32"}}}, {"name": "while_1/concat", "op": "ConcatV2", "input": ["while_1/strided_slice_8", "while_1/concat/values_1", "while_1/concat/values_2", "while_1/concat/axis"], "attr": {"Tidx": {"type": "DT_INT32"}, "T": {"type": "DT_FLOAT"}, "N": {"i": "3"}}}, {"name": "while/while/concat_1", "op": "ConcatV2", "input": ["while/while/concat_1/values_0", "while/while/concat_1/values_1", "while/while/concat_1/values_2", "while/while/concat_1/values_3", "while/while/GatherV2/axis"], "attr": {"Tidx": {"type": "DT_INT32"}, "T": {"type": "DT_FLOAT"}, "N": {"i": "4"}}}, {"name": "while/while/concat/values_3", "op": "ExpandDims", "input": ["while/while/add_1", "ConstantFolding/while/while/concat/values_3_const_axis"], "attr": {"Tdim": {"type": "DT_INT32"}, "T": {"type": "DT_FLOAT"}}}, {"name": "while/while/concat/values_1", "op": "ExpandDims", "input": ["while/while/sub_1", "ConstantFolding/while/while/concat/values_1_const_axis"], "attr": {"Tdim": {"type": "DT_INT32"}, "T": {"type": "DT_FLOAT"}}}, {"name": "while/while/concat/values_2", "op": "ExpandDims", "input": ["while/while/add", "ConstantFolding/while/while/concat/values_2_const_axis"], "attr": {"Tdim": {"type": "DT_INT32"}, "T": {"type": "DT_FLOAT"}}}, {"name": "while/while/concat/values_0", "op": "ExpandDims", "input": ["while/while/sub", "ConstantFolding/while/while/concat/values_0_const_axis"], "attr": {"Tdim": {"type": "DT_INT32"}, "T": {"type": "DT_FLOAT"}}}, {"name": "while_1/argsort/TopKV2", "op": "TopKV2", "input": ["while_1/concat", "while_1/argsort/strided_slice"], "attr": {"sorted": {"b": true}, "T": {"type": "DT_FLOAT"}}}, {"name": "while/while/strided_slice_24", "op": "StridedSlice", "input": ["while/while/concat_1", "while/while/Const", "while/while/strided_slice_45/stack_1", "while/while/strided_slice_45/stack_1"], "attr": {"T": {"type": "DT_FLOAT"}, "Index": {"type": "DT_INT32"}, "shrink_axis_mask": {"i": "1"}, "begin_mask": {"i": "0"}, "ellipsis_mask": {"i": "0"}, "new_axis_mask": {"i": "0"}, "end_mask": {"i": "0"}}}, {"name": "while/while/strided_slice_28", "op": "StridedSlice", "input": ["while/while/concat_1", "while/while/strided_slice_19/stack", "while/while/strided_slice_19/stack_1", "while/while/strided_slice_45/stack_1"], "attr": {"T": {"type": "DT_FLOAT"}, "Index": {"type": "DT_INT32"}, "shrink_axis_mask": {"i": "1"}, "begin_mask": {"i": "0"}, "ellipsis_mask": {"i": "0"}, "new_axis_mask": {"i": "0"}, "end_mask": {"i": "0"}}}, {"name": "while/while/strided_slice_26", "op": "StridedSlice", "input": ["while/while/concat_1", "while/while/strided_slice_45/stack_1", "while/while/strided_slice_19/stack", "while/while/strided_slice_45/stack_1"], "attr": {"T": {"type": "DT_FLOAT"}, "Index": {"type": "DT_INT32"}, "shrink_axis_mask": {"i": "1"}, "begin_mask": {"i": "0"}, "ellipsis_mask": {"i": "0"}, "new_axis_mask": {"i": "0"}, "end_mask": {"i": "0"}}}, {"name": "while/while/strided_slice_30", "op": "StridedSlice", "input": ["while/while/concat_1", "while/while/strided_slice_19/stack_1", "while/while/strided_slice_44/stack_1", "while/while/strided_slice_45/stack_1"], "attr": {"T": {"type": "DT_FLOAT"}, "Index": {"type": "DT_INT32"}, "shrink_axis_mask": {"i": "1"}, "begin_mask": {"i": "0"}, "ellipsis_mask": {"i": "0"}, "new_axis_mask": {"i": "0"}, "end_mask": {"i": "0"}}}, {"name": "while/while/concat", "op": "ConcatV2", "input": ["while/while/concat/values_0", "while/while/concat/values_1", "while/while/concat/values_2", "while/while/concat/values_3", "while/while/GatherV2/axis"], "attr": {"Tidx": {"type": "DT_INT32"}, "T": {"type": "DT_FLOAT"}, "N": {"i": "4"}}}, {"name": "while_1/strided_slice_10", "op": "StridedSlice", "input": ["while_1/argsort/TopKV2:1", "while_1/strided_slice_8/stack", "while_1/strided_slice_6/stack_1", "while_1/strided_slice_8/stack_2"], "attr": {"T": {"type": "DT_INT32"}, "Index": {"type": "DT_INT32"}, "shrink_axis_mask": {"i": "0"}, "begin_mask": {"i": "1"}, "ellipsis_mask": {"i": "0"}, "new_axis_mask": {"i": "0"}, "end_mask": {"i": "0"}}}, {"name": "while/while/strided_slice_23", "op": "StridedSlice", "input": ["while/while/concat", "while/while/Const", "while/while/strided_slice_45/stack_1", "while/while/strided_slice_45/stack_1"], "attr": {"T": {"type": "DT_FLOAT"}, "Index": {"type": "DT_INT32"}, "shrink_axis_mask": {"i": "1"}, "begin_mask": {"i": "0"}, "ellipsis_mask": {"i": "0"}, "new_axis_mask": {"i": "0"}, "end_mask": {"i": "0"}}}, {"name": "while/while/strided_slice_27", "op": "StridedSlice", "input": ["while/while/concat", "while/while/strided_slice_19/stack", "while/while/strided_slice_19/stack_1", "while/while/strided_slice_45/stack_1"], "attr": {"T": {"type": "DT_FLOAT"}, "Index": {"type": "DT_INT32"}, "shrink_axis_mask": {"i": "1"}, "begin_mask": {"i": "0"}, "ellipsis_mask": {"i": "0"}, "new_axis_mask": {"i": "0"}, "end_mask": {"i": "0"}}}, {"name": "while/while/strided_slice_25", "op": "StridedSlice", "input": ["while/while/concat", "while/while/strided_slice_45/stack_1", "while/while/strided_slice_19/stack", "while/while/strided_slice_45/stack_1"], "attr": {"T": {"type": "DT_FLOAT"}, "Index": {"type": "DT_INT32"}, "shrink_axis_mask": {"i": "1"}, "begin_mask": {"i": "0"}, "ellipsis_mask": {"i": "0"}, "new_axis_mask": {"i": "0"}, "end_mask": {"i": "0"}}}, {"name": "while/while/strided_slice_29", "op": "StridedSlice", "input": ["while/while/concat", "while/while/strided_slice_19/stack_1", "while/while/strided_slice_44/stack_1", "while/while/strided_slice_45/stack_1"], "attr": {"T": {"type": "DT_FLOAT"}, "Index": {"type": "DT_INT32"}, "shrink_axis_mask": {"i": "1"}, "begin_mask": {"i": "0"}, "ellipsis_mask": {"i": "0"}, "new_axis_mask": {"i": "0"}, "end_mask": {"i": "0"}}}, {"name": "while_1/GatherV2", "op": "GatherV2", "input": ["while_1/concat", "while_1/strided_slice_10", "while_1/GatherV2/axis"], "attr": {"Taxis": {"type": "DT_INT32"}, "batch_dims": {"i": "0"}, "Tindices": {"type": "DT_INT32"}, "Tparams": {"type": "DT_FLOAT"}}}, {"name": "while_1/Cast", "op": "Cast", "input": ["while_1/strided_slice_10"], "attr": {"SrcT": {"type": "DT_INT32"}, "Truncate": {"b": false}, "DstT": {"type": "DT_FLOAT"}}}, {"name": "while/while/Minimum_2", "op": "Minimum", "input": ["while/while/strided_slice_23", "while/while/strided_slice_24"], "attr": {"T": {"type": "DT_FLOAT"}}}, {"name": "while/while/Maximum", "op": "Maximum", "input": ["while/while/strided_slice_23", "while/while/strided_slice_24"], "attr": {"T": {"type": "DT_FLOAT"}}}, {"name": "while/while/Maximum_2", "op": "Maximum", "input": ["while/while/strided_slice_27", "while/while/strided_slice_28"], "attr": {"T": {"type": "DT_FLOAT"}}}, {"name": "while/while/Minimum", "op": "Minimum", "input": ["while/while/strided_slice_27", "while/while/strided_slice_28"], "attr": {"T": {"type": "DT_FLOAT"}}}, {"name": "while/while/Minimum_3", "op": "Minimum", "input": ["while/while/strided_slice_25", "while/while/strided_slice_26"], "attr": {"T": {"type": "DT_FLOAT"}}}, {"name": "while/while/Maximum_1", "op": "Maximum", "input": ["while/while/strided_slice_25", "while/while/strided_slice_26"], "attr": {"T": {"type": "DT_FLOAT"}}}, {"name": "while/while/Maximum_3", "op": "Maximum", "input": ["while/while/strided_slice_29", "while/while/strided_slice_30"], "attr": {"T": {"type": "DT_FLOAT"}}}, {"name": "while/while/Minimum_1", "op": "Minimum", "input": ["while/while/strided_slice_29", "while/while/strided_slice_30"], "attr": {"T": {"type": "DT_FLOAT"}}}, {"name": "while_1/concat_1", "op": "ConcatV2", "input": ["while_1/Cast", "while_1/GatherV2", "while_1/concat/axis"], "attr": {"Tidx": {"type": "DT_INT32"}, "T": {"type": "DT_FLOAT"}, "N": {"i": "2"}}}, {"name": "while/while/sub_7", "op": "Sub", "input": ["while/while/Maximum_2", "while/while/Minimum_2"], "attr": {"T": {"type": "DT_FLOAT"}}}, {"name": "while/while/sub_5", "op": "Sub", "input": ["while/while/Minimum", "while/while/Maximum"], "attr": {"T": {"type": "DT_FLOAT"}}}, {"name": "while/while/sub_6", "op": "Sub", "input": ["while/while/Maximum_3", "while/while/Minimum_3"], "attr": {"T": {"type": "DT_FLOAT"}}}, {"name": "while/while/sub_4", "op": "Sub", "input": ["while/while/Minimum_1", "while/while/Maximum_1"], "attr": {"T": {"type": "DT_FLOAT"}}}, {"name": "while_1/TensorArrayWrite/TensorArrayWriteV3", "op": "TensorArrayWriteV3", "input": ["while_1/TensorArrayWrite/TensorArrayWriteV3/Enter", "while_1/Identity", "while_1/concat_1", "while_1/Switch_1:1"], "attr": {"T": {"type": "DT_FLOAT"}}}, {"name": "while/while/Maximum_5", "op": "Maximum", "input": ["while/while/Maximum_4/x", "while/while/sub_5"], "attr": {"T": {"type": "DT_FLOAT"}}}, {"name": "while/while/mul_3", "op": "Mul", "input": ["while/while/sub_6", "while/while/sub_7"], "attr": {"T": {"type": "DT_FLOAT"}}}, {"name": "while/while/Maximum_4", "op": "Maximum", "input": ["while/while/Maximum_4/x", "while/while/sub_4"], "attr": {"T": {"type": "DT_FLOAT"}}}, {"name": "while_1/NextIteration_1", "op": "NextIteration", "input": ["while_1/TensorArrayWrite/TensorArrayWriteV3"], "attr": {"T": {"type": "DT_FLOAT"}}}, {"name": "while/while/mul_2", "op": "Mul", "input": ["while/while/Maximum_4", "while/while/Maximum_5"], "attr": {"T": {"type": "DT_FLOAT"}}}, {"name": "while/while/sub_8", "op": "Sub", "input": ["while/while/add_4", "while/while/mul_2"], "attr": {"T": {"type": "DT_FLOAT"}}}, {"name": "while/while/truediv_9", "op": "RealDiv", "input": ["while/while/sub_8", "while/while/mul_3"], "attr": {"T": {"type": "DT_FLOAT"}}}, {"name": "while/while/truediv_8", "op": "RealDiv", "input": ["while/while/mul_2", "while/while/sub_8"], "attr": {"T": {"type": "DT_FLOAT"}}}, {"name": "while/while/add_5", "op": "Add", "input": ["while/while/truediv_8", "while/while/truediv_9"], "attr": {"T": {"type": "DT_FLOAT"}}}, {"name": "while/while/sub_9", "op": "Sub", "input": ["while/while/add_5", "while/while/sub_9/y"], "attr": {"T": {"type": "DT_FLOAT"}}}, {"name": "while/while/Greater", "op": "Greater", "input": ["while/while/sub_9", "while/while/Greater/y"], "attr": {"T": {"type": "DT_FLOAT"}}}, {"name": "while/while/LogicalNot", "op": "LogicalNot", "input": ["while/while/Greater"]}, {"name": "while/while/Where", "op": "Where", "input": ["while/while/Greater"], "attr": {"T": {"type": "DT_BOOL"}}}, {"name": "while/while/Where_1", "op": "Where", "input": ["while/while/LogicalNot"], "attr": {"T": {"type": "DT_BOOL"}}}, {"name": "while/while/strided_slice_39", "op": "StridedSlice", "input": ["while/while/Where", "while/while/strided_slice_41/stack", "while/while/strided_slice_39/stack_1", "while/while/strided_slice_41/stack_2"], "attr": {"T": {"type": "DT_INT64"}, "Index": {"type": "DT_INT32"}, "shrink_axis_mask": {"i": "2"}, "begin_mask": {"i": "1"}, "ellipsis_mask": {"i": "0"}, "new_axis_mask": {"i": "0"}, "end_mask": {"i": "1"}}}, {"name": "while/while/strided_slice_46", "op": "StridedSlice", "input": ["while/while/Where_1", "while/while/strided_slice_41/stack", "while/while/strided_slice_39/stack_1", "while/while/strided_slice_41/stack_2"], "attr": {"T": {"type": "DT_INT64"}, "Index": {"type": "DT_INT32"}, "shrink_axis_mask": {"i": "2"}, "begin_mask": {"i": "1"}, "ellipsis_mask": {"i": "0"}, "new_axis_mask": {"i": "0"}, "end_mask": {"i": "1"}}}, {"name": "while/while/GatherV2", "op": "GatherV2", "input": ["while/while/Switch_1:1", "while/while/strided_slice_39", "while/while/GatherV2/axis"], "attr": {"Taxis": {"type": "DT_INT32"}, "batch_dims": {"i": "0"}, "Tindices": {"type": "DT_INT64"}, "Tparams": {"type": "DT_FLOAT"}}}, {"name": "while/while/GatherV2_2", "op": "GatherV2", "input": ["while/while/Switch_1:1", "while/while/strided_slice_46", "while/while/GatherV2/axis"], "attr": {"Taxis": {"type": "DT_INT32"}, "batch_dims": {"i": "0"}, "Tindices": {"type": "DT_INT64"}, "Tparams": {"type": "DT_FLOAT"}}}, {"name": "while/while/strided_slice_40", "op": "StridedSlice", "input": ["while/while/GatherV2", "while/while/strided_slice_42/stack_1", "while/while/strided_slice_41/stack", "while/while/strided_slice_41/stack_2"], "attr": {"T": {"type": "DT_FLOAT"}, "Index": {"type": "DT_INT32"}, "shrink_axis_mask": {"i": "0"}, "begin_mask": {"i": "1"}, "ellipsis_mask": {"i": "0"}, "new_axis_mask": {"i": "0"}, "end_mask": {"i": "3"}}}, {"name": "while/while/strided_slice_42", "op": "StridedSlice", "input": ["while/while/GatherV2", "while/while/strided_slice_41/stack", "while/while/strided_slice_42/stack_1", "while/while/strided_slice_41/stack_2"], "attr": {"T": {"type": "DT_FLOAT"}, "Index": {"type": "DT_INT32"}, "shrink_axis_mask": {"i": "0"}, "begin_mask": {"i": "3"}, "ellipsis_mask": {"i": "0"}, "new_axis_mask": {"i": "0"}, "end_mask": {"i": "1"}}}, {"name": "while/while/NextIteration_1", "op": "NextIteration", "input": ["while/while/GatherV2_2"], "attr": {"T": {"type": "DT_FLOAT"}}}, {"name": "while/while/Mean", "op": "Mean", "input": ["while/while/strided_slice_40", "while/while/GatherV2/axis"], "attr": {"keep_dims": {"b": false}, "Tidx": {"type": "DT_INT32"}, "T": {"type": "DT_FLOAT"}}}, {"name": "while/while/Max", "op": "Max", "input": ["while/while/strided_slice_40", "while/while/Max/reduction_indices"], "attr": {"keep_dims": {"b": false}, "Tidx": {"type": "DT_INT32"}, "T": {"type": "DT_FLOAT"}}}, {"name": "while/while/argsort/TopKV2", "op": "TopKV2", "input": ["while/while/Mean", "while/while/argsort/strided_slice"], "attr": {"sorted": {"b": true}, "T": {"type": "DT_FLOAT"}}}, {"name": "while/while/Square", "op": "Square", "input": ["while/while/Max"], "attr": {"T": {"type": "DT_FLOAT"}}}, {"name": "while/while/strided_slice_44", "op": "StridedSlice", "input": ["while/while/argsort/TopKV2:1", "while/while/Const", "while/while/strided_slice_44/stack_1", "while/while/strided_slice_45/stack_1"], "attr": {"T": {"type": "DT_INT32"}, "Index": {"type": "DT_INT32"}, "shrink_axis_mask": {"i": "0"}, "begin_mask": {"i": "1"}, "ellipsis_mask": {"i": "0"}, "new_axis_mask": {"i": "0"}, "end_mask": {"i": "0"}}}, {"name": "while/while/Sum", "op": "Sum", "input": ["while/while/Square", "while/while/Const"], "attr": {"keep_dims": {"b": false}, "Tidx": {"type": "DT_INT32"}, "T": {"type": "DT_FLOAT"}}}, {"name": "while/while/strided_slice_41", "op": "StridedSlice", "input": ["while/while/Square", "while/while/strided_slice_41/stack", "while/while/strided_slice_41/stack", "while/while/strided_slice_41/stack_2"], "attr": {"T": {"type": "DT_FLOAT"}, "Index": {"type": "DT_INT32"}, "shrink_axis_mask": {"i": "0"}, "begin_mask": {"i": "2"}, "ellipsis_mask": {"i": "0"}, "new_axis_mask": {"i": "1"}, "end_mask": {"i": "2"}}}, {"name": "while/while/GatherV2_1", "op": "GatherV2", "input": ["while/while/Mean", "while/while/strided_slice_44", "while/while/GatherV2/axis"], "attr": {"Taxis": {"type": "DT_INT32"}, "batch_dims": {"i": "0"}, "Tindices": {"type": "DT_INT32"}, "Tparams": {"type": "DT_FLOAT"}}}, {"name": "while/while/Cast", "op": "Cast", "input": ["while/while/strided_slice_44"], "attr": {"SrcT": {"type": "DT_INT32"}, "Truncate": {"b": false}, "DstT": {"type": "DT_FLOAT"}}}, {"name": "while/while/MatMul", "op": "MatMul", "input": ["while/while/strided_slice_41", "while/while/strided_slice_42"], "attr": {"transpose_b": {"b": false}, "T": {"type": "DT_FLOAT"}, "transpose_a": {"b": false}}}, {"name": "while/while/truediv_10", "op": "RealDiv", "input": ["while/while/MatMul", "while/while/Sum"], "attr": {"T": {"type": "DT_FLOAT"}}}, {"name": "while/while/strided_slice_45", "op": "StridedSlice", "input": ["while/while/truediv_10", "while/while/Const", "while/while/strided_slice_45/stack_1", "while/while/strided_slice_45/stack_1"], "attr": {"T": {"type": "DT_FLOAT"}, "Index": {"type": "DT_INT32"}, "shrink_axis_mask": {"i": "1"}, "begin_mask": {"i": "0"}, "ellipsis_mask": {"i": "0"}, "new_axis_mask": {"i": "0"}, "end_mask": {"i": "0"}}}, {"name": "while/while/concat_2", "op": "ConcatV2", "input": ["while/while/strided_slice_45", "while/while/Cast", "while/while/GatherV2_1", "while/while/Max/reduction_indices"], "attr": {"Tidx": {"type": "DT_INT32"}, "T": {"type": "DT_FLOAT"}, "N": {"i": "3"}}}, {"name": "while/while/TensorArrayWrite/TensorArrayWriteV3", "op": "TensorArrayWriteV3", "input": ["while/while/TensorArrayWrite/TensorArrayWriteV3/Enter_1", "while/while/Identity", "while/while/concat_2", "while/while/Switch_2:1"], "attr": {"T": {"type": "DT_FLOAT"}}}, {"name": "while/while/NextIteration_2", "op": "NextIteration", "input": ["while/while/TensorArrayWrite/TensorArrayWriteV3"], "attr": {"T": {"type": "DT_FLOAT"}}}], "library": {}, "versions": {"producer": 38}}, "weightsManifest": [{"paths": ["group1-shard1of2.bin", "group1-shard2of2.bin"], "weights": [{"name": "strided_slice_37/stack_2", "shape": [2], "dtype": "int32"}, {"name": "strided_slice_37/stack", "shape": [2], "dtype": "int32"}, {"name": "strided_slice_37/stack_1", "shape": [2], "dtype": "int32"}, {"name": "strided_slice_11/stack_2", "shape": [1], "dtype": "int32"}, {"name": "strided_slice_9/stack", "shape": [1], "dtype": "int32"}, {"name": "concat/axis", "shape": [], "dtype": "int32"}, {"name": "strided_slice_17/stack_1", "shape": [2], "dtype": "int32"}, {"name": "strided_slice_20/stack_1", "shape": [2], "dtype": "int32"}, {"name": "strided_slice_11/stack_1", "shape": [1], "dtype": "int32"}, {"name": "strided_slice_11/stack", "shape": [1], "dtype": "int32"}, {"name": "pred_mask/bias", "shape": [238], "dtype": "float32"}, {"name": "pred_mask/kernel", "shape": [1, 1, 112, 238], "dtype": "float32"}, {"name": "SSD/MASK/W2", "shape": [3, 3, 112, 1], "dtype": "float32"}, {"name": "training/input", "shape": [], "dtype": "bool"}, {"name": "batch_normalization_35/beta", "shape": [112], "dtype": "float32"}, {"name": "batch_normalization_35/gamma", "shape": [112], "dtype": "float32"}, {"name": "SSD/MASK/W1", "shape": [1, 1, 112, 112], "dtype": "float32"}, {"name": "SSD/MASK/W0", "shape": [5, 5, 112, 1], "dtype": "float32"}, {"name": "batch_normalization_34/beta", "shape": [112], "dtype": "float32"}, {"name": "batch_normalization_34/gamma", "shape": [112], "dtype": "float32"}, {"name": "batch_normalization_31/beta", "shape": [224], "dtype": "float32"}, {"name": "batch_normalization_31/gamma", "shape": [224], "dtype": "float32"}, {"name": "SSD/W_PW_1", "shape": [1, 1, 224, 224], "dtype": "float32"}, {"name": "SSD/W0_3", "shape": [5, 5, 224, 1], "dtype": "float32"}, {"name": "batch_normalization_30/beta", "shape": [224], "dtype": "float32"}, {"name": "batch_normalization_30/gamma", "shape": [224], "dtype": "float32"}, {"name": "SSD/W_PW", "shape": [1, 1, 224, 224], "dtype": "float32"}, {"name": "SSD/W2_1", "shape": [3, 3, 224, 1], "dtype": "float32"}, {"name": "batch_normalization_29/beta", "shape": [224], "dtype": "float32"}, {"name": "batch_normalization_29/gamma", "shape": [224], "dtype": "float32"}, {"name": "SSD/W1_1", "shape": [1, 1, 224, 224], "dtype": "float32"}, {"name": "SSD/W0_2", "shape": [5, 5, 224, 1], "dtype": "float32"}, {"name": "SSD/concat/axis", "shape": [], "dtype": "int32"}, {"name": "batch_normalization_27/beta", "shape": [128], "dtype": "float32"}, {"name": "batch_normalization_27/gamma", "shape": [128], "dtype": "float32"}, {"name": "CNN/S8/BB11/W_PW", "shape": [1, 1, 384, 128], "dtype": "float32"}, {"name": "CNN/S8/BB11/W0", "shape": [5, 5, 384, 1], "dtype": "float32"}, {"name": "batch_normalization_24/beta", "shape": [384], "dtype": "float32"}, {"name": "batch_normalization_24/gamma", "shape": [384], "dtype": "float32"}, {"name": "SSD/MASK/mul/y", "shape": [], "dtype": "int32"}, {"name": "CNN/S8/BB10/MaxOut/Reshape/shape/3", "shape": [], "dtype": "int32"}, {"name": "CNN/S8/BB11/W_PW_in", "shape": [1, 1, 128, 768], "dtype": "float32"}, {"name": "batch_normalization_23/beta", "shape": [128], "dtype": "float32"}, {"name": "batch_normalization_23/gamma", "shape": [128], "dtype": "float32"}, {"name": "CNN/S8/BB9/W_PW_1", "shape": [1, 1, 256, 128], "dtype": "float32"}, {"name": "CNN/S8/BB9/W0_1", "shape": [5, 5, 256, 1], "dtype": "float32"}, {"name": "batch_normalization_20/beta", "shape": [256], "dtype": "float32"}, {"name": "batch_normalization_20/gamma", "shape": [256], "dtype": "float32"}, {"name": "CNN/S8/BB9/W_PW_in", "shape": [1, 1, 64, 256], "dtype": "float32"}, {"name": "batch_normalization_19/beta", "shape": [64], "dtype": "float32"}, {"name": "batch_normalization_19/gamma", "shape": [64], "dtype": "float32"}, {"name": "CNN/S4/BB8/W_PW", "shape": [1, 1, 192, 64], "dtype": "float32"}, {"name": "CNN/S4/BB8/W0", "shape": [5, 5, 192, 1], "dtype": "float32"}, {"name": "batch_normalization_18/beta", "shape": [192], "dtype": "float32"}, {"name": "batch_normalization_18/gamma", "shape": [192], "dtype": "float32"}, {"name": "CNN/S4/BB6/MaxOut/Reshape/shape/3", "shape": [], "dtype": "int32"}, {"name": "CNN/S4/BB8/W_PW_in", "shape": [1, 1, 64, 384], "dtype": "float32"}, {"name": "batch_normalization_17/beta", "shape": [64], "dtype": "float32"}, {"name": "batch_normalization_17/gamma", "shape": [64], "dtype": "float32"}, {"name": "CNN/S4/BB7/W_PW", "shape": [1, 1, 192, 64], "dtype": "float32"}, {"name": "CNN/S4/BB7/W0", "shape": [5, 5, 192, 1], "dtype": "float32"}, {"name": "batch_normalization_16/beta", "shape": [192], "dtype": "float32"}, {"name": "batch_normalization_16/gamma", "shape": [192], "dtype": "float32"}, {"name": "CNN/S4/BB7/W_PW_in", "shape": [1, 1, 64, 384], "dtype": "float32"}, {"name": "batch_normalization_15/beta", "shape": [64], "dtype": "float32"}, {"name": "batch_normalization_15/gamma", "shape": [64], "dtype": "float32"}, {"name": "CNN/S4/BB6/W_PW", "shape": [1, 1, 192, 64], "dtype": "float32"}, {"name": "CNN/S4/BB6/W0", "shape": [5, 5, 192, 1], "dtype": "float32"}, {"name": "batch_normalization_14/beta", "shape": [192], "dtype": "float32"}, {"name": "batch_normalization_14/gamma", "shape": [192], "dtype": "float32"}, {"name": "CNN/S4/BB6/W_PW_in", "shape": [1, 1, 64, 384], "dtype": "float32"}, {"name": "batch_normalization_13/beta", "shape": [64], "dtype": "float32"}, {"name": "batch_normalization_13/gamma", "shape": [64], "dtype": "float32"}, {"name": "CNN/S4/BB5/W_PW_1", "shape": [1, 1, 128, 64], "dtype": "float32"}, {"name": "CNN/S4/BB5/W0_1", "shape": [5, 5, 128, 1], "dtype": "float32"}, {"name": "batch_normalization_12/beta", "shape": [128], "dtype": "float32"}, {"name": "batch_normalization_12/gamma", "shape": [128], "dtype": "float32"}, {"name": "CNN/S4/BB5/W_PW_in", "shape": [1, 1, 32, 128], "dtype": "float32"}, {"name": "batch_normalization_11/beta", "shape": [32], "dtype": "float32"}, {"name": "batch_normalization_11/gamma", "shape": [32], "dtype": "float32"}, {"name": "CNN/S2/BB4/W_PW", "shape": [1, 1, 96, 32], "dtype": "float32"}, {"name": "CNN/S2/BB4/W0", "shape": [5, 5, 96, 1], "dtype": "float32"}, {"name": "batch_normalization_10/beta", "shape": [96], "dtype": "float32"}, {"name": "batch_normalization_10/gamma", "shape": [96], "dtype": "float32"}, {"name": "CNN/S2/BB1/MaxOut/Reshape/shape/3", "shape": [], "dtype": "int32"}, {"name": "CNN/S2/BB4/W_PW_in", "shape": [1, 1, 32, 192], "dtype": "float32"}, {"name": "batch_normalization_9/beta", "shape": [32], "dtype": "float32"}, {"name": "batch_normalization_9/gamma", "shape": [32], "dtype": "float32"}, {"name": "CNN/S2/BB3/W_PW", "shape": [1, 1, 96, 32], "dtype": "float32"}, {"name": "CNN/S2/BB3/W0", "shape": [5, 5, 96, 1], "dtype": "float32"}, {"name": "batch_normalization_8/beta", "shape": [96], "dtype": "float32"}, {"name": "batch_normalization_8/gamma", "shape": [96], "dtype": "float32"}, {"name": "CNN/S2/BB3/W_PW_in", "shape": [1, 1, 32, 192], "dtype": "float32"}, {"name": "batch_normalization_7/beta", "shape": [32], "dtype": "float32"}, {"name": "batch_normalization_7/gamma", "shape": [32], "dtype": "float32"}, {"name": "CNN/S2/BB2/W_PW", "shape": [1, 1, 96, 32], "dtype": "float32"}, {"name": "CNN/S2/BB2/W0", "shape": [5, 5, 96, 1], "dtype": "float32"}, {"name": "batch_normalization_6/beta", "shape": [96], "dtype": "float32"}, {"name": "batch_normalization_6/gamma", "shape": [96], "dtype": "float32"}, {"name": "CNN/S2/BB2/W_PW_in", "shape": [1, 1, 32, 192], "dtype": "float32"}, {"name": "batch_normalization_5/beta", "shape": [32], "dtype": "float32"}, {"name": "batch_normalization_5/gamma", "shape": [32], "dtype": "float32"}, {"name": "CNN/S2/BB1/W_PW", "shape": [1, 1, 96, 32], "dtype": "float32"}, {"name": "CNN/S2/BB1/W0", "shape": [5, 5, 96, 1], "dtype": "float32"}, {"name": "batch_normalization_4/beta", "shape": [96], "dtype": "float32"}, {"name": "batch_normalization_4/gamma", "shape": [96], "dtype": "float32"}, {"name": "CNN/S2/BB1/W_PW_in", "shape": [1, 1, 32, 192], "dtype": "float32"}, {"name": "batch_normalization_3/beta", "shape": [32], "dtype": "float32"}, {"name": "batch_normalization_3/gamma", "shape": [32], "dtype": "float32"}, {"name": "ENTRANCE/W_PW", "shape": [1, 1, 16, 32], "dtype": "float32"}, {"name": "ENTRANCE/W2", "shape": [5, 5, 16, 1], "dtype": "float32"}, {"name": "batch_normalization/beta", "shape": [16], "dtype": "float32"}, {"name": "batch_normalization/gamma", "shape": [16], "dtype": "float32"}, {"name": "ENTRANCE/W1", "shape": [1, 1, 16, 16], "dtype": "float32"}, {"name": "ENTRANCE/W0", "shape": [5, 5, 16, 1], "dtype": "float32"}, {"name": "ENTRANCE/WC0", "shape": [7, 7, 1, 16], "dtype": "float32"}, {"name": "batch_normalization/moving_variance", "shape": [16], "dtype": "float32"}, {"name": "batch_normalization/moving_mean", "shape": [16], "dtype": "float32"}, {"name": "CNN/S2/BB0/W_PW", "shape": [1, 1, 64, 32], "dtype": "float32"}, {"name": "CNN/S2/BB0/W0", "shape": [5, 5, 64, 1], "dtype": "float32"}, {"name": "batch_normalization_2/beta", "shape": [64], "dtype": "float32"}, {"name": "batch_normalization_2/gamma", "shape": [64], "dtype": "float32"}, {"name": "CNN/S2/BB0/W_PW_in", "shape": [1, 1, 32, 64], "dtype": "float32"}, {"name": "batch_normalization_1/beta", "shape": [32], "dtype": "float32"}, {"name": "batch_normalization_1/gamma", "shape": [32], "dtype": "float32"}, {"name": "batch_normalization_1/moving_variance", "shape": [32], "dtype": "float32"}, {"name": "batch_normalization_1/moving_mean", "shape": [32], "dtype": "float32"}, {"name": "batch_normalization_2/moving_variance", "shape": [64], "dtype": "float32"}, {"name": "batch_normalization_2/moving_mean", "shape": [64], "dtype": "float32"}, {"name": "batch_normalization_3/moving_variance", "shape": [32], "dtype": "float32"}, {"name": "batch_normalization_3/moving_mean", "shape": [32], "dtype": "float32"}, {"name": "batch_normalization_4/moving_variance", "shape": [96], "dtype": "float32"}, {"name": "batch_normalization_4/moving_mean", "shape": [96], "dtype": "float32"}, {"name": "batch_normalization_5/moving_variance", "shape": [32], "dtype": "float32"}, {"name": "batch_normalization_5/moving_mean", "shape": [32], "dtype": "float32"}, {"name": "batch_normalization_6/moving_variance", "shape": [96], "dtype": "float32"}, {"name": "batch_normalization_6/moving_mean", "shape": [96], "dtype": "float32"}, {"name": "batch_normalization_7/moving_variance", "shape": [32], "dtype": "float32"}, {"name": "batch_normalization_7/moving_mean", "shape": [32], "dtype": "float32"}, {"name": "batch_normalization_8/moving_variance", "shape": [96], "dtype": "float32"}, {"name": "batch_normalization_8/moving_mean", "shape": [96], "dtype": "float32"}, {"name": "batch_normalization_9/moving_variance", "shape": [32], "dtype": "float32"}, {"name": "batch_normalization_9/moving_mean", "shape": [32], "dtype": "float32"}, {"name": "batch_normalization_10/moving_variance", "shape": [96], "dtype": "float32"}, {"name": "batch_normalization_10/moving_mean", "shape": [96], "dtype": "float32"}, {"name": "batch_normalization_25/moving_variance", "shape": [32], "dtype": "float32"}, {"name": "batch_normalization_25/moving_mean", "shape": [32], "dtype": "float32"}, {"name": "batch_normalization_12/moving_variance", "shape": [128], "dtype": "float32"}, {"name": "batch_normalization_12/moving_mean", "shape": [128], "dtype": "float32"}, {"name": "CNN/S4/BB5/W_PW", "shape": [1, 1, 32, 64], "dtype": "float32"}, {"name": "CNN/S4/BB5/W0", "shape": [3, 3, 32, 1], "dtype": "float32"}, {"name": "batch_normalization_13/moving_variance", "shape": [64], "dtype": "float32"}, {"name": "batch_normalization_13/moving_mean", "shape": [64], "dtype": "float32"}, {"name": "batch_normalization_14/moving_variance", "shape": [192], "dtype": "float32"}, {"name": "batch_normalization_14/moving_mean", "shape": [192], "dtype": "float32"}, {"name": "batch_normalization_15/moving_variance", "shape": [64], "dtype": "float32"}, {"name": "batch_normalization_15/moving_mean", "shape": [64], "dtype": "float32"}, {"name": "batch_normalization_16/moving_variance", "shape": [192], "dtype": "float32"}, {"name": "batch_normalization_16/moving_mean", "shape": [192], "dtype": "float32"}, {"name": "batch_normalization_17/moving_variance", "shape": [64], "dtype": "float32"}, {"name": "batch_normalization_17/moving_mean", "shape": [64], "dtype": "float32"}, {"name": "batch_normalization_18/moving_variance", "shape": [192], "dtype": "float32"}, {"name": "batch_normalization_18/moving_mean", "shape": [192], "dtype": "float32"}, {"name": "batch_normalization_26/moving_variance", "shape": [64], "dtype": "float32"}, {"name": "batch_normalization_26/moving_mean", "shape": [64], "dtype": "float32"}, {"name": "batch_normalization_20/moving_variance", "shape": [256], "dtype": "float32"}, {"name": "batch_normalization_20/moving_mean", "shape": [256], "dtype": "float32"}, {"name": "CNN/S8/BB9/W_PW", "shape": [1, 1, 64, 128], "dtype": "float32"}, {"name": "CNN/S8/BB9/W0", "shape": [3, 3, 64, 1], "dtype": "float32"}, {"name": "CNN/S8/BB10/W_PW", "shape": [1, 1, 384, 128], "dtype": "float32"}, {"name": "CNN/S8/BB10/W0", "shape": [5, 5, 384, 1], "dtype": "float32"}, {"name": "batch_normalization_22/beta", "shape": [384], "dtype": "float32"}, {"name": "batch_normalization_22/gamma", "shape": [384], "dtype": "float32"}, {"name": "CNN/S8/BB10/W_PW_in", "shape": [1, 1, 128, 768], "dtype": "float32"}, {"name": "batch_normalization_21/beta", "shape": [128], "dtype": "float32"}, {"name": "batch_normalization_21/gamma", "shape": [128], "dtype": "float32"}, {"name": "batch_normalization_21/moving_variance", "shape": [128], "dtype": "float32"}, {"name": "batch_normalization_21/moving_mean", "shape": [128], "dtype": "float32"}, {"name": "batch_normalization_22/moving_variance", "shape": [384], "dtype": "float32"}, {"name": "batch_normalization_22/moving_mean", "shape": [384], "dtype": "float32"}, {"name": "batch_normalization_23/moving_variance", "shape": [128], "dtype": "float32"}, {"name": "batch_normalization_23/moving_mean", "shape": [128], "dtype": "float32"}, {"name": "batch_normalization_24/moving_variance", "shape": [384], "dtype": "float32"}, {"name": "batch_normalization_24/moving_mean", "shape": [384], "dtype": "float32"}, {"name": "batch_normalization_27/moving_variance", "shape": [128], "dtype": "float32"}, {"name": "batch_normalization_27/moving_mean", "shape": [128], "dtype": "float32"}, {"name": "SSD/W0_1", "shape": [3, 3, 64, 1], "dtype": "float32"}, {"name": "batch_normalization_26/beta", "shape": [64], "dtype": "float32"}, {"name": "batch_normalization_26/gamma", "shape": [64], "dtype": "float32"}, {"name": "SSD/W2", "shape": [3, 3, 32, 1], "dtype": "float32"}, {"name": "batch_normalization_28/beta", "shape": [32], "dtype": "float32"}, {"name": "batch_normalization_28/gamma", "shape": [32], "dtype": "float32"}, {"name": "SSD/W1", "shape": [1, 1, 32, 32], "dtype": "float32"}, {"name": "SSD/W0", "shape": [5, 5, 32, 1], "dtype": "float32"}, {"name": "batch_normalization_25/beta", "shape": [32], "dtype": "float32"}, {"name": "batch_normalization_25/gamma", "shape": [32], "dtype": "float32"}, {"name": "batch_normalization_28/moving_variance", "shape": [32], "dtype": "float32"}, {"name": "batch_normalization_28/moving_mean", "shape": [32], "dtype": "float32"}, {"name": "batch_normalization_29/moving_variance", "shape": [224], "dtype": "float32"}, {"name": "batch_normalization_29/moving_mean", "shape": [224], "dtype": "float32"}, {"name": "batch_normalization_30/moving_variance", "shape": [224], "dtype": "float32"}, {"name": "batch_normalization_30/moving_mean", "shape": [224], "dtype": "float32"}, {"name": "batch_normalization_31/moving_variance", "shape": [224], "dtype": "float32"}, {"name": "batch_normalization_31/moving_mean", "shape": [224], "dtype": "float32"}, {"name": "SSD/MASK/WC_CVT", "shape": [3, 3, 112, 224], "dtype": "float32"}, {"name": "SSD/MASK/conv2d_transpose/output_shape/3", "shape": [], "dtype": "int32"}, {"name": "batch_normalization_34/moving_variance", "shape": [112], "dtype": "float32"}, {"name": "batch_normalization_34/moving_mean", "shape": [112], "dtype": "float32"}, {"name": "batch_normalization_35/moving_variance", "shape": [112], "dtype": "float32"}, {"name": "batch_normalization_35/moving_mean", "shape": [112], "dtype": "float32"}, {"name": "add_1/y", "shape": [], "dtype": "float32"}, {"name": "strided_slice_16/stack", "shape": [2], "dtype": "int32"}, {"name": "TensorArrayStack/range/start", "shape": [], "dtype": "int32"}, {"name": "strided_slice_24/stack_1", "shape": [2], "dtype": "int32"}, {"name": "TensorArrayStack/range/delta", "shape": [], "dtype": "int32"}, {"name": "strided_slice_35/stack_1", "shape": [2], "dtype": "int32"}, {"name": "pred_classes/bias", "shape": [2618], "dtype": "float32"}, {"name": "pred_classes/kernel", "shape": [1, 1, 224, 2618], "dtype": "float32"}, {"name": "SSD/CLASSES/W4", "shape": [3, 3, 224, 1], "dtype": "float32"}, {"name": "batch_normalization_33/beta", "shape": [224], "dtype": "float32"}, {"name": "batch_normalization_33/gamma", "shape": [224], "dtype": "float32"}, {"name": "SSD/CLASSES/W3", "shape": [1, 1, 224, 224], "dtype": "float32"}, {"name": "SSD/CLASSES/W2", "shape": [3, 3, 224, 1], "dtype": "float32"}, {"name": "batch_normalization_32/beta", "shape": [224], "dtype": "float32"}, {"name": "batch_normalization_32/gamma", "shape": [224], "dtype": "float32"}, {"name": "SSD/CLASSES/W1", "shape": [1, 1, 224, 224], "dtype": "float32"}, {"name": "SSD/CLASSES/W0", "shape": [5, 5, 224, 1], "dtype": "float32"}, {"name": "batch_normalization_32/moving_variance", "shape": [224], "dtype": "float32"}, {"name": "batch_normalization_32/moving_mean", "shape": [224], "dtype": "float32"}, {"name": "batch_normalization_33/moving_variance", "shape": [224], "dtype": "float32"}, {"name": "batch_normalization_33/moving_mean", "shape": [224], "dtype": "float32"}, {"name": "Greater/y", "shape": [], "dtype": "float32"}, {"name": "Reshape/shape/4", "shape": [], "dtype": "int32"}, {"name": "Reshape_1/shape/3", "shape": [], "dtype": "int32"}, {"name": "anchors_shape", "shape": [11, 2], "dtype": "float32"}, {"name": "Reshape_1/shape/4", "shape": [], "dtype": "int32"}, {"name": "pred_boxes/bias", "shape": [44], "dtype": "float32"}, {"name": "pred_boxes/kernel", "shape": [1, 1, 224, 44], "dtype": "float32"}, {"name": "LinSpace_1/start", "shape": [], "dtype": "float32"}, {"name": "while/strided_slice/stack_1", "shape": [1], "dtype": "int32"}, {"name": "while/strided_slice/stack", "shape": [1], "dtype": "int32"}, {"name": "SSD/CLASSES/batch_normalization/cond/Const", "shape": [0], "dtype": "float32"}, {"name": "SSD/cond/Const", "shape": [4], "dtype": "int32"}, {"name": "SSD/cond/Pad/paddings", "shape": [4, 2], "dtype": "int32"}, {"name": "SSD/cond/Bernoulli/sample/concat/axis", "shape": [], "dtype": "int32"}, {"name": "SSD/cond/strided_slice_2/stack_2", "shape": [1], "dtype": "int32"}, {"name": "SSD/cond/Bernoulli/sample/Const", "shape": [1], "dtype": "int32"}, {"name": "SSD/cond/sub_2/y", "shape": [], "dtype": "float32"}, {"name": "SSD/cond/strided_slice_2/stack", "shape": [1], "dtype": "int32"}, {"name": "SSD/cond/strided_slice_1/stack", "shape": [1], "dtype": "int32"}, {"name": "SSD/cond/stack/0", "shape": [], "dtype": "float32"}, {"name": "SSD/cond/mul", "shape": [], "dtype": "float32"}, {"name": "SSD/cond/Bernoulli/batch_shape_tensor/batch_shape", "shape": [0], "dtype": "int32"}, {"name": "SSD/cond/strided_slice_2/stack_1", "shape": [1], "dtype": "int32"}, {"name": "SSD/cond/sub_4/x", "shape": [], "dtype": "int32"}, {"name": "ConstantFolding/SSD/cond/Bernoulli/sample/concat/values_0_const_axis", "shape": [], "dtype": "int32"}, {"name": "while/Add/y", "shape": [], "dtype": "int32"}, {"name": "while/GatherV2/axis", "shape": [], "dtype": "int32"}, {"name": "while/strided_slice_1/stack_2", "shape": [2], "dtype": "int32"}, {"name": "while/strided_slice_1/stack_1", "shape": [2], "dtype": "int32"}, {"name": "while/strided_slice_1/stack", "shape": [2], "dtype": "int32"}, {"name": "while/while/GreaterEqual/y", "shape": [], "dtype": "int32"}, {"name": "while_1/add/y", "shape": [], "dtype": "int32"}, {"name": "while_1/concat/axis", "shape": [], "dtype": "int32"}, {"name": "while_1/GatherV2/axis", "shape": [], "dtype": "int32"}, {"name": "while_1/strided_slice_8/stack_2", "shape": [1], "dtype": "int32"}, {"name": "while_1/strided_slice_6/stack_1", "shape": [1], "dtype": "int32"}, {"name": "while_1/strided_slice_8/stack", "shape": [1], "dtype": "int32"}, {"name": "while_1/argsort/strided_slice", "shape": [], "dtype": "int32"}, {"name": "while_1/strided_slice_9/stack_1", "shape": [1], "dtype": "int32"}, {"name": "while_1/strided_slice_9/stack", "shape": [1], "dtype": "int32"}, {"name": "while_1/Mean/reduction_indices", "shape": [2], "dtype": "int32"}, {"name": "while_1/strided_slice_7/stack_2", "shape": [2], "dtype": "int32"}, {"name": "while_1/strided_slice_4/stack_1", "shape": [1], "dtype": "int32"}, {"name": "while_1/strided_slice_5/stack_1", "shape": [1], "dtype": "int32"}, {"name": "while_1/strided_slice_8/stack_1", "shape": [1], "dtype": "int32"}, {"name": "ConstantFolding/while_1/strided_slice/stack_1_const_axis", "shape": [], "dtype": "int32"}, {"name": "ConstantFolding/while_1/strided_slice_1/stack_const_axis", "shape": [], "dtype": "int32"}, {"name": "ConstantFolding/while_1/strided_slice_1/stack_1_const_axis", "shape": [], "dtype": "int32"}, {"name": "while/while/Add_6/y", "shape": [], "dtype": "int32"}, {"name": "while/while/GatherV2/axis", "shape": [], "dtype": "int32"}, {"name": "while/while/strided_slice_41/stack_2", "shape": [2], "dtype": "int32"}, {"name": "while/while/strided_slice_39/stack_1", "shape": [2], "dtype": "int32"}, {"name": "while/while/strided_slice_41/stack", "shape": [2], "dtype": "int32"}, {"name": "while/while/Greater/y", "shape": [], "dtype": "float32"}, {"name": "while/while/sub_9/y", "shape": [], "dtype": "float32"}, {"name": "while/while/strided_slice_45/stack_1", "shape": [1], "dtype": "int32"}, {"name": "while/while/Const", "shape": [1], "dtype": "int32"}, {"name": "while/while/strided_slice_19/stack_1", "shape": [1], "dtype": "int32"}, {"name": "while/while/strided_slice_19/stack", "shape": [1], "dtype": "int32"}, {"name": "while/while/transpose/perm", "shape": [2], "dtype": "int32"}, {"name": "while/while/strided_slice_42/stack_1", "shape": [2], "dtype": "int32"}, {"name": "while/while/strided_slice_44/stack_1", "shape": [1], "dtype": "int32"}, {"name": "while/while/strided_slice/stack_1", "shape": [2], "dtype": "int32"}, {"name": "while/while/Maximum_4/x", "shape": [], "dtype": "float32"}, {"name": "while/while/Max/reduction_indices", "shape": [], "dtype": "int32"}, {"name": "while/while/argsort/strided_slice", "shape": [], "dtype": "int32"}, {"name": "ConstantFolding/while_1/concat/values_2_const_axis", "shape": [], "dtype": "int32"}, {"name": "ConstantFolding/while_1/concat/values_1_const_axis", "shape": [], "dtype": "int32"}, {"name": "ConstantFolding/while/while/concat_1/values_3_const_axis", "shape": [], "dtype": "int32"}, {"name": "ConstantFolding/while/while/concat_1/values_1_const_axis", "shape": [], "dtype": "int32"}, {"name": "ConstantFolding/while/while/concat_1/values_2_const_axis", "shape": [], "dtype": "int32"}, {"name": "ConstantFolding/while/while/concat_1/values_0_const_axis", "shape": [], "dtype": "int32"}, {"name": "ConstantFolding/while/while/concat/values_3_const_axis", "shape": [], "dtype": "int32"}, {"name": "ConstantFolding/while/while/concat/values_1_const_axis", "shape": [], "dtype": "int32"}, {"name": "ConstantFolding/while/while/concat/values_2_const_axis", "shape": [], "dtype": "int32"}, {"name": "ConstantFolding/while/while/concat/values_0_const_axis", "shape": [], "dtype": "int32"}]}]}